src/algorithms/deep/pretrained/arga_dblp.pt (torch, 73428 bytes, 9 tensors)

encoder.conv1.bias f4 [48]
0	0x3d0d1d9c	0.034452066
1	0x3c38ce2c	0.011279624
2	0x3d15fb3c	0.03661655
3	0xbc6abd7b	-0.014327402
4	0xbcad0cbe	-0.02112424
5	0xbc85f534	-0.016352274
6	0x3d10943d	0.03529762
7	0x3d43ad0b	0.04777245
8	0x3c92526a	0.017861564
9	0xbcd48890	-0.025944024
10	0x3d34340a	0.04399494
11	0xbc835609	-0.016032236
12	0x3ce78f37	0.028266532
13	0x3c08f524	0.008359227
14	0x3cfff829	0.031246262
15	0xbc95f3ed	-0.01830479
16	0xbcb663cf	-0.02226439
17	0x3d1828bb	0.03714822
18	0x3d418c88	0.04725316
19	0xbd23f2d1	-0.04002649
20	0xbd0ae4ba	-0.033909537
21	0xbd11b5d9	-0.035573814
22	0xbcd1e7ce	-0.025623228
23	0xbc3865a7	-0.011254705
24	0xbcff2a1a	-0.031148005
25	0xbc0c14ef	-0.008549913
26	0x3c27b80c	0.010236751
27	0xbc8ea900	-0.01741457
28	0xbcea5653	-0.028605616
29	0x3d134810	0.035957396
30	0x3b80dc32	0.0039324993
31	0x3d3d5774	0.04622598
32	0xbca4e162	-0.020127002
33	0x39df90ec	0.0004264185
34	0xbc412e43	-0.011790815
35	0x3cfd6eda	0.030936647
36	0x3cb14ff3	0.021644568
37	0x3d115197	0.0354782
38	0x3cd9903b	0.026558032
39	0x3cf25972	0.029583666
40	0xbd10130f	-0.035174426
41	0x3d3c238b	0.045932334
42	0x3d40612c	0.04696767
43	0xbd0888c9	-0.033333573
44	0xbbe644e1	-0.007027254
45	0x3caa4d66	0.02078886
46	0x3b994eb0	0.0046785697
47	0xbc4f7867	-0.0126629835

encoder.conv1.lin.weight f4 [48, 334]
0	0xbda7bb3b	-0.08190008
1	0xbc795ff2	-0.015220629
2	0xbdfdedda	-0.12398882
3	0x3d5a53e8	0.053302675
4	0xbdc98864	-0.098404676
5	0x3d82dd25	0.06389836
6	0x3dc474bc	0.09592578
7	0xbcd7fdde	-0.02636617
8	0x3e1ad642	0.15120795
9	0xbdf7519a	-0.12076111
10	0xbccb93fa	-0.024850834
11	0x3d5acdd6	0.053418957
12	0x3d16a10b	0.036774676
13	0xbcc60d5a	-0.024176288
14	0x3e0b0fe2	0.13580278
15	0xbba9960f	-0.005175359
16	0xbd49d0a5	-0.049271245
17	0x3e1aba8a	0.15110222
18	0x3d35a627	0.04434791
19	0x3dfa49cf	0.12221109
20	0xbd1d1b3d	-0.038356055
21	0xbc6c55b8	-0.014424734
22	0x3e170a9c	0.14750141
23	0x3e12d085	0.14337356
24	0xbd4e6ded	-0.050397802
25	0x3deed32f	0.11661374
26	0x3d8e3f40	0.06945658
27	0xbdf346a9	-0.11878712
28	0xbde76522	-0.112985864
29	0x3dbf44d4	0.093393
30	0x3e0e0cf0	0.13872123
31	0x3df12284	0.117741615
32	0xbdbd0749	-0.09229905
33	0xbd59958f	-0.053121146
34	0xbdaa1a0d	-0.0830575
35	0x3da5d19d	0.08096621
36	0x3e03cfdd	0.12872262
37	0xbe282580	-0.16420555
38	0xbdcb7311	-0.099340566
39	0xbd991bd4	-0.07476011
40	0x3d19a73e	0.03751301
41	0x3dc845b1	0.097789176
42	0xbda3aa4f	-0.07991468
43	0xbda72fd0	-0.081634164
44	0x3e14eeb7	0.14544187
45	0xbd36f092	-0.04466302
46	0x3e17a5b7	0.14809309
47	0x3ce7e68a	0.028308172
48	0xbdde6d92	-0.10860743
49	0x3dea271a	0.11433239
50	0x3e0c1afc	0.13682169
51	0x3cbc8281	0.023011448
52	0x3e168f76	0.14703164
53	0xbde6b6a6	-0.11265306
54	0x3d91e5b0	0.071238875
55	0x3e038a9c	0.12845844
56	0x3da0ee8a	0.07857998
57	0xbddd9b25	-0.10820607
58	0xbd1858c1	-0.037194017
59	0x3cc1ba2a	0.02364834
60	0x3d4fa1e5	0.050691504
61	0x3dcadaca	0.09905012
62	0x3dd29c1b	0.10283681
63	0x3e018077	0.12646662
64	0xbdc52ff4	-0.09628287
65	0x3bec8374	0.007217819
66	0x3ddaadb6	0.10677664
67	0x3e1890df	0.14899014
68	0xbd824edb	-0.06362697
69	0x3d983475	0.074318804
70	0x3da9e658	0.08295888
71	0x3d95f9ab	0.07323011
72	0xbda95b53	-0.08269372
73	0xbcd5df7d	-0.026107544
74	0xbda02ade	-0.07820676
75	0xbd700d69	-0.05860654
76	0x3d5e42d8	0.054262966
77	0xbddf1979	-0.108935304
78	0x3dcd7977	0.10032933
79	0xbcfe479a	-0.031040002
80	0x3d231eac	0.039824173
81	0xbc998c3d	-0.018743629
82	0x3d6b76ad	0.057486225
83	0xbe009ca6	-0.12559757
84	0xbe09c476	-0.1345385
85	0xbdf5ef3f	-0.12008523
86	0x3df928a3	0.12165954
87	0x3e25d1bb	0.16193287
88	0x3de796d1	0.11308063
89	0x3e30d7ef	0.17269872
90	0xbcb27620	-0.021784842
91	0xbd8e8c35	-0.06960336
92	0x3e0c31d8	0.13690889
93	0x3d64dcd7	0.05587467
94	0x3d56c459	0.052433345
95	0xbbc7f98d	-0.006102747
96	0x3d965751	0.07340873
97	0xbbda4ca4	-0.0066619683
98	0x3d85f247	0.06540351
99	0xbceeb3a5	-0.029138396
100	0xbb83fcc3	-0.0040279343
101	0xbdb633a1	-0.08896566
102	0x3ca9416a	0.020661075
103	0x3dc4b54e	0.096048936
104	0xbd22370f	-0.03960329
105	0x3dcbbc87	0.09948068
106	0xbdcc1cfb	-0.09966465
107	0xbd5096cd	-0.050925065
108	0x3def1cec	0.11675438
109	0x3dca8e3e	0.09890412
110	0xbdcdced3	-0.10049214
111	0xbdca5536	-0.09879534
112	0x3dd2fed9	0.103025146
113	0x3de8ce33	0.113674544
114	0x3d6e095f	0.058114406
115	0xbd13c7c9	-0.0360792
116	0xbdafe5fb	-0.08588787
117	0xbd2129f3	-0.039346647
118	0x3df6c0ca	0.1204849
119	0x3cdb0f03	0.026740557
120	0xbdf100db	-0.11767741
121	0xbdfe0530	-0.12403333
122	0x3c773f1a	0.015090728
123	0xbc3ebc74	-0.01164161
124	0x3dcefff5	0.10107414
125	0x3dc60060	0.0966804
126	0xbd94ee01	-0.07271958
127	0x3d1e1374	0.03859277
128	0xbd8ebd0f	-0.06969654
129	0xbd49e77a	-0.04929302
130	0xbd412904	-0.047158256
131	0xbbc3e4c7	-0.0059782
132	0xbd89f663	-0.06736448
133	0x3de0bc1d	0.1097338
134	0x3dcfa20e	0.10138331
135	0x3e1c9dc5	0.1529456
136	0xbddc38c1	-0.107530124
137	0x3d61744b	0.055042546
138	0xbe1347c2	-0.14382842
139	0x3c9bd03e	0.019020196
140	0xbb9e2611	-0.004826315
141	0x3d08c790	0.033393443
142	0x3e15ffe0	0.1464839
143	0x3c09d173	0.008411753
144	0xbd91eb11	-0.071249135
145	0x3cdeacc3	0.027181989
146	0xbd0123ce	-0.031528287
147	0x3da1781f	0.078842394
148	0x3c8262fa	0.015916336
149	0x3d47d2d3	0.048785042
150	0x3a02e9f0	0.0004993966
151	0x3a11af1e	0.00055574055
152	0xbddb8422	-0.10718562
153	0xbdb568b8	-0.08857864
154	0x3d5a0404	0.053226486
155	0xbd0cd4cf	-0.034382638
156	0x3d8cf766	0.06883125
157	0xbdaa61b8	-0.083194196
158	0xbd29c1a2	-0.04144443
159	0x3ddae3c5	0.10687975
160	0x3df4c242	0.11951114
161	0x3dc73f80	0.097289085
162	0xbdbd310f	-0.09237873
163	0xbd89ec1a	-0.06734486
164	0xbd87401c	-0.06604025
165	0xbb8c6367	-0.0042843106
166	0x3d872b56	0.066000625
167	0x3cc9b926	0.024624418
168	0x3dd7e7fd	0.10542295
169	0xbd90396d	-0.07042203
170	0x3dc05414	0.09391037
171	0x3c144268	0.009049036
172	0xbd24a7a2	-0.04019893
173	0xbda22f6b	-0.079192005
174	0xbdf8b4b5	-0.12143842
175	0x3da54704	0.08070186
176	0x3dc3cb71	0.09560288
177	0xbc985dcd	-0.018599415
178	0xbd8ecfc6	-0.069732234
179	0x3d952b70	0.07283676
180	0x3d9431d1	0.07236064
181	0x3d41a636	0.04727765
182	0x3cb9d2dc	0.022683553
183	0x3e1905db	0.1494364
184	0xbd219288	-0.039446384
185	0xbdd21858	-0.102585495
186	0x3e0c8f32	0.137265
187	0x3dce66ba	0.10078187
188	0x3e09365d	0.13399644
189	0x3d32bf7c	0.043639645
190	0xbc8f7907	-0.017513765
191	0x3dd08ce2	0.10183121
192	0xbd8d7d39	-0.0690865
193	0xbdbdcbe8	-0.09267408
194	0x3e0434be	0.12910745
195	0xbdca5d53	-0.098810814
196	0xbdf4b6f8	-0.11948961
197	0xbda11647	-0.07865577
198	0xbdc34732	-0.09535064
199	0x3dc1e378	0.09467214
200	0x3d707030	0.05870074
201	0xbdf44173	-0.11926546
202	0xbd98c332	-0.074591056
203	0xbcf115a9	-0.029429274
204	0x3ccacce2	0.024755899
205	0x3e07db49	0.13267244
206	0x3da4f05e	0.08053659
207	0xbd942a8b	-0.07234677
208	0xbd7d407b	-0.06182907
209	0xbdcb4933	-0.09926071
210	0x3db4ee7b	0.08834549
211	0x3e09024d	0.13379784
212	0xbda4bcad	-0.080437995
213	0xbe03b4dd	-0.12861963
214	0xbd6bb1e4	-0.057542697
215	0x3d8daea1	0.069180734
216	0xbd58e3c3	-0.052951586
217	0x3de224fc	0.110422105
218	0xbb904c07	-0.0044035944
219	0xbb680de0	-0.003540866
220	0x3d64a902	0.05582524
221	0x3c1fac42	0.009745659
222	0x3e21b6c9	0.15792383
223	0x3d1aaf0e	0.0377646
224	0xbdc45cdc	-0.09588024
225	0x3d90c8fe	0.07069586
226	0x3d583f73	0.052794885
227	0xbd6cb95d	-0.057793964
228	0xbd8cf573	-0.06882753
229	0x3e028339	0.1274537
230	0x3d82d915	0.06389061
231	0xbcc0050f	-0.023439912
232	0x3db7b215	0.08969513
233	0xbe1b9d23	-0.15196662
234	0xbdee71a4	-0.11642769
235	0xbd1ff222	-0.039049275
236	0x3de7bbf5	0.11315147
237	0x3aa5e82e	0.0012657696
238	0x3cce2892	0.02516583
239	0x3dad0889	0.084488936
240	0x3d802c9e	0.0625851
241	0x3c872021	0.016494812
242	0x3e1fa63c	0.15590757
243	0x3d19c4b3	0.037541103
244	0x3d1e3208	0.038621932
245	0xbd8b18a3	-0.067918085
246	0xbd850ad5	-0.06496207
247	0x3c508ea6	0.012729323
248	0xbd191935	-0.037377555
249	0xbcff6803	-0.031177526
250	0xbe0e74b3	-0.13911705
251	0xbdbea6c9	-0.093091555
252	0xbdd65c44	-0.10466817
253	0x3d746261	0.059664134
254	0x3e0bdd12	0.1365855
255	0xbd214f38	-0.03938219

encoder.conv2.bias f4 [24]
0	0x3ce09ddd	0.027419025
1	0xbce64d42	-0.028113011
2	0xbca9eba0	-0.020742238
3	0x3ca369da	0.019947935
4	0x3d5c389e	0.05376493
5	0x3cf4a2f2	0.029862855
6	0xbcd035f6	-0.025416356
7	0xbceca734	-0.028888322
8	0xbca66f62	-0.020316783
9	0xbd256b25	-0.040385384
10	0x3ac12c94	0.0014738017
11	0xbcb3470b	-0.021884462
12	0xbba6ced0	-0.005090572
13	0x3d1bba58	0.038019508
14	0xbcb6c0b2	-0.022308681
15	0x3cd9663e	0.02653801
16	0x3d1933bf	0.037402865
17	0xbab0166a	-0.0013434414
18	0xbc93e232	-0.018052194
19	0x3d099672	0.03359074
20	0xbd167200	-0.036729813
21	0xbd09a186	-0.033601306
22	0x3d4cda77	0.05001303
23	0xbad6a798	-0.0016376851

encoder.conv2.lin.weight f4 [24, 48]
0	0x3e807358	0.25088
1	0x3e39bcc3	0.18138413
2	0xbd996264	-0.0748947
3	0x3e52455d	0.20534272
4	0xbd6b0d50	-0.057385743
5	0xbe120739	-0.14260568
6	0x3e51123d	0.20417114
7	0xbe381127	-0.17975293
8	0x3e15f999	0.14645995
9	0xbe32485d	-0.17410417
10	0x3e8a7b55	0.2704722
11	0xbd9d6a79	-0.07686324
12	0xbac4c38d	-0.0015011892
13	0xbe22ab20	-0.15885592
14	0xbe344ddb	-0.17607825
15	0x3c369665	0.011144255
16	0xbe3508b1	-0.17679097
17	0xbe40a23c	-0.18811888
18	0x3e649a63	0.22324519
19	0xbcec32e1	-0.028832855
20	0xbd8b480f	-0.068008535
21	0xbc92a7d6	-0.017902296
22	0xbd5e3b9c	-0.054256067
23	0xbe10e87b	-0.14151184
24	0x3e51af5d	0.20477052
25	0x3cf08100	0.029358387
26	0x3d2ad827	0.041710045
27	0x3d347ed5	0.04406627
28	0xbe051fa5	-0.13000353
29	0x3e08b96e	0.13351986
30	0xbe8a935b	-0.27065548
31	0x3d22a513	0.03970821
32	0xbdd0a869	-0.10188372
33	0x3bb35b08	0.0054734983
34	0xbe6c3d9a	-0.23070374
35	0x3dd7f017	0.105438404
36	0xbe8c0135	-0.2734467
37	0x3e333636	0.17501149
38	0xbe58044f	-0.21095394
39	0x3e2f9a17	0.17148624
40	0xbcb0d7c7	-0.021587266
41	0xbe89d8b2	-0.26923138
42	0x3e8cb4b0	0.27481604
43	0xbe621bf6	-0.22080979
44	0xbe2d9543	-0.1695147
45	0xbc15228f	-0.009102478
46	0x3d9adf46	0.07562117
47	0xbe24cf21	-0.16094638
48	0xbd8b8e60	-0.06814265
49	0xbdd2f5e6	-0.10300808
50	0x3e051db6	0.12999615
51	0xbb59fcab	-0.0033262174
52	0x3e27bd8d	0.16380902
53	0x3e82e8b1	0.25568154
54	0x3d2981eb	0.041383665
55	0x3e372231	0.17884137
56	0xbdfda274	-0.12384501
57	0xbe0b75b4	-0.13619119
58	0x3e80d3af	0.25161502
59	0xbe5c06a4	-0.21486908
60	0xbe45bc1f	-0.19310044
61	0xbe47a6df	-0.1949725
62	0xbe96783f	-0.29388615
63	0x3e714e04	0.23564917
64	0xbe6542f2	-0.22388819
65	0xbc2bffe4	-0.010498021
66	0x3e69a5d3	0.22817163
67	0x3e83dc57	0.25754043
68	0xbdb526a9	-0.088452645
69	0x3cc4a784	0.024005659
70	0x3d20a597	0.03922042
71	0x3e329bd4	0.17442256
72	0x3db8bb4c	0.09020099
73	0x3e892a75	0.26790205
74	0x3d802003	0.06256106
75	0xbe059c6b	-0.1304795
76	0x3dc74bac	0.0973123
77	0xbe037961	-0.12839271
78	0x3e163f10	0.14672494
79	0xbcf76023	-0.030197209
80	0x3e1153fc	0.14192194
81	0x3e745511	0.23860575
82	0x3e447efa	0.19189063
83	0xbe0285a6	-0.12746295
84	0xbe2e15a6	-0.17000446
85	0xbe8ca0da	-0.2746647
86	0xbd8b494a	-0.06801088
87	0xbdb7107b	-0.0893869
88	0xbe8fcc41	-0.2808552
89	0x3d93f35f	0.07224154
90	0x3e6ca7e6	0.23110923
91	0xbe85f74e	-0.2616524
92	0x3e286ed2	0.16448525
93	0x3e11ba01	0.14231111
94	0xbd868df3	-0.065700434
95	0xbd1a3663	-0.037649523
96	0x3d970b78	0.07375234
97	0xbe889324	-0.2667476
98	0x3e838c79	0.2569311
99	0x3e8345a0	0.25639057
100	0x3e95ac85	0.29233184
101	0x3c6ec5d0	0.014573529
102	0xbdeaa725	-0.114576615
103	0xbde11443	-0.10990193
104	0x3d48e3aa	0.049045242
105	0xbd2ae8e0	-0.041725993
106	0x3e2d61e5	0.16931875
107	0xbc283338	-0.010266118
108	0x3d6e8c24	0.058239117
109	0x3c730481	0.014832617
110	0xbe5d376e	-0.21603176
111	0xbde0334a	-0.109472826
112	0x3e23f2e9	0.16010632
113	0x3cec2ef8	0.02883099
114	0xbe4e2efe	-0.20135114
115	0x3e4a4bcc	0.19755477
116	0xbe438ad3	-0.19095926
117	0x3e51a940	0.2047472
118	0x3e4b8ae9	0.19877209
119	0xbe1fea50	-0.15616727
120	0x3e160a3d	0.14652343
121	0x3e59342f	0.21211313
122	0xbe49e494	-0.19716102
123	0x3e810840	0.25201607
124	0xbd8be6d0	-0.06831133
125	0xbe20e71d	-0.15713163
126	0x3d53d6d1	0.051718537
127	0x3dcbdb17	0.099538974
128	0xbc99a278	-0.018754229
129	0x3dfcceda	0.12344141
130	0x3e44cd43	0.19218926
131	0xbaefc2a6	-0.0018292263
132	0xbe3348ae	-0.17508194
133	0x3e4df5e4	0.20113331
134	0x3e055724	0.13021523
135	0xbe5a9308	-0.2134515
136	0x3ded68c3	0.11592247
137	0xbea11199	-0.31458738
138	0xbbbd29d4	-0.0057728086
139	0xbd30f834	-0.043205455
140	0xbea382b8	-0.31935668
141	0x3e41b0ab	0.1891505
142	0x3d58e3f3	0.052951764
143	0xbe4e3c7a	-0.20140257
144	0x3d49ad9a	0.049237825
145	0xbe9d63bf	-0.30740163
146	0xbe3fcc48	-0.18730271
147	0xbc6d8d76	-0.014499059
148	0xbe930773	-0.2871662
149	0x3d013e64	0.03155364
150	0x3e1dd6c4	0.15413958
151	0x3da92f4d	0.08260975
152	0x3e6ba89b	0.23013537
153	0x3ea03aa1	0.3129473
154	0x3e5e53c7	0.21711646
155	0x3e65b9f3	0.22434215
156	0xbe674055	-0.22583134
157	0xbd14334c	-0.036181733
158	0x3e91b392	0.28457314
159	0xbe26035c	-0.16212219
160	0x3d04ef57	0.032454815
161	0xbd91506d	-0.07095418
162	0x3e6c6d57	0.23088585
163	0xbe9685ca	-0.29398948
164	0xbe39a2a1	-0.18128444
165	0xbd179634	-0.03700848
166	0xbe501efb	-0.20324318
167	0xbbb91905	-0.0056487345
168	0xbd8d843a	-0.06909986
169	0xbe87075e	-0.26372808
170	0x3e4a74c0	0.19771099
171	0x3e913f17	0.28368446
172	0x3e367d7b	0.17821305
173	0xbb0b86fd	-0.0021290176
174	0xbe5b72b1	-0.2143047
175	0x3e4c0c91	0.19926669
176	0x3e8400a0	0.25781727
177	0xbe8d97df	-0.2765493
178	0xbe8da081	-0.27661517
179	0xbe4ee788	-0.2020551
180	0xbe1a6be0	-0.15080214
181	0x3e29658f	0.16542648
182	0x3c124b72	0.00892912
183	0x3e19da1f	0.15024613
184	0x3d8d8b95	0.06911389
185	0xbdba3585	-0.09092239
186	0xbe7729ad	-0.24136992
187	0x3d28986f	0.041160997
188	0xbcb83b5f	-0.022489248
189	0x3e46d609	0.19417585
190	0x3bccbb56	0.006247918
191	0x3cc69646	0.024241578
192	0x3e83ae0d	0.25718728
193	0xbe5e6618	-0.21718633
194	0xbe4d4a3a	-0.20047846
195	0xbdf936a2	-0.121686235
196	0x3e496738	0.19668281
197	0x3e70796e	0.23483822
198	0xbe2de46f	-0.16981672
199	0x3e2e90bf	0.17047404
200	0xbdea0081	-0.11425877
201	0xbbadcd7b	-0.005304036
202	0xbcb16c3d	-0.021658057
203	0x3d062a77	0.03275534
204	0xbe5b21a5	-0.21399553
205	0x3da2cc36	0.079491064
206	0xbe03f832	-0.12887648
207	0xbe34e8c6	-0.17666921
208	0x3e956eaa	0.29185992
209	0xbcea045f	-0.028566537
210	0xbcc2601f	-0.023727475
211	0x3df84180	0.12121868
212	0xbe95ffce	-0.29296726
213	0x3db06a49	0.08614022
214	0xbda3cb37	-0.079977445
215	0x3d4635e9	0.048391256
216	0xbe9e5ebd	-0.30931655
217	0x3e6eb97c	0.23312944
218	0x3e83b5e5	0.25724712
219	0x3db9ed4b	0.09078463
220	0xbd88534f	-0.06656515
221	0x3e872038	0.26391768
222	0x3e7c23be	0.2462301
223	0xbdecbdb2	-0.11559619
224	0x3e341177	0.17584787
225	0x3d233655	0.039846737
226	0xbe85390a	-0.2602008
227	0xbe0de4a4	-0.1385675
228	0x3e99230f	0.2990956
229	0x3c8896e6	0.016673516
230	0x3dbd3add	0.09239743
231	0x3db7d581	0.089762695
232	0xbe1b785f	-0.15182637
233	0x3e9499cb	0.29023585
234	0x3e6bca87	0.23026477
235	0xbe819a3e	-0.2531299
236	0x3d02afb2	0.031905837
237	0xbe6ed6b8	-0.23324096
238	0x3d8c13bc	0.068397015
239	0xbe29745f	-0.16548298
240	0x3e90d8cd	0.28290406
241	0xbcc59d0b	-0.024122735
242	0xbe996337	-0.29958507
243	0xbe9dc1dc	-0.30811965
244	0xbdb43a11	-0.08800138
245	0x3de209e9	0.110370465
246	0xbe3502b9	-0.1767682
247	0x3d19d12a	0.03755299
248	0x3e35267b	0.1769046
249	0xbd873fd2	-0.0660397
250	0xbe2ba00b	-0.1676027
251	0x3ea13094	0.31482375
252	0xbe141bf9	-0.14463796
253	0x3e8d0c1b	0.27548298
254	0x3e8b5e7b	0.2722052
255	0x3e0b027f	0.13575171

discriminator.fc1.weight f4 [4, 24]
0	0xbf359324	-0.70927644
1	0xbf04ddc2	-0.51900876
2	0xbdff2989	-0.12459094
3	0xbe5eaff3	-0.21746807
4	0xbe2314d3	-0.15925913
5	0xbf06f573	-0.52718276
6	0xbea7d775	-0.32781568
7	0xbf2a3507	-0.66487163
8	0x3dd33a78	0.103138864
9	0xbf3ab1b6	-0.72927415
10	0x3ee29241	0.44252208
11	0xbf3cb94b	-0.73720235
12	0xbf16d9a3	-0.5892584
13	0x3e9e36a9	0.30901077
14	0xbeaceecb	-0.33775935
15	0x3d5a2606	0.05325892
16	0xbea9177c	-0.3302573
17	0x3f31895f	0.69350237
18	0x3d302ce6	0.04301157
19	0x3e9e26e7	0.30889055
20	0xbec15d8f	-0.37766692
21	0xbdfe8f2f	-0.12429654
22	0xbcec24d4	-0.028826155
23	0xbe8ee3a7	-0.2790806
24	0x3ccdfcef	0.025145022
25	0x3bedb644	0.007254394
26	0xbcb553e9	-0.022134738
27	0xbd80128e	-0.06253539
28	0xbe084c0f	-0.13310264
29	0x3df0cc83	0.117577575
30	0xbdb1641a	-0.08661671
31	0xbb173a92	-0.0023075682
32	0x3da623db	0.08112308
33	0x3d1fb878	0.038994282
34	0x3d5778c9	0.052605424
35	0x3c28c55d	0.010300961
36	0x3c7d43f0	0.015458092
37	0xbd4e1c9a	-0.050320245
38	0xbda7b002	-0.08187868
39	0xbd586902	-0.05283452
40	0xbb7e15bd	-0.0038770281
41	0xbd5d87be	-0.054084532
42	0x3dc5ed53	0.096644066
43	0xbd520efe	-0.05128383
44	0xbbbefb20	-0.0058282763
45	0xbd282a4d	-0.041055966
46	0xbdc079ca	-0.093982294
47	0xbdc58ade	-0.096456274
48	0x3f0d803b	0.5527379
49	0xbcfeac9f	-0.031088172
50	0xbd36e738	-0.0446541
51	0xbe9ebf97	-0.31005546
52	0xbed24450	-0.41067743
53	0x3e968e2e	0.2940535
54	0xbe4adaa1	-0.19809963
55	0x3f038eb1	0.51389605
56	0x3e0edc2d	0.13951178
57	0x3f235d31	0.63814074
58	0x3da8a94f	0.08235418
59	0x3f177efd	0.59178144
60	0x3f08e956	0.5348104
61	0xbed48d44	-0.41514027
62	0xbe8c44bd	-0.27396193
63	0xbebd7c31	-0.37008813
64	0x3f192e84	0.598366
65	0xbf09aa61	-0.537756
66	0x3e59aebf	0.21258067
67	0xbda40d22	-0.080103174
68	0xbeef5d08	-0.46750665
69	0xbcddf6e0	-0.027095258
70	0xbe23f54d	-0.16011544
71	0x3cdecc13	0.02719692
72	0x3ca25749	0.019817011
73	0x3b8638ab	0.004096111
74	0x3a5e3b5e	0.00084774743
75	0x3c356f27	0.011073864
76	0x3b5d0557	0.0033725107
77	0x3c83da7d	0.016095394
78	0x3b714f18	0.0036820825
79	0x3a74e00d	0.00093412475
80	0x3ce7341e	0.028223094
81	0x39bb6fee	0.00035750814
82	0xbcac8bc5	-0.021062741
83	0xbc1f700e	-0.009731306
84	0xbbffe0de	-0.0078087887
85	0x3b11a0f2	0.0022221175
86	0x3caec4a9	0.02133401
87	0xbb0d5107	-0.0021563189
88	0x3b1a2ed8	0.0023526456
89	0xbb954e91	-0.004556485
90	0xbca9d636	-0.020732027
91	0xbc09bcae	-0.008406801
92	0x3d064cff	0.032788273
93	0xbb864899	-0.00409801
94	0xbc396f95	-0.011318107
95	0x3c8793f8	0.01655005

discriminator.fc1.bias f4 [4]
0	0xbe37654d	-0.17909737
1	0x3ea5a908	0.32355523
2	0xbde80e7e	-0.11330889
3	0xbe752522	-0.23939946

discriminator.fc2.weight f4 [2, 4]
0	0x3f169e19	0.5883499
1	0x3d394ea3	0.04524101
2	0x3f592f5b	0.84837884
3	0xbe72195a	-0.23642483
4	0x3f02581f	0.5091571
5	0xbef7e890	-0.4841962
6	0x3efc42a1	0.49269584
7	0xbd98111a	-0.07425137

discriminator.fc2.bias f4 [2]
0	0xbe7c5b70	-0.24644256
1	0x3d3e95aa	0.04652945

discriminator.fc3.weight f4 [1, 2]
0	0x3f727e7f	0.9472427
1	0x3f816f6b	1.0112127
