src/algorithms/deep/pretrained/arga_citeseer.pt (torch, 720396 bytes, 9 tensors)

encoder.conv1.bias f4 [48]
0.0069847866 0.028463446 0.012612124 0.006142478 0.015520301 0.014651627 0.012053149 0.01678096
-0.00026505915 0.0273336 0.004836322 0.016657978 0.021469552 0.019122776 0.005195158 0.013962798
0.019039825 0.010643811 0.020428168 0.0154992435 0.0057495823 0.016981876 0.00216531 0.023061287
0.0110316845 0.014643004 0.0033965937 0.016381802 0.016766824 0.019490656 0.014366833 0.013991079
0.019539472 0.01745594 0.018803483 0.013304249 0.006369605 0.008688321 0.019814575 0.013147824
0.017425442 0.0076788357 0.009350202 0.005382003 0.01594599 0.020081691 0.014874998 0.015100475
00000000: a3e0 e43b 2c2c e93c 15a3 4e3c d746 c93b
00000010: dc48 7e3c 610d 703c 927a 453c 3978 893c
00000020: a3f7 8ab9 b7ea df3c 027a 9e3b 5076 883c
00000030: eae0 af3c 5ea7 9c3c 253c aa3b 38c4 643c
00000040: 68f9 9b3c 6163 2e3c f958 a73c 8af0 7d3c
00000050: fe66 bc3b 931d 8b3c e0e7 0d3b 06eb bc3c
00000060: 3dbe 343c 36e9 6f3c 6399 5e3b 2133 863c
00000070: 945a 893c deaa 9f3c dd62 6b3c d73a 653c
00000080: 3e11 a03c c2ff 8e3c c309 9a3c 11fa 593c
00000090: 1fb8 d03b 7659 0e3c 2d52 a23c f969 573c
000000a0: cdbf 8e3c be9e fb3b 9731 193c 835b b03b
000000b0: 2aa1 823c 5c82 a43c 43b6 733c fc67 773c

encoder.conv1.lin.weight f4 [48, 3703]
0.03652807 0.08203099 -0.026784299 0.06762905 -0.006316516 0.019923653 8.135861e-05 -0.024778558
-0.026211489 -0.027163086 -0.026103754 0.005895073 -0.01909507 -0.0006810465 0.021459796 0.008708093
-0.046855785 0.053054564 -0.031637277 -0.009593671 -0.0052558924 -0.011781314 -0.029021654 -0.012924575
0.017915647 0.04993711 -0.022878462 -0.022139305 0.030587317 -0.02245543 -0.016620368 -0.00563662
-0.04186998 -0.015308458 0.0046125418 0.05143304 0.02813353 -0.047498863 0.021541202 0.017596614
-0.032908145 0.013617848 0.04307821 -0.009295104 0.062416602 0.02562711 -0.017875548 -0.046701934
-0.034615103 -0.0073220213 -0.032211214 -0.031042805 -0.0074189757 -0.00027650993 0.0070419586 -0.033992775
-0.025031675 0.007822117 -0.036950465 0.030043833 0.037253715 -0.046916015 -0.0030953786 0.056526754
-0.010068531 0.028354447 -0.04309648 -0.042945653 -0.048502304 -0.06951268 -0.04464938 -0.018277086
0.06047586 -0.020490052 -0.052778445 0.016143456 -0.021592634 0.015985293 0.040115926 -0.038380492
0.024209157 0.03270049 0.02828443 0.0037609036 0.030998845 -0.04939024 -0.0053773397 -0.0029904994
0.012234341 0.010262051 -0.013849864 0.0024657163 0.05077819 -0.030269105 0.004291967 -0.0048348606
0.002554543 0.06905322 0.015285229 -0.047287233 -0.0014624692 -0.02737518 0.0069228737 -0.059292555
-0.011883377 0.014704419 0.018759757 0.029658126 -0.07169584 -0.039288044 0.0048986427 -0.012331258
-0.059026178 0.040630005 0.048119865 -0.023354886 -0.019550927 0.013888285 0.054457232 0.02742643
0.03623365 -0.0017672103 -0.012247325 0.01385822 0.047354184 0.011545831 -0.009267202 -0.010030703
0.0087215 0.02597501 0.019671505 0.047433555 -0.033645995 0.05178398 -0.04138885 -0.0032961946
0.03969402 -0.010016865 0.014711678 0.010562841 0.055501014 0.016487408 0.013229667 -0.017728655
0.036055457 0.008037398 0.017383467 0.038604125 0.04686609 -0.015929058 -0.012774156 -0.02636089
0.038218353 -0.024973547 0.020136148 -0.014470418 0.07289097 0.011046386 0.04525093 0.0339119
-0.047306843 -0.03215027 0.023410685 -0.020234957 -0.031777184 -0.00857484 0.014071449 -0.0091021275
0.0033702345 0.021658143 0.042027555 -0.0338489 -0.007683859 0.024507178 -0.023678157 -0.0053972118
0.040070828 0.0008073698 0.066294506 0.041234665 -0.024288502 0.023030574 0.03517336 -0.04135962
0.062013417 0.029000122 0.026191875 0.003290279 0.024218278 0.006026778 0.023112945 -0.047548857
-0.0027310331 -0.008888377 -0.050425693 -0.026245791 0.031147718 -0.052760947 -0.047531664 0.05604346
0.019790342 0.01670786 -0.0048938473 0.044299245 -0.024369981 -0.062205236 -0.011058708 0.021475798
0.017281102 0.039295383 0.017298747 -0.008149341 -0.034859374 -0.016977716 -0.009632021 -0.0057829693
0.07207083 -0.040270638 0.016951019 -0.04711708 -0.0152528435 -0.034928046 0.05480251 -0.037594583
0.012090656 -0.020134408 0.0008414128 -0.055920493 -0.010522528 -0.00841662 0.0527752 0.0005604177
0.0024977676 0.034797654 0.016277822 0.040441163 0.02468721 -0.01673263 -0.003841525 0.008160403
-0.013424965 -0.006667764 -0.055962782 -0.0069104517 0.02506577 0.042022962 -0.030685246 -0.036352474
-0.008939329 0.057146497 -0.009048846 0.002019567 0.05951946 0.0006905114 0.044430375 -0.028844923
00000000: 759e 153d ddff a73d bf6a dbbc 1981 8a3d
00000010: c7fa cebb ee36 a33c 129f aa38 67fc cabc
00000020: 7ab9 d6bc 1f85 debc 8ad7 d5bc 752b c13b
00000030: 446d 9cbc 4288 32ba 74cc af3c 64ac 0e3c
00000040: daeb 3fbd be4f 593d 1796 01bd c62e 1dbc
00000050: 9f39 acbb 6a06 41bc d2be edbc 99c1 53bc
00000060: d6c3 923c db8a 4c3d 9d6b bbbc 7d5d b5bc
00000070: 4192 fa3c 73f4 b7bc 7027 88bc 65b3 b8bb
00000080: db7f 2bbd 54d0 7abc ce24 973b 74ab 523d
00000090: 4a78 e63c 2b8e 42bd 2d77 b03c c626 903c
000000a0: b1ca 06bd 651d 5f3c c772 303d 7e4a 18bc
000000b0: 8da8 7f3d f2ef d13c be6f 92bc 874a 3fbd
000000c0: 91c8 0dbd 91ed efbb e8ef 03bd 7b4d febc
000000d0: e11a f3bb 89f8 90b9 3bc0 e63b 023c 0bbd
000000e0: 3a0f cdbc 5628 003c 5f59 17bd 7c1e f63c
000000f0: 5a97 183d 022b 40bd d6db 4abb 9988 673d
00000100: 7bf6 24bc 9647 e83c ef85 30bd c8e7 2fbd
00000110: 5aaa 46bd aa5c 8ebd 45e2 36bd d4b9 95bc
00000120: 89b5 773d c1da a7bc 362e 58bd 483f 843c
00000130: 09e3 b0bc 97f3 823c 9950 243d dd34 1dbd
00000140: 4852 c63c f3f0 053d c0b4 e73c 7e79 763b
00000150: 4af1 fd3c 6c4d 4abd 6534 b0bb 41fc 43bb
00000160: 8c72 483c 2922 283c 8aea 62bc db97 213b
00000170: cbfc 4f3d eaf6 f7bc a1a3 8c3b c06d 9ebb
00000180: 1f6a 273b c66b 8d3d e66e 7a3c 42b0 41bd
00000190: 53b0 bfba ea41 e0bc 46d9 e23b c0dc 72bd
000001a0: 7fb2 42bc ceea 703c 10ae 993c 99f5 f23c
000001b0: 45d5 92bd 80ec 20bd cb84 a03b 0b09 4abc
000001c0: 6fc5 71bd a66b 263d 5619 453d bf52 bfbc
000001d0: 4429 a0bc b08b 633c 8c0e 5f3d 64ad e03c
000001e0: bc69 143d bda1 e7ba 01a9 48bc 960d 633c
000001f0: 76f6 413d ba2a 3d3c 76d5 17bc d157 24bc
00000200: 9fe4 0e3c 8bc9 d43c 2326 a13c b049 423d
00000210: 62d0 09bd 701b 543d 5b87 29bd f804 58bb
00000220: 3296 223d c71d 24bc 4009 713c c40f 2d3c
00000230: 0855 633d 9a10 873c 3fc1 583c af3b 91bc
00000240: e3ae 133d 4aaf 033c c667 8e3c 5c1f 1e3d
00000250: a8f6 3f3d a87d 82bc b24a 51bc cbf2 d7bc
00000260: d98a 1c3d 5395 ccbc 90f4 a43c 5515 6dbc
00000270: dc47 953d e7fb 343c 0a59 393d 34e7 0a3d
00000280: d2c4 41bd 00b0 03bd c4c7 bf3c c8c3 a5bc
00000290: cb28 02bd 7c7d 0cbc ef8b 663c 1721 15bc
000002a0: 27df 5c3b 6b6c b13c 1625 2c3d 25a5 0abd
000002b0: e2c8 fbbb 47c3 c83c b2f8 c1bc 18db b0bb
000002c0: 4f21 243d aca5 533a 6ac5 873d aee5 283d
000002d0: aef8 c6bc 9daa bc3c f111 103d b468 29bd
000002e0: c801 7e3d aa91 ed3c 5890 d63c b9a1 573b
000002f0: 6965 c63c 477c c53b 5c57 bd3c 97c2 42bd
00000300: 22fb 32bb 8ea0 11bc 2c8b 4ebd 6a01 d7bc
00000310: 8029 ff3c dd1b 58bd 90b0 42bd d48d 653d
00000320: 5b1f a23c ecde 883c 915c a0bb 2073 353d
00000330: 8ea3 c7bc ebca 7ebd 952f 35bc 03ee af3c
00000340: 1991 8d3c 32f4 203d 1ab6 8d3c d084 05bc
00000350: b4c8 0ebd da14 8bbc a0cf 1dbc 107f bdbb
00000360: df99 933d d3f2 24bd dddc 8a3c d7fd 40bd
00000370: 10e7 79bc b610 0fbd 9978 603d c7fc 19bd
00000380: e317 463c eaf0 a4bc 4292 5c3a e30c 65bd
00000390: ae66 2cbc dde5 09bc cf2a 583d ffe8 123a
000003a0: 96b1 233b fc87 0e3d 1159 853c a2a5 253d
000003b0: d53c ca3c de12 89bc 18c2 7bbb 36b3 053c
000003c0: 62f4 5bbc 427d dabb 3b39 65bd 1271 e2bb
000003d0: bb56 cd3c 4520 2c3d a05f fbbc 55e6 14bd
000003e0: 4376 12bc 7212 6a3d 9c41 14bc b65a 043b
000003f0: adca 733d 7003 353a a0fc 353d 304c ecbc

encoder.conv2.bias f4 [24]
-0.022487639 0.0128824385 -0.023947185 0.019420289 0.023479156 -0.027171528 -0.017441334 -0.018408136
-0.017193131 -0.025954809 0.01661288 0.023837518 -0.012812776 -0.003831459 0.018949823 0.016708782
0.021157082 0.009660164 -0.009640288 0.010886714 0.0099238325 -0.0116880555 -0.003973917 0.0172533
00000000: ff37 b8bc dd10 533c e32c c4bc 4c17 9f3c
00000010: 5c57 c03c d396 debc 21e1 8ebc a9cc 96bc
00000020: 9cd8 8cbc 2e9f d4bc bc17 883c e646 c33c
00000030: adec 51bc 3719 7bbb a93c 9b3c dbe0 883c
00000040: 9e51 ad3c aa45 1e3c 4cf2 1dbc 305e 323c
00000050: 9297 223c 427f 3fbc a237 82bb cb56 8d3c

encoder.conv2.lin.weight f4 [24, 48]
0.27305266 -0.1273845 0.022031125 -0.00054085307 -0.042461604 -0.14897685 0.07900007 0.26961017
0.187613 0.036850095 -0.26533335 -0.30501226 -0.19903137 0.3021761 -0.124731325 -0.21356748
-0.16228144 0.18558516 0.13636525 0.1912178 -0.2919748 0.12398516 -0.19745775 0.1721768
0.28048235 -0.009554518 0.0058374675 0.00840794 0.04314559 0.18742953 -0.03740723 -0.10472506
0.17999631 -0.15755172 0.058219045 0.18093026 -0.040043835 0.12142308 -0.17615435 0.07396893
-0.10963754 0.13283245 -0.25341251 0.004352528 0.21286218 -0.08055282 -0.13607763 0.11922757
-0.22526361 -0.15097548 -0.25869593 0.06901073 -0.105656266 0.019776093 0.076216936 -0.24377038
-0.08212354 0.121763274 -0.03688061 -0.08667446 -0.23627259 -0.16543536 0.29586312 0.114829436
0.03627114 -0.21425325 0.2245768 0.1912262 0.2584104 0.1812223 -0.02706683 0.2870527
0.20354155 0.28818938 0.28952765 0.18758723 -0.22752751 -0.21025686 0.0754613 0.09863439
-0.15571596 -0.23402895 0.17486124 0.27826822 0.13513951 0.033643264 -0.17293574 -0.10080441
-0.1341432 -0.28601763 -0.019561574 0.21208571 -0.27555275 -0.03246892 -0.040705 -0.20161672
0.16532104 0.1078382 0.005553714 0.004055643 0.27129567 -0.16961792 0.11820158 -0.25624028
-0.023707781 0.19971627 0.07382562 -0.26722643 -0.023488816 0.14619504 -0.13027564 0.17766468
-0.31130582 -0.05284794 -0.01079657 -0.20102228 0.16585387 0.28248698 0.13655727 0.057728708
-0.18197852 -0.2005079 0.19294429 0.25748727 0.30008364 0.18708402 0.13102911 0.015912838
-0.26468962 -0.09849978 -0.028793002 -0.009054868 0.26832455 0.06959192 -0.29998586 -0.12693392
-0.18648955 0.13308021 -0.06585092 -0.07618316 -0.199931 0.06311715 -0.2678982 0.12044552
-0.19736792 -0.09240366 -0.20072995 -0.17782849 0.004974989 0.0667555 -0.0018239013 0.09043018
-0.10521732 -0.073508814 -0.09532062 0.07419793 0.103731066 -0.17650332 0.11956055 0.19978939
-0.11171064 -0.08032172 0.041282278 0.15833244 0.2506245 0.28899625 -0.20318872 0.1574192
-0.20235541 -0.16378286 -0.2568182 0.119127646 -0.10972221 -0.0765146 0.30952257 -0.27182397
-0.043134376 -0.1409818 0.08724989 -0.08659797 0.23659834 0.24909988 -0.072699055 0.041763786
0.19555107 0.064853616 -0.120635815 -0.0805094 0.018158868 -0.18223315 0.0960244 0.06237071
0.019174183 -0.19740465 0.01563554 -0.115480445 0.19888517 -0.073685914 -0.20962256 -0.22241433
-0.15312874 0.04992512 -0.033019137 -0.043754302 -0.046028145 0.2287058 -0.13178983 -0.11106217
0.29369557 0.003725532 0.29876822 -0.1517998 0.06415123 -0.22465424 0.24181224 0.23072289
-0.21860236 -0.11245726 4.597484e-05 -0.21136576 0.22689934 0.11158169 -0.16274877 -0.03581553
-0.08670449 -0.19102298 0.037549533 0.26221636 -0.20797856 0.29309225 0.1917619 0.0495289
0.012896698 -0.21732204 -0.12506613 -0.06797741 -0.15509242 -0.13758907 -0.0050515123 -0.0024046318
0.11155273 0.14215672 0.23093224 -0.10601807 0.07979058 0.18569775 -0.06869824 -0.21768607
-0.18772943 -0.23579437 0.12020981 -0.17530425 0.24185266 -0.116889186 0.15565705 -0.10003181
00000000: 8fcd 8b3e 1571 02be 9e7a b43c 09c8 0dba
00000010: 38ec 2dbd 638d 18be caca a13d 580a 8a3e
00000020: 9f1d 403e 20f0 163d c6d9 87be 912a 9cbe
00000030: e1ce 4bbe d3b6 9a3e 2373 ffbd 6fb1 5abe
00000040: 1b2d 26be 090a 3e3e 55a3 0b3e 99ce 433e
00000050: b97d 95be eeeb fd3d 5d32 4abe 1d4f 303e
00000060: 629b 8f3e 8e8a 1cbc 3a48 bf3b 75c1 093c
00000070: 6eb9 303d 87ed 3f3e 5338 19bd 187a d6bd
00000080: f450 383e 3d55 21be 1877 6e3d c845 393e
00000090: 0105 24bd aaac f83d ce61 34be 067d 973d
000000a0: a689 e0bd 3b05 083e 49bf 81be a79f 8e3b
000000b0: 8bf8 593e e0f8 a4bd ef57 0bbe 962d f43d
000000c0: 81ab 66be 5199 1abe cb73 84be 7f55 8d3d
000000d0: 5062 d8bd 7901 a23c a017 9c3d f19e 79be
000000e0: 6330 a8bd 065f f93d 1f10 17bd 6182 b1bd
000000f0: 71f1 71be e367 29be 5f7b 973e b22b eb3d
00000100: 0c91 143d 3465 5bbe 76f7 653e cdd0 433e
00000110: 5e4e 843e 5792 393e 42bb ddbc 92f8 923e
00000120: 326d 503e 8f8d 933e f83c 943e de16 403e
00000130: f9fc 68be 934d 57be 748b 9a3d d400 ca3d
00000140: 0174 1fbe 49a5 6fbe d30e 333e 2c79 8e3e
00000150: 0362 0a3e 85cd 093d 1116 31be 8b72 cebd
00000160: d65c 09be e770 92be 983f a0bc ff2c 593e
00000170: 4015 8dbe 21fe 04bd 49ba 26bd 9d74 4ebe
00000180: eb49 293e 46da dc3d eefb b53b 33e5 843b
00000190: 44e7 8a3e 52b0 2dbe ac13 f23d ed31 83be
000001a0: d236 c2bc 6c82 4c3e e331 973d e7d1 88be
000001b0: 9e6b c0bc 27b4 153e fa66 05be bbed 353e
000001c0: 7a63 9fbe 1577 58bd 19e4 30bc c9d8 4dbe
000001d0: 99d5 293e 22a2 903e abd5 0b3e f074 6c3d
000001e0: 9458 3abe f151 4dbe 3093 453e 5fd5 833e
000001f0: 90a4 993e f492 3f3e 7f2c 063e a45b 823c
00000200: 6685 87be 41ba c9bd 4ddf ebbc de5a 14bc
00000210: d661 893e 3586 8e3d bf97 99be f7fa 01be
00000220: 1ef7 3ebe 2e46 083e d9dc 86bd eb05 9cbd
00000230: b6ba 4cbe 9043 813d f429 89be 24ac f63d
00000240: d11a 4abe 213e bdbd 278c 4dbe ac18 36be
00000250: 3c05 a33b 1cb7 883d f90f efba 7533 b93d
00000260: 2e7c d7bd ca8b 96bd 7537 c3bd 16f5 973d
00000270: f470 d43d 49bd 34be 29dc f43d 9795 4c3e
00000280: 8cc8 e4bd b77f a4bd 9b17 293d e621 223e
00000290: db51 803e 51f7 933e b410 50be 8032 213e
000002a0: 4236 4fbe b2b6 27be ad7d 83be 32f9 f33d
000002b0: 0ab6 e0bd b0b3 9cbd be79 9e3e 832c 8bbe
000002c0: acad 30bd 885d 10be 12b0 b23d 475a b1bd
000002d0: d646 723e 0a14 7f3e 3ee3 94bd 8110 2b3d
000002e0: 8a3e 483e f9d1 843d e90f f7bd 1de2 a4bd
000002f0: e8c1 943c 549b 3abe 71a8 c43d 6e78 7f3d
00000300: 2d13 9d3c 7224 4abe 1b16 803c 0381 ecbd
00000310: 8ea8 4b3e a4e8 96bd 4ca7 56be 95c0 63be
00000320: c8cd 1cbe 487e 4c3d 133f 07bd b637 33bd
00000330: 0288 3cbd da31 6a3e eaf3 06be 9074 e3bd
00000340: 445f 963e 0e28 743b 26f8 983e 6871 1bbe
00000350: b861 833d c30b 66be a19d 773e 9f42 6c3e
00000360: 4cd9 5fbe fe4f e6bd 1cd5 4038 4470 58be
00000370: 4d58 683e f184 e43d 9da7 26be 4eb3 12bd
00000380: 2092 b1bd 879b 43be 8acd 193d 3941 863e
00000390: 55f8 54be 3010 963e 3b5d 443e d1de 4a3d
000003a0: ac4c 533c ab89 5ebe 5611 00be be37 8bbd
000003b0: 8cd0 1ebe 26e4 0cbe 2887 a5bb 0797 1dbb
000003c0: c275 e43d 8891 113e 8079 6c3e 0020 d9bd
000003d0: 3e69 a33d 8d27 3e3e aab1 8cbd 19e9 5ebe
000003e0: 253c 40be 1474 71be 9030 f63d f582 33be
000003f0: 39a8 773e 9963 efbd 9064 1f3e 7add ccbd

discriminator.fc1.weight f4 [4, 24]
0.07101718 0.044107936 0.07264882 0.047224734 -0.051668312 -0.024970502 0.026738469 -0.07834696
0.10372104 -0.11186886 -0.106044464 0.012340561 -0.12175547 0.026732832 -0.0009415077 -0.05590215
-0.08427817 0.10280935 -0.01898257 -0.075260475 0.044065125 0.019444164 0.023127366 0.07809029
0.49126932 -0.5675018 -0.53267646 0.47084054 -0.60455155 0.054435976 0.3989366 -0.45908952
-0.41070375 -0.31936818 -0.46452734 0.16210505 -0.5402826 0.4823088 -0.25923327 0.5450876
0.57815063 0.20700504 0.15500368 -0.39244732 -0.630168 -0.282971 -0.025140109 -0.54421335
0.3763945 0.6009962 0.42410302 -0.21291387 0.4843038 -0.47835833 -0.28712595 -0.4389003
0.52405405 -0.2578834 -0.24610403 0.21857908 -0.37704512 0.13891512 0.73524976 -0.4579803
-0.36480013 0.09389742 0.23689307 -0.65624905 0.26311532 -0.24222502 0.35694447 0.46445483
-0.4064794 0.16440712 0.39894444 0.13264433 -0.20171696 0.3748927 0.11984492 0.5274503
0.40946212 -0.00662704 0.06523998 -0.2964944 0.39393887 -0.60712457 -0.5392086 -0.42028978
-0.4777138 0.3196261 -0.49752188 0.6205029 0.37668347 0.5778911 -0.46254477 0.3386813
00000000: 7571 913d 86aa 343d e8c8 943d b96e 413d
00000010: 27a2 53bd f08e ccbc a20a db3c 5f74 a0bd
00000020: b26b d43d 801b e5bd d72d d9bd 1030 4a3c
00000030: ef5a f9bd d0fe da3c 83cf 76ba a7f9 64bd
00000040: 089a acbd b58d d23d 5681 9bbc 2a22 9abd
00000050: a27d 343d 5e49 9f3c 9a75 bd3c cded 9f3d
00000060: a787 fb3e cc47 11bf 7c5d 08bf 0312 f13e
00000070: e4c3 1abf 42f8 5e3d 6b41 cc3e c80d ebbe
00000080: c347 d2be 3a84 a3be 87d6 edbe defe 253e
00000090: f64f 0abf 2ef1 f63e 39ba 84be dc8a 0b3f
000000a0: ae01 143f 21f9 533e 49b9 1e3e dbee c8be
000000b0: b152 21bf 93e1 90be a1f2 cdbc 9151 0bbf
000000c0: c8b6 c03e e3da 193f 0824 d93e 1806 5abe
000000d0: abf6 f73e 62eb f4be 2c02 93be 8ab7 e0be
000000e0: 6828 063f 4b09 84be b202 7cbe 32d3 5f3e
000000f0: 0f0c c1be c43f 0e3e 5439 3c3f 657c eabe
00000100: 15c7 babe 4a4d c03d 1994 723e f0ff 27bf
00000110: 0db7 863e d609 78be 6dc1 b63e 06cd ed3e
00000120: 111e d0be 575a 283e 7242 cc3e ead3 073e
00000130: e48e 4ebe f0f1 bf3e 4171 f53d fc06 073f
00000140: 05a5 d13e a427 d9bb 8a9c 853d 1dce 97be
00000150: 5bb2 c93e 846c 1bbf 9309 0abf 3930 d7be
00000160: e796 f4be 08a6 a33e 30bb febe 47d9 1e3f
00000170: a8dc c03e acf0 133f abd2 ecbe a367 ad3e

discriminator.fc1.bias f4 [4]
0.38149592 -0.24312678 -0.26930234 -0.054897726
00000000: 6f53 c33e 3af6 78be ffe1 89be 70dc 60bd

discriminator.fc2.weight f4 [2, 4]
-0.34767902 0.6388096 0.564124 0.25295874 -0.5956788 0.4154766 0.6066352 0.54107505
00000000: fc02 b2be 0789 233f 6e6a 103f cf83 813e
00000010: 687e 18bf 59b9 d43e 724c 1b3f e583 0a3f

discriminator.fc2.bias f4 [2]
0.030506844 -0.020374931
00000000: 7de9 f93c 54e9 a6bc

discriminator.fc3.weight f4 [1, 2]
0.6159389 1.1902065
00000000: 2cae 1d3f b058 983f
