src/algorithms/deep/pretrained/arga_dblp.pt (torch, 73428 bytes, 9 tensors)

encoder.conv1.bias f4 [48]
0	0xbc349106	-0.011020904
1	0x3d01f7c6	0.031730436
2	0x3d33ae04	0.043867126
3	0x3cdd516b	0.027016362
4	0xbb0c8e9f	-0.0021447313
5	0x3c79cfc7	0.015247292
6	0x3c525b92	0.012839215
7	0x3cbf3377	0.02333997
8	0x3b95825b	0.0045626587
9	0x3cc28573	0.023745274
10	0xbc942121	-0.018082203
11	0x3cfdacec	0.030966245
12	0x3b075ace	0.002065349
13	0x3c976c24	0.018484183
14	0xbc6b3d7e	-0.014357923
15	0x3d1df0f2	0.03855986
16	0xbc0bceda	-0.008533204
17	0x3c93fea4	0.018065758
18	0x3c6138ee	0.013746483
19	0xbc880fd5	-0.016609112
20	0x3c248ed0	0.010043815
21	0xbc2e75a0	-0.010648161
22	0x3a2d9a09	0.00066223793
23	0x3d0ef962	0.0349058
24	0xbbd866cf	-0.0066040526
25	0x3d10c1a5	0.035340924
26	0xbc518a2b	-0.0127892895
27	0xbc678d8c	-0.0141328685
28	0x3d04d92b	0.03243367
29	0xbc46f695	-0.012143751
30	0x3d16ec1e	0.036846273
31	0x3d11054e	0.03540545
32	0x3d083cf1	0.033261243
33	0xbb0c9a0f	-0.002145413
34	0xbbde3e69	-0.006782342
35	0xbb0d66f1	-0.002157625
36	0x3c9a7779	0.018855797
37	0x3b3def5d	0.0028981783
38	0x3d404489	0.04694036
39	0x3c1a22d2	0.009407716
40	0xbb3d92f8	-0.0028926712
41	0xbc2ec1d6	-0.010666331
42	0x3d11fa99	0.03563938
43	0xbb88b517	-0.004171978
44	0x3cdfa8c1	0.027302148
45	0x3d0d2b0c	0.03446488
46	0x3c3d0d7f	0.011538862
47	0x3ceb36ae	0.028712597

encoder.conv1.lin.weight f4 [48, 334]
0	0xbd44f1df	-0.04808223
1	0x3d06d764	0.032920256
2	0x3daa4956	0.08314769
3	0x3dbd3669	0.092388935
4	0x3d8b8d10	0.06814015
5	0x3dda1c20	0.10649896
6	0xbc667b6e	-0.014067514
7	0x3d572b2d	0.05253141
8	0x3dc0df6a	0.09417613
9	0xbd88d8f8	-0.066820085
10	0xbc86b7bc	-0.016445033
11	0xbc763ab5	-0.015028645
12	0xbdc4a0ff	-0.0960102
13	0x3d9ed889	0.077561446
14	0xbdd7d7cc	-0.10539207
15	0xbd366db8	-0.04453823
16	0xbda2fbb5	-0.079581656
17	0xbb4f5e3a	-0.0031641857
18	0x3e015df4	0.12633497
19	0x3dc25562	0.09488942
20	0xbced6bff	-0.02898216
21	0x3c304e38	0.010760836
22	0xbdbccb71	-0.09218491
23	0x3d24cc96	0.04023417
24	0xbc438286	-0.011932975
25	0xbdad1105	-0.08450512
26	0x3c897c6c	0.016782962
27	0xbe011cf4	-0.12608701
28	0x3d491b80	0.04909849
29	0x3d4410a4	0.047867432
30	0xbc931a4b	-0.017956873
31	0x3db3086d	0.087418415
32	0x3ddf299a	0.10896607
33	0xbd71dea0	-0.059050202
34	0xbda624d8	-0.08112496
35	0x3d2a2336	0.041537486
36	0xbdbb50d7	-0.09146278
37	0x3c5b2508	0.013375528
38	0x3d969c8b	0.07354077
39	0x3c2e5343	0.010639968
40	0xbd54fbee	-0.05199807
41	0x3e27cd64	0.16386944
42	0x3d227e48	0.039671212
43	0xbd9b025a	-0.07568808
44	0x3dc9c9f3	0.09852972
45	0x3caa9a65	0.020825574
46	0x3dd35420	0.1031878
47	0x3da747f6	0.08168022
48	0x3dcd98bb	0.10038897
49	0xbd54d188	-0.051957637
50	0x3b88f33b	0.004179386
51	0x3d1377d9	0.036002968
52	0x3df6e221	0.120548494
53	0xbd51ef22	-0.051253445
54	0x3dac4717	0.08411997
55	0x3d2d5443	0.042316686
56	0x3d959e85	0.07305626
57	0x3d8f1d82	0.0698805
58	0x3af4d307	0.0018678614
59	0x3d4ee310	0.050509512
60	0x3dca3d86	0.09875016
61	0xbd17e5a3	-0.037084233
62	0x3c4ec19f	0.012619405
63	0xbcac7c4d	-0.021055365
64	0x3dc39c7a	0.0955133
65	0x3dc606ee	0.096692905
66	0x3e06c02e	0.13159248
67	0x3db5e013	0.088806294
68	0xbd491a57	-0.049097385
69	0x3dc85e14	0.09783569
70	0x3c910165	0.01770086
71	0x3ced75ad	0.028986776
72	0x3d0d9f6f	0.034575876
73	0x3c9b8dc2	0.018988494
74	0x3df38d93	0.118922375
75	0xbc9cdc44	-0.019148
76	0x3ddf4198	0.10901183
77	0xbd83f232	-0.064426795
78	0x3954b1d4	0.00020284142
79	0x3ccbb6be	0.024867412
80	0x3cac9295	0.02106599
81	0x3b6e2742	0.0036339317
82	0xbb9c7131	-0.0047742357
83	0xbc1e2e7d	-0.009654638
84	0xbda98d70	-0.0827893
85	0x3e051f7c	0.13000292
86	0xbdd50afb	-0.10402485
87	0x3de29969	0.11064417
88	0x3df03212	0.117283
89	0x3d95f853	0.07322755
90	0xbdba74be	-0.09104298
91	0xbd26d113	-0.040726732
92	0xbcc54d3f	-0.024084685
93	0x3c8274da	0.01592486
94	0x3e1b8a90	0.15189576
95	0x3c88fa88	0.016721025
96	0xbbda96c5	-0.006670805
97	0xbc474e2d	-0.012164635
98	0xbdc67b09	-0.09691436
99	0x3e07e3c4	0.1327048
100	0x3dc049f6	0.09389107
101	0xbd206aaa	-0.039164223
102	0xbbeb55c4	-0.007181855
103	0xbdbe6d05	-0.092981376
104	0xbd90fb6d	-0.07079206
105	0x3aaaab11	0.0013020952
106	0xbd0d8263	-0.034548175
107	0x3e09caf6	0.1345633
108	0x3cde076c	0.027103148
109	0x3d25b2d7	0.040453758
110	0x3e085a59	0.13315715
111	0x3dc6c70c	0.09705934
112	0xbd00a94e	-0.03141146
113	0xbdb46f0c	-0.08810243
114	0x3da46fe3	0.08029153
115	0x3d583213	0.05278213
116	0xbde5d136	-0.112215444
117	0xbdf30f99	-0.118682094
118	0xbd83a7bc	-0.06428477
119	0x3dcf4c57	0.101219825
120	0xb99c37e1	-0.00029796272
121	0x3df4747b	0.119362794
122	0x3e00c4df	0.125751
123	0x3de5dbcd	0.11223564
124	0x3cfa24eb	0.030535182
125	0xbdf21c04	-0.1182175
126	0x3dd3f992	0.10350336
127	0x3d0bf4e3	0.03416909
128	0xbcd516d2	-0.026011858
129	0x3e0299a7	0.12753926
130	0xbca5c6a8	-0.020236328
131	0x3dc130b6	0.09433119
132	0xbbc78bb5	-0.0060896524
133	0xbd97699e	-0.07393192
134	0xbd9f2eb0	-0.07772577
135	0xbd749d9b	-0.059720617
136	0x3db04949	0.08607728
137	0xbbb686ed	-0.0055702836
138	0x3d17d960	0.03707254
139	0x3da15f9f	0.078795664
140	0xbd53328e	-0.051561885
141	0x3d4f7643	0.050649893
142	0x3dbd6866	0.09248428
143	0xbd92c8a2	-0.07167174
144	0xbd47530b	-0.04866318
145	0xbd598189	-0.05310205
146	0x3b12f248	0.0022422243
147	0xbc65d689	-0.0140282
148	0xbd8c3f3b	-0.06847998
149	0xbd970c93	-0.07375445
150	0x3d0f4b7f	0.034984108
151	0x3bd40f0a	0.0064715194
152	0x3d9d93e4	0.076942235
153	0xbd830faa	-0.06399472
154	0x3b05a38a	0.0020391666
155	0xbdd25efe	-0.102720246
156	0x3d4b546b	0.049641054
157	0xbdf3bfb1	-0.119017966
158	0x3da7df7a	0.08196922
159	0xbd3a3c7a	-0.04546783
160	0x3df05bfa	0.11736293
161	0xbd0265e9	-0.03183547
162	0xbdcbeed3	-0.099576615
163	0x3dfb7eca	0.122800425
164	0x3e03a1d0	0.12854695
165	0x3d9e9f5e	0.07745241
166	0xbd087015	-0.033310015
167	0x3ddfc990	0.10927117
168	0xbdc92246	-0.0982099
169	0xbcf0ccb4	-0.029394485
170	0x3de2cdef	0.11074435
171	0x3dd8cb15	0.1058561
172	0x3d7fab17	0.062419023
173	0x3d900379	0.07031912
174	0x3dfb1cfc	0.12261388
175	0xbdb67e77	-0.0891084
176	0x3def61b2	0.11688556
177	0xbdda09d6	-0.10646407
178	0xbdc4cd4b	-0.09609469
179	0xbd6e22af	-0.058138546
180	0x3e0fb665	0.14034422
181	0xbd0403d7	-0.032230224
182	0x3db5481b	0.08851644
183	0xbdeb192d	-0.11479411
184	0x3dab5170	0.08365142
185	0xbdd2e49e	-0.102975115
186	0x3d159b1c	0.036524877
187	0xbbe1656a	-0.0068785446
188	0xbcbc5e98	-0.022994325
189	0x3c3e513e	0.011616049
190	0xbda2c200	-0.07947159
191	0x3c8ee8f8	0.017445073
192	0x3ddc4e3a	0.10757108
193	0x3dd637ef	0.10459887
194	0x3dd32e9f	0.10311627
195	0xbd59624e	-0.053072266
196	0x3d832351	0.064032204
197	0xbda8c476	-0.08240597
198	0x3dd93ae7	0.10606938
199	0x3dc0635c	0.09393951
200	0x3d790598	0.06079635
201	0xbd22d4aa	-0.039753594
202	0x399b080a	0.00029569893
203	0xbd9e22e5	-0.07721499
204	0x3bd569b2	0.006512844
205	0xbc9f368d	-0.019435192
206	0xbc569733	-0.013097572
207	0xbd7f0be2	-0.06226719
208	0x3b64e82a	0.003492842
209	0xbd5e25a4	-0.054235116
210	0x3e06e65d	0.13173814
211	0x3cb6e936	0.022328
212	0x3db7546a	0.089516476
213	0xbdc68de3	-0.096950315
214	0x3d8d6ee3	0.069059156
215	0xbdc9f351	-0.09860862
216	0xbd8f5249	-0.069981165
217	0xbcdeda2e	-0.027203646
218	0x3c8e496f	0.017369
219	0x3d8b30f1	0.06796444
220	0x3db576e2	0.08860566
221	0x3d0d1257	0.03444132
222	0x3bc57c0f	0.006026752
223	0xbdd15f4a	-0.10223253
224	0xbd853050	-0.065033555
225	0xbd3fee2a	-0.04685799
226	0xbd46fed5	-0.04858287
227	0x3dc41b9b	0.09575578
228	0xbe02017b	-0.12695877
229	0xbd11ba7e	-0.035578243
230	0x3d25bef2	0.040465303
231	0x3db8e275	0.09027568
232	0xbd8c39b4	-0.068469435
233	0xbdde88a1	-0.10865904
234	0x3c3728fe	0.011179207
235	0xbd676ee7	-0.05650225
236	0x3d98adbf	0.074550144
237	0x3d7419e2	0.059594996
238	0x3bce8dcf	0.006303526
239	0x3d7f098c	0.062264964
240	0x3d9c391d	0.07628081
241	0x3e0896fc	0.13338846
242	0xbcae7bdb	-0.021299293
243	0x3c9e313a	0.019310582
244	0xbdc0aa84	-0.09407523
245	0x3d897161	0.067110784
246	0xbcb9af0e	-0.02266648
247	0xbc5a7e0e	-0.013335718
248	0xbd93b477	-0.07212155
249	0xbd8f3088	-0.069916785
250	0x3d7b3704	0.061331764
251	0x3d3a63f8	0.045505494
252	0x3df46fda	0.119353965
253	0x3a102f98	0.0005500256
254	0x3d274316	0.040835463
255	0xbd051804	-0.032493606

encoder.conv2.bias f4 [24]
0	0x3c0d516a	0.008625368
1	0xbd124042	-0.035705812
2	0xbcfaa2f7	-0.030595286
3	0x3c5085c4	0.012727205
4	0x3cf1c7c0	0.029514194
5	0x3d13b739	0.036063407
6	0x3ca34aed	0.019933188
7	0xbc555d8f	-0.013022794
8	0x3d227f0f	0.039671954
9	0x3cb7efbe	0.022453185
10	0xbccb2491	-0.02479771
11	0xbd1377f6	-0.036003076
12	0x3bc508fd	0.0060130344
13	0xbb91fc84	-0.004455151
14	0x3cc78df8	0.024359688
15	0x3ccaf1c2	0.024773482
16	0x3d0fd245	0.035112638
17	0xbd084a48	-0.033273965
18	0xbcbaa304	-0.02278281
19	0x3bc9a4bd	0.0061536715
20	0x3b0a583b	0.0021109718
21	0x3cee73e3	0.029107993
22	0xbca8eae4	-0.020619817
23	0x3cb2d88f	0.021831779

encoder.conv2.lin.weight f4 [24, 48]
0	0xbdaccc3f	-0.08437394
1	0xbca609b4	-0.020268299
2	0xbdab2e73	-0.08358469
3	0xbe1924ee	-0.14955494
4	0xbe05b471	-0.13057114
5	0xbe5728fd	-0.2101173
6	0xbe8a4b29	-0.27010468
7	0x3e8a90e6	0.27063674
8	0xbd6c7166	-0.057725333
9	0xbe809459	-0.2511318
10	0x3dc3636c	0.095404476
11	0xbdd9beea	-0.10632117
12	0x3dd179b1	0.10228289
13	0x3d8a4c11	0.0675279
14	0x3ea7e4ff	0.32791898
15	0x3e69535b	0.22785704
16	0x3e7b9e04	0.24571997
17	0x3e8434e7	0.2582161
18	0x3e83f225	0.2577068
19	0x3dc9d932	0.0985588
20	0xbde7b65b	-0.113140784
21	0xbddc30b5	-0.10751478
22	0xbdc3f478	-0.09568113
23	0xbe922496	-0.28543538
24	0xbdc27615	-0.094951786
25	0x3e6bdf03	0.23034291
26	0x3c27b540	0.010236084
27	0xbea54a59	-0.32283285
28	0x3e03eb74	0.12882787
29	0x3e81fde2	0.2538901
30	0xbe7390fc	-0.23785776
31	0x3e9eecfa	0.31040174
32	0x3e34567a	0.17611113
33	0x3deac71b	0.114637576
34	0x3ea128df	0.31476495
35	0xbe067e3f	-0.13134097
36	0x3d6df1e7	0.058092024
37	0x3da76acd	0.081746675
38	0xbe90542c	-0.28189218
39	0xbd7a0aec	-0.061045572
40	0x3ce04ef9	0.027381407
41	0xbe202d7f	-0.15642355
42	0xbcaf1a4f	-0.02137485
43	0xbe9a6093	-0.30151805
44	0x3e4b983a	0.19882289
45	0xbea0a159	-0.31373098
46	0x3d7f61c7	0.062349107
47	0x3db00a08	0.08595663
48	0x3e265647	0.1624385
49	0x3d33f3f0	0.04393381
50	0xbda50570	-0.08057678
51	0x3e001fb6	0.12512097
52	0xbe0623ce	-0.13099596
53	0x3e5e50b5	0.21710475
54	0xbea5511f	-0.32288453
55	0xbd1ef850	-0.038811028
56	0xbe923484	-0.2855569
57	0x3e6a0c19	0.22856177
58	0x3d730838	0.05933401
59	0xbc18aeb3	-0.009318995
60	0x3e10395b	0.1408438
61	0x3e0aaeb7	0.13543211
62	0x3e3a8905	0.18216331
63	0x3d611091	0.05494744
64	0xbcf0a1ff	-0.02937412
65	0x3e3e04c0	0.185565
66	0xbe8d4fbe	-0.275999
67	0xbd9d7bb2	-0.07689609
68	0xbe346196	-0.17615351
69	0x3e8e4a3a	0.27791005
70	0xbd232656	-0.039831482
71	0xbe9ca25f	-0.3059263
72	0xbe3f8b00	-0.18705368
73	0xbd83ad53	-0.06429543
74	0x3e04069c	0.12893146
75	0x3e280e64	0.1641174
76	0xbde8a24b	-0.1135908
77	0xbe7bfa0b	-0.24607103
78	0x3cbff805	0.023433695
79	0x3cdda622	0.027056757
80	0x3e47a6de	0.19497249
81	0x3e77c868	0.24197543
82	0x3e67a1f6	0.22620377
83	0x3e3497c7	0.17636023
84	0xbe8f4f3a	-0.27990133
85	0xbcb26f50	-0.021781594
86	0xbd55d039	-0.05220053
87	0x3e8b91ed	0.2725977
88	0x3e389a34	0.18027574
89	0x3e89d7e7	0.26922533
90	0xbd9117f6	-0.07084648
91	0xbe570d1e	-0.21001098
92	0xbe37f3f9	-0.17964162
93	0xbe9a58df	-0.30145928
94	0xbe51ebeb	-0.20500152
95	0x3dc12935	0.09431688
96	0x3e887e21	0.2665873
97	0x3d3fac62	0.046795256
98	0x3db76eac	0.08956656
99	0x3e11d0b7	0.14239775
100	0xbe05452a	-0.13014665
101	0xbd99d905	-0.07512096
102	0x3e841d91	0.25803807
103	0xbd8e5b41	-0.06950999
104	0x3d858951	0.06520332
105	0xbda6fb97	-0.08153456
106	0xbe40ca18	-0.18827093
107	0xbd973665	-0.07383422
108	0x3e4a0ce6	0.19731483
109	0xbe6ff90e	-0.2343485
110	0x3e90ebc7	0.28304884
111	0x3b78038a	0.0037843906
112	0xbdf80f38	-0.12112278
113	0xbe76967b	-0.24080841
114	0x3e1a79b2	0.15085486
115	0x3e078d67	0.13237534
116	0x3ddc1317	0.107458286
117	0x3e45e805	0.1932679
118	0xbb05a9f6	-0.0020395494
119	0xbd76e112	-0.060273238
120	0x3e70145b	0.23445265
121	0x3dafc4c4	0.08582452
122	0xbe277e31	-0.16356732
123	0x3da2b877	0.0794534
124	0x3e800165	0.25001064
125	0xbe71a23c	-0.23597044
126	0x3d91461f	0.07093453
127	0x3c3ae414	0.011406917
128	0xbea9a957	-0.3313701
129	0x3e09a128	0.13440382
130	0x3d704089	0.058655296
131	0x3db592c5	0.08865885
132	0xbdf3c4b9	-0.11902756
133	0xbdd81a3d	-0.105518796
134	0x3e44c50a	0.1921579
135	0x3d222a53	0.039591145
136	0xbe4a60c0	-0.1976347
137	0x3d31876b	0.043342035
138	0xbe6d5506	-0.23176965
139	0x3e0acde5	0.13555105
140	0xbd8ab64d	-0.06773052
141	0xbea6983b	-0.32538018
142	0x3e44b8ad	0.19211073
143	0xbe507a7a	-0.20359221
144	0x3b5bfb13	0.00335664
145	0xbb0eb827	-0.0021777244
146	0xbd42cf12	-0.04756076
147	0x3e388cf8	0.18022525
148	0x3e13dfc5	0.1444083
149	0x3d02ef9d	0.031966794
150	0xbe916b43	-0.28402147
151	0x3e9b328c	0.30312002
152	0xbc74c9b9	-0.014940673
153	0xbd8544fc	-0.06507298
154	0xbdc4292f	-0.09578168
155	0x3c08ac3e	0.008341847
156	0x3db875f7	0.09006875
157	0x3e80df3f	0.25170323
158	0x3e229650	0.15877652
159	0x3e348ad0	0.17631078
160	0xbde44e4f	-0.11147749
161	0xbe3344fa	-0.17506781
162	0x3d404807	0.04694369
163	0xbc29e137	-0.010368637
164	0x3d4cccc2	0.04999996
165	0x3e6508ec	0.22366685
166	0xbddb6d9f	-0.10714268
167	0xbdda36c8	-0.1065498
168	0xbe8cb920	-0.2748499
169	0xbe9003be	-0.28127855
170	0xbd598471	-0.05310482
171	0xbe930da3	-0.28721341
172	0x3eac51be	0.33656114
173	0xbe42648d	-0.1898367
174	0x3e512ffc	0.20428461
175	0xbeb51f24	-0.3537532
176	0x3d901225	0.07034711
177	0xbe8b8d78	-0.2725637
178	0xbd90135c	-0.070349425
179	0x3e60da63	0.21958308
180	0xbb5c5119	-0.0033617674
181	0x3b5bfee6	0.003356868
182	0x3e98cd23	0.29844007
183	0x3e7a6e0c	0.24456042
184	0xbdb1b4d8	-0.08677071
185	0xbe902e33	-0.28160247
186	0x3e9d8f65	0.30773464
187	0x3da5d9b6	0.08098166
188	0xbe31882d	-0.17337103
189	0x3ea1e391	0.31618932
190	0x3e47dd6a	0.19518057
191	0xbd5513af	-0.052020725
192	0xbe6ab98e	-0.22922346
193	0xbe2d4965	-0.16922529
194	0x3e616052	0.220094
195	0x3d5e0354	0.054202393
196	0xbdfa8472	-0.12232293
197	0x3cbdb521	0.023157658
198	0xbe586746	-0.21133146
199	0xbda9776f	-0.08274733
200	0x3e285d0a	0.16441742
201	0xbe228afe	-0.15873334
202	0xbdc724e3	-0.097238325
203	0xbe693019	-0.22772254
204	0x3e83d97c	0.25751865
205	0xbd7409f3	-0.0595798
206	0xbea6c9a5	-0.32575718
207	0x3d9c95ed	0.076457836
208	0x3d783b33	0.06060333
209	0xbe831e5c	-0.256091
210	0x3e65b65b	0.22432844
211	0xbdecd8e2	-0.115648046
212	0xbe75ab61	-0.23991157
213	0xbd2d08a5	-0.042244572
214	0x3dd03a98	0.10167426
215	0x3e9cd337	0.30629894
216	0x3e846304	0.25856793
217	0x3e4b7c96	0.19871745
218	0x3e7ffbfe	0.24998471
219	0xbd615a7e	-0.05501794
220	0xbe87cce0	-0.26523495
221	0xbd4276d0	-0.04747659
222	0x3e3e5587	0.18587314
223	0xbe6e7d81	-0.23290063
224	0x3d15d0bc	0.036576018
225	0xbe28e575	-0.16493781
226	0xbe5125cc	-0.20424575
227	0xbe311298	-0.17292249
228	0xbdfacc75	-0.12246028
229	0xbda1bf96	-0.0789787
230	0x3d13f40c	0.036121413
231	0x3e8a7fd9	0.27050665
232	0x3e29556c	0.16536492
233	0xbe40424d	-0.18775292
234	0x3d1f5b33	0.038905334
235	0x3ea4935c	0.32143676
236	0x3d1dc58a	0.038518466
237	0x3e8e2970	0.2776599
238	0x3e3ca56c	0.18422478
239	0xbbe4e4fe	-0.006985306
240	0x3d2e9580	0.042623043
241	0xbe4d025a	-0.20020428
242	0x3e150cd3	0.14555673
243	0xbe55ec99	-0.20891036
244	0x3e60585f	0.21908711
245	0x3e5772b6	0.21039852
246	0x3d5fd476	0.054645978
247	0x3e70637d	0.23475452
248	0x3db32635	0.08747522
249	0x3e849f70	0.2590289
250	0xbe07dd84	-0.13268095
251	0xbe4c6762	-0.19961312
252	0xbda9ebee	-0.08296953
253	0x3e0f5224	0.13996178
254	0xbe81cbca	-0.2535079
255	0x3c7d44f7	0.015458337

discriminator.fc1.weight f4 [4, 24]
0	0x3f2ac84c	0.6671188
1	0x3f49187a	0.78552973
2	0xbf1031f7	-0.5632624
3	0xbeb603e6	-0.3554985
4	0x3f08d669	0.53452164
5	0x3f0c4d87	0.548058
6	0x3f322d02	0.69599926
7	0x3f382f79	0.7194744
8	0x3e795265	0.24347837
9	0xbead0090	-0.33789492
10	0x3f3cb0ac	0.7370708
11	0x3f26ecf6	0.65205324
12	0x3f2b8816	0.67004526
13	0x3e718824	0.2358709
14	0x3eb382a9	0.35060623
15	0x3f2c732f	0.67363256
16	0xbecd4163	-0.4008895
17	0x3e65e80e	0.22451803
18	0xbf3a4c60	-0.7277279
19	0xbf4b8eb9	-0.7951465
20	0x3f311bdf	0.6918315
21	0x3ef8dbb3	0.48605117
22	0x3e9c26d8	0.30498385
23	0xbeac932b	-0.3370603
24	0x3e9b990f	0.30390212
25	0xbf1fdadc	-0.6244333
26	0xbf2f275b	-0.68419427
27	0x3e107ced	0.14110155
28	0x3eedd253	0.46449527
29	0xbae8a20b	-0.0017748488
30	0x3f2805be	0.6563376
31	0xbe2b59de	-0.167335
32	0xbf30ced2	-0.6906558
33	0x3f1e2976	0.61782014
34	0xbf20e034	-0.62842107
35	0xbf2e247a	-0.6802441
36	0xbe461e0b	-0.19347398
37	0x3f0e1b83	0.5551073
38	0xbef06a23	-0.46955976
39	0xbefb3d61	-0.49070266
40	0x3f2234e3	0.6336195
41	0x3ef2d2a5	0.47426334
42	0xbe594a7a	-0.21219817
43	0x3f251e52	0.6449939
44	0xbf1c40c3	-0.6103632
45	0x3e3cba32	0.18430403
46	0x3e53c537	0.206807
47	0xbf043738	-0.5164676
48	0xbf385ad0	-0.7201357
49	0xbeecdc1c	-0.4626168
50	0x3f3e7222	0.743929
51	0xbeea487a	-0.4575842
52	0x3f007fea	0.5019518
53	0x3e6cc992	0.23123768
54	0x3e46077a	0.1933879
55	0xbde55c81	-0.11199284
56	0xbe6155e8	-0.22005427
57	0x3c28d880	0.010305524
58	0xbf177169	-0.59157425
59	0xbec8dccd	-0.39230958
60	0xbf0cbeb8	-0.54978514
61	0x3f15a186	0.5844959
62	0x3ede8f9b	0.43468937
63	0xbf25fb42	-0.64836514
64	0xbf325099	-0.6965423
65	0x3e717c98	0.23582685
66	0xbefd538a	-0.49477798
67	0xbf203644	-0.625828
68	0x3f0dfe1e	0.5546588
69	0x3eaae634	0.33378756
70	0x3d03119a	0.031999208
71	0xbe7d2bd3	-0.24723749
72	0xba931793	-0.0011222236
73	0xba5e8519	-0.0008488461
74	0xba0c1f7d	-0.00053452683
75	0xb9629b94	-0.00021610997
76	0x39cb6583	0.0003879481
77	0x39066e49	0.0001282032
78	0xba493838	-0.0007675919
79	0x3a6f841a	0.0009136811
80	0xbac7f7fc	-0.00152564
81	0x3aef3e49	0.0018252815
82	0x3a8055ae	0.000979116
83	0xbce976df	-0.028499065
84	0x3cd2d506	0.025736343
85	0x3abfcd37	0.0014633302
86	0x386d77be	5.6616722e-05
87	0x3d125aec	0.03573124
88	0xba4fed0a	-0.0007931745
89	0xbc296a12	-0.010340231
90	0xbae0c05b	-0.001714717
91	0xbba828f7	-0.0051318365
92	0x3bb5a8f6	0.0055438234
93	0x3d0a0ef5	0.03370567
94	0x3a3d6cf2	0.0007226012
95	0xba94859e	-0.0011331325

discriminator.fc1.bias f4 [4]
0	0xbe800912	-0.2500692
1	0xbeac4386	-0.33645266
2	0xbe00b980	-0.12570763
3	0xbe57bdf1	-0.2106855

discriminator.fc2.weight f4 [2, 4]
0	0xbe51163c	-0.20418638
1	0xbdee5a38	-0.116383016
2	0xbe6781d0	-0.22608113
3	0xbe94294e	-0.28937763
4	0x3f17d861	0.59314543
5	0x3f3a477c	0.72765326
6	0x3f3a5c88	0.7279744
7	0xbe46f3cf	-0.19428943

discriminator.fc2.bias f4 [2]
0	0xbeb3a93c	-0.35090053
1	0x3e3d5772	0.18490389

discriminator.fc3.weight f4 [1, 2]
0	0xbdeb2fb8	-0.11483711
1	0x3edde115	0.43335786
