src/algorithms/deep/pretrained/arga_uat.pt (torch, 74374 bytes, 9 tensors)

encoder.conv1.bias f4 [64]
00000000: 4cbe 463d 968c 603d 035f 213d b12b 823d
00000010: 0d9b 513d 73cd 553d ff1e 523d c7ba 333d
00000020: 1418 a63d a062 543d 3785 103d 419b 2b3d
00000030: 63ad 213d 3ab0 9c3d 16b0 7c3d 0439 423d
00000040: f177 1e3d ce34 233d f54c 3c3d 98bc 7e3d
00000050: ca43 1a3d 47b4 7b3d d5b0 1f3d 7254 4b3d
00000060: 5028 4c3d 2f4f 143d dbe2 583d 4c30 853d
00000070: 0785 163d ac09 593d c1ea 523d 7c33 653d
00000080: 36ab 5a3d 88f3 313d 4a6a 723d b95a 013d
00000090: 1344 b43c 99e1 323d 631e 243d 5368 2a3d
000000a0: a782 7a3d 4975 153d 883f 0c3d 04ab 343d
000000b0: 1a82 2d3d d561 103d d5a1 2c3d cb87 203d
000000c0: a235 583d 9645 283d de28 1b3d df1c 1f3d
000000d0: 593f 7b3d 034e f43c ae70 313d 8730 383d
000000e0: 7f23 753d 85da 3b3d da41 2a3d 8204 763d
000000f0: cbd9 a0bc 59cd 5c3d 323e 0c3d a2b6 793d
0.048521325 0.054821573 0.03939725 0.0635599 0.05117326 0.052197885 0.05129909 0.043879297
0.08110061 0.05185187 0.035283294 0.04189611 0.039471995 0.076508 0.061691366 0.047417656
0.038688604 0.03984528 0.04597183 0.062191576 0.037662305 0.061451223 0.038987 0.04964108
0.049843132 0.036208328 0.05295072 0.065033525 0.03674796 0.05298774 0.05149341 0.055957302
0.053385936 0.04344514 0.059183396 0.03158066 0.022005117 0.043672178 0.04006804 0.041603398
0.061159756 0.036488805 0.034240276 0.044108406 0.042360403 0.03524955 0.042146523 0.039192002
0.052785523 0.041081987 0.03788077 0.038845893 0.06133971 0.029822355 0.04332035 0.044968154
0.059848305 0.045862693 0.041566707 0.060062893 -0.019635102 0.053906772 0.034239 0.060965188

encoder.conv1.lin.weight f4 [64, 239]
00000000: dc57 c83d 2e49 fabd e368 983d ebfb c23d
00000010: 4b5f d03d deff b9bc ec2d 353d 63c6 4e3d
00000020: 2ff8 3d3c d093 9e3c e932 ad3d 028c 0b3e
00000030: afb6 1b3e cd93 3ebc 624e 163e 0ae8 9c3d
00000040: 437d a7bd f5d5 883d 5747 d73c bc05 a0bb
00000050: 154e 523e bd44 bcbd 9f9f dabd d2cb af3c
00000060: db95 023d 3994 a63d c488 6dbd e1e4 d13c
00000070: 73b6 3e3e 7471 b7bc 1219 7f3d 7f54 273e
00000080: e4f3 01bd 4209 d33d 45f0 db3d d0b0 153e
00000090: 94aa f03d 7835 e23d 5d03 2fbd 3778 b23d
000000a0: 7716 c8bc ee6c fa3d 89b1 25bd 1b1e c33c
000000b0: b7dc eb3d 92cf 0b3e 6e67 ca3d 793e 403e
000000c0: a1c6 d93d 7ed5 0e3e be27 b3bd 44fd 43bd
000000d0: 3282 b43d c55e 75bd e24d 303e 3ec7 64bd
000000e0: 8a9c 9e3d 186b 593c 5369 073e 94dd 823d
000000f0: e43d 9b3d 4263 9a3d 246c 703d d21e 503e
00000100: 989a 773d 086a 613b f850 d33d c020 d7bc
00000110: d27c e83d 03da 193e f4fa 9bbd 367b 1d3d
00000120: 4030 953c c0ff b5bb 2635 893d 8939 68ba
00000130: 07cd 243e 3759 b53c 4822 7c3d 2acf e63c
00000140: 80b0 9e3a 2cfa e13c 6946 78bd 9c80 ecbd
00000150: 2858 08bd c30a f1bb e02c b93c 772f c13d
00000160: e061 613d 2439 96bc bfb5 403e 9a16 09be
00000170: 919a 813d 20b4 0bbe 3bcf 223e 5e5b 553e
00000180: d3a5 e23d de7e 483e 8017 88bb b1b8 593e
00000190: 2a88 e43b 744d ab3d f4e9 133e 2bb3 c73c
000001a0: f651 f83d 1cca 013e b7ca 90bd 568f ca3d
000001b0: 69be 263e 4e86 113e 969e 40bd 5aff f4bd
000001c0: d021 923d a44f a6ba 5baa a83d a8fa 803d
000001d0: 007f 533d 905e 463e fc18 323e 7822 763d
000001e0: ea23 3fbd e298 2e3d 16fa c43d 0b6d 1d3e
000001f0: a20a 153e b091 65bd 1bb5 87bd b3d7 38bd
00000200: 96b1 dd3d 9ccf c43d ca54 fbbd b2e7 813d
00000210: d01f 863c 7ca4 a9bd 1f4e 15bd 006e b2bb
00000220: 255a e6bc 500a 583d f427 653d 69ea 8f3d
00000230: 3822 383d 608f d33c c2a9 4e3d 20c4 d03b
00000240: febc 4c3e 1804 8e3c 4b30 4d3e 74b7 00bd
00000250: 4beb 5b3e 5839 293d d28b e43d 1409 e93d
00000260: f22f 253e c655 0bbd ce26 023d 2cec a93d
00000270: 285d bf3d 0b23 433d 9544 97bc 4f27 d8bb
00000280: 88d2 e1bc 38ef 973d e072 92bc 3fec 253e
00000290: 6e40 c7bd 71d3 983d 404c c6bc 7b8e 0b3e
000002a0: 50b7 253c 4a1c f13d 20f8 4cbc 46fb ddba
000002b0: ca3a 533e 214b 243e 5c36 5b3d e2dd c33d
000002c0: 00fc b23c 9c3e 433d d812 ac3d f694 923d
000002d0: 849f 983d f258 fcbd bd80 e2bd d07e e53d
000002e0: 5cf4 723d de96 dfbc 1e55 ae3d 586b 873c
000002f0: 7dac 413e e0bc ed3d 8c5f 97bd b044 bf3d
00000300: d248 26bd 39a3 8a3d a04e 4b3c 04e2 a1bd
00000310: 7bb2 053d f164 febd ace2 e0bc 8fbf 8fbb
00000320: f558 0abe 3482 743d 90ae 99bc feab 09bd
00000330: 00b8 8439 8781 893c 6090 c9bc 2a98 22bd
00000340: 530e 893c 38d5 c2bc 92a8 023e 4ea6 b2bd
00000350: 407f d13d b0e8 0fbe 009a 3a3c a09d f5bc
00000360: 44bd 803d e9f3 e9bd d6dd f5bd ea13 cfbd
00000370: 98b4 f23c 7064 0cbe 181a 8f3d d855 57bd
00000380: 675d 0ebd 107c 603d ae28 a93d 8066 0bbe
00000390: 5e35 9b3d 41c0 f8bd 7cd0 28be 8429 9d3d
000003a0: 2088 4a3c 00e5 c93c a643 5abd 349c 913d
000003b0: ba96 cabd ca27 13bd b2a6 56bd 3a43 053e
000003c0: f11b fdbd 13ed 28be 3dcf a13d cd38 7cbb
000003d0: 533f 05be ae8f 053d 76c0 813a 9dab 11bd
000003e0: e25a 02be 3842 e8b8 be32 b1bc 4a2c 6abc
000003f0: c1c2 29bd eeb2 babd b0d1 ea3d 4a8f bb3d
0.09782383 -0.12220989 0.074418806 0.09520706 0.10174426 -0.022705015 0.044233248 0.050482165
0.011594816 0.019357592 0.08456976 0.13627627 0.15206407 -0.011631918 0.14678338 0.076614454
-0.08178189 0.06681434 0.026279135 -0.004883496 0.20537598 -0.09192798 -0.106749766 0.021459494
0.031881195 0.0813374 -0.057991758 0.025621833 0.18624286 -0.022392966 0.06227977 0.16340826
-0.031726733 0.103045 0.10739187 0.1461823 0.11751285 0.110453546 -0.042727817 0.087143354
-0.024424775 0.12227808 -0.040452514 0.023818066 0.115167074 0.136534 0.09883009 0.18773831
0.106335886 0.13948628 -0.087478146 -0.047848955 0.08813895 -0.059904832 0.1721721 -0.055854075
0.07744701 0.013270162 0.13223772 0.06389919 0.07580164 0.07538463 0.05869688 0.20324257
0.060450166 0.0034395475 0.10318178 -0.026260734 0.113519326 0.15024571 -0.07616225 0.03844758
0.018211484 -0.0055541694 0.066995904 -0.0008858671 0.16093837 0.022137268 0.06155613 0.028174955
0.0012107044 0.027585112 -0.060614023 -0.11547968 -0.033287197 -0.007356019 0.022604406 0.09432881
0.05502498 -0.018337794 0.1881933 -0.13387528 0.06328309 -0.13642931 0.15899365 0.20835635
0.11066785 0.19579646 -0.004153192 0.2126186 0.00697424 0.083643824 0.14444715 0.024377426
0.12125008 0.12674755 -0.07069915 0.098906204 0.16283573 0.1421139 -0.04702624 -0.11962767
0.071353555 -0.001268853 0.08235618 0.06297809 0.05163479 0.1937201 0.17392343 0.060091466
-0.04666511 0.04262627 0.096180126 0.15373628 0.14554837 -0.05604714 -0.0662634 -0.04512758
0.108248875 0.09609911 -0.122720316 0.063430205 0.016372591 -0.08283326 -0.036451455 -0.005445242
-0.028119156 0.05274421 0.055946305 0.07027132 0.04495451 0.025825202 0.050454862 0.006371036
0.1999397 0.017335936 0.20037954 -0.031424955 0.21476476 0.041314453 0.11159481 0.11378685
0.16131571 -0.034017347 0.03177529 0.08296999 0.0934394 0.04764084 -0.01846532 -0.006596483
-0.02756621 0.07418674 -0.017877042 0.16203402 -0.09729086 0.07462204 -0.02420628 0.1362857
0.010114506 0.11772974 -0.0125103295 -0.0016935847 0.20627895 0.16044284 0.053518638 0.09563805
0.021848679 0.04766713 0.08402032 0.07157318 0.074523 -0.123216525 -0.11059711 0.11205828
0.05931507 -0.027293619 0.085123286 0.016530678 0.18913455 0.11608291 -0.07391271 0.09339273
-0.04059679 0.067694135 0.012408882 -0.07904437 0.032640915 -0.12421597 -0.027451836 -0.0043868492
-0.13510497 0.059694484 -0.018759996 -0.03361129 0.00025314093 0.016785396 -0.024604976 -0.039695896
0.016730463 -0.023783311 0.12759617 -0.08723126 0.10229349 -0.14053607 0.0113892555 -0.029982388
0.062860996 -0.11423475 -0.120052025 -0.1011122 0.02962713 -0.13710189 0.06987399 -0.0525721
-0.034757044 0.054805815 0.08259712 -0.1361332 0.07578538 -0.121460445 -0.1648578 0.07673934
0.012361556 0.024645329 -0.05328717 0.071098715 -0.0989203 -0.035926618 -0.052405067 0.13013926
-0.12358845 -0.16496687 0.07900856 -0.0038486004 -0.13012438 0.032607727 0.0009899277 -0.035564054
-0.12729982 -0.00011074956 -0.021630641 -0.014292786 -0.041445497 -0.091161594 0.11465776 0.091581896

encoder.conv2.bias f4 [32]
00000000: ac7d 163d fa90 9cbc 076e 37bd 52a0 003d
00000010: b3e5 9d3c 55ba 443d 74e4 b03c 0dc1 ea3c
00000020: ffa3 19ba 8221 183d 8952 9d3c 0c06 19bd
00000030: 8449 eeba 2123 adbc e15f 333d 4a5c 363d
00000040: 5cd0 48bc b5a3 25bd 4fd6 a33a 6c21 25bd
00000050: 5460 7bbc 7649 03bd b8db c83c 86b0 3fbd
00000060: 7689 0cbd 9547 033d 4bb0 f1bc 1e76 c1bc
00000070: 599a 273d 67ed a0bb a76a 5bbd 6c70 0a3d
0.036740944 -0.019112099 -0.044782665 0.031402893 0.019274568 0.048029263 0.02159331 0.028656507
-0.0005860924 0.03714133 0.019204395 -0.037359282 -0.0018179868 -0.021134915 0.04379261 0.044521607
-0.012256708 -0.040439326 0.0012499782 -0.040315077 -0.015342791 -0.03205248 0.024518833 -0.046799205
-0.03431078 0.032050688 -0.029503008 -0.023615893 0.04091868 -0.004911113 -0.05356851 0.03379862

encoder.conv2.lin.weight f4 [32, 64]
00000000: 4814 6dbe cbfa d7bd ab9b 76be 4aa1 6e3e
00000010: 5c17 9bbe f32d 913e 26a4 283d 50df 04be
00000020: c0ae efbd 56b1 1e3e d2ac bc3d 8e28 39be
00000030: ae76 af3c 5b8c 31be a80f 8f3d ecef 6e3e
00000040: cb36 8e3e 2cf0 45bb d249 583d 14cd 913e
00000050: 3b39 8a3e 6f77 8fbd c242 2d3c b66a f23d
00000060: 7f9e 1a3e 85f6 1c3c cf86 5d3d b576 353e
00000070: 3657 05be d0a3 8fbc 432e 8cbe c9a1 90be
00000080: 0b81 7b3e d32f 173e bf3d 03be eee8 85bd
00000090: 7f89 1a3e d8d3 e0bd 70c3 e43d 9a5e bfbd
000000a0: 4420 d7bd bf62 0fbe d952 51be 8402 e93d
000000b0: e6d2 9f3d 9e48 cebd 2352 b0bd 352c 94bd
000000c0: 81cf 10be 553a 293d 6f78 2d3e f6cd bcbd
000000d0: 078b fdbc 7114 223e 1e2c 02bd 7c83 7ebe
000000e0: 99a7 9a3e 2c0f 18be f222 88be 1f95 07bb
000000f0: ceb9 643e 3002 cabd 2037 ffbd ab1e 13be
00000100: 3b23 85bd 9380 3c3e 2dae 8b3e 89bd 393d
00000110: 23d2 2a3d 9ef6 d5bd 02f5 1dbe 6a22 8d3c
00000120: 5ebb 8ebd 69dd 01be e39a 29bc a014 a13e
00000130: eb45 4e3d 29ec 993d cbf2 adbd 6f69 91be
00000140: 37ea 3ebe 51a4 813e 2837 18be f5d8 85be
00000150: 8eab 79be 3702 883a e934 363e 59d5 a9be
00000160: db9e 25be 934d 5fbe 7afc 853d 8cc3 043e
00000170: 4ecb b1bd bca0 ef3d 555e afbc 66a8 2f3e
00000180: 0961 a4be 57fd 77be 289b 96bd dbea 82bd
00000190: 1fba c6bd 32f5 293e b150 a9bd a2a2 893e
000001a0: e6b1 98bd 96cf 5e3d 75cd 23be 5f45 53bc
000001b0: 44d0 8cbc ceab 123e ac51 883e f57f b23d
000001c0: ad7c 4f3d 32d0 513e 79a5 8d3e 4175 1b3e
000001d0: 18a1 9cbe 6d8b 05be 12f3 823e ad2e 4a3e
000001e0: 330f 0b3e 700f 433e deb5 083e 3ad0 acbe
000001f0: c6d5 553e b890 973d 94d8 883e 3680 1dbe
00000200: f8a3 0d3d 61ee 9a3e 098d e7bd ac0f 89be
00000210: 676b bf3d 2625 a5be 858d 793e c9e3 ff3d
00000220: 458b 4a3c cfad babd 62c3 10be 77a3 a73e
00000230: 95dd 49be 0eb7 963e 2c6b 05be 4d08 74bd
00000240: 643b 0ebd f510 dd3d cd75 893d ff94 fcbd
00000250: 41b7 8d3c ad1f a2be b464 113e a806 a83c
00000260: d822 813d 920a d5bd 31ee 1a3e 9027 9fbd
00000270: d1a6 353d 80ed cd3d 9434 efbd e4c6 4bbe
00000280: 27e6 e6bd f47b 1f3e 4e06 2d3e d26d 6e3d
00000290: 5e7f 203e 102f 3f3e c2bc 703e 4025 953e
000002a0: e3c3 8ebc 27c3 d6bd a3c8 113e 2626 a0be
000002b0: 9b11 b0bd 60f3 3f3d db73 ce3d d907 213e
000002c0: ce10 b1be 7127 b43d 68ce 903e 7a0b 93be
000002d0: 24f7 e0bc 2e98 9ebd c33d a43e d119 5f3e
000002e0: ac33 c3bd 326b 713e e3c0 813e 1d90 4abe
000002f0: 64e5 42be a73c 083e a793 073e e817 aebe
00000300: d898 e2bd 14ac 173d b169 8cbe 0f09 813e
00000310: 58dc 82be 93d0 9b3e e913 46bd 2c81 59be
00000320: c9ed 21be 8f1f 793e f71f 87be ecd0 8bbd
00000330: 9619 773d 291a 803e 4f74 8e3c a841 9f3e
00000340: 031c 9c3e 0c39 80be d5a0 103d 25eb cb3d
00000350: 0fca 273e 5d68 16be 472d e5bd 1270 b33d
00000360: 9a0a 48be 0463 3c3d 5f25 3cbe 9b41 a8bd
00000370: 1cc0 8cbd 39de 213d 7559 693d 8711 c03d
00000380: e624 743e e057 dd3d 7e0c 97be 39b9 3bbe
00000390: c99c 8ebd 7d72 073e d70e 2c3e c822 173d
000003a0: 1534 a0be 567e 45be 6c4b 9e3d 9b88 893e
000003b0: 6c77 4abe 6e79 28be 9936 97be ec3e c43d
000003c0: 2158 5b3e 41d3 49be 6437 42be 5811 cabd
000003d0: b8f6 103e 507f 353d 4100 01be 55b5 9abe
000003e0: b3a2 623e ac66 f9bd 7a07 09be 2d0d 903e
000003f0: 6844 d43d 8207 423d f317 8e3c b6bd 9b3d
-0.23152268 -0.10545882 -0.2408282 0.23303714 -0.3029126 0.2835537 0.04117217 -0.12975812
-0.11703253 0.15497336 0.0921265 -0.18081877 0.021418896 -0.17338698 0.06985408 0.2333371
0.2777618 -0.0030202968 0.052804776 0.28476775 0.26996788 -0.07005202 0.010574998 0.1183676
0.15099524 0.009580259 0.05408364 0.17721064 -0.1302155 -0.017534167 -0.27379045 -0.28248432
0.24560945 0.14764337 -0.12816523 -0.065385684 0.15091513 -0.10977906 0.11170089 -0.09344216
-0.10504201 -0.14002512 -0.2044176 0.11377433 0.078038976 -0.100724444 -0.08609416 -0.07234994
-0.14141656 0.041315395 0.16940473 -0.092189714 -0.030950082 0.1582811 -0.031780355 -0.24854845
0.30205992 -0.14849538 -0.2658916 -0.0020688248 0.22336504 -0.098636985 -0.12461686 -0.14367168
-0.0650086 0.18408422 0.27281323 0.04534677 0.04170431 -0.10447429 -0.15425494 0.017228324
-0.06969331 -0.12682118 -0.010351869 0.31461048 0.050359648 0.07515747 -0.08493575 -0.28400752
-0.18644033 0.25320676 -0.1486479 -0.26142088 -0.24381849 0.0010376637 0.17793621 -0.33170584
-0.1617388 -0.21806936 0.06542297 0.1296522 -0.086813554 0.117005795 -0.021407286 0.17154083
-0.32105282 -0.24217735 -0.073538125 -0.063924514 -0.097034685 0.16597441 -0.08267344 0.2688189
-0.074558064 0.054397188 -0.15996344 -0.012894957 -0.017189153 0.14323351 0.2662481 0.08715812
0.05065601 0.20489576 0.27665308 0.15181448 -0.30591655 -0.13041468 0.25576073 0.19744368
0.13580017 0.19048858 0.13350627 -0.33752614 0.2088233 0.0740065 0.26727736 -0.1538094
0.0345802 0.30259994 -0.11306197 -0.2676977 0.09346657 -0.32254905 0.24370392 0.124946184
0.012362306 -0.091151826 -0.14137033 0.327419 -0.19713433 0.29436535 -0.13029164 -0.05957823
-0.034724608 0.1079425 0.06711922 -0.12333106 0.017299296 -0.31664792 0.14198571 0.020510986
0.06305474 -0.10402407 0.15129925 -0.07771218 0.04434854 0.10055065 -0.1167995 -0.1990009
-0.11274367 0.15574628 0.16896936 0.0582102 0.15673587 0.18670297 0.23509505 0.29129982
-0.01742739 -0.10486441 0.14236693 -0.31279105 -0.08597108 0.04686296 0.100806914 0.1572565
-0.34583133 0.08796585 0.28282475 -0.28719693 -0.027461596 -0.0774387 0.3207837 0.21787192
-0.0953134 0.23576048 0.25342473 -0.19781537 -0.19032818 0.13304387 0.13239919 -0.34002614
-0.11064309 0.03702934 -0.27424386 0.25202224 -0.25558734 0.30432567 -0.04835883 -0.21240681
-0.15813364 0.24328445 -0.26391575 -0.06826958 0.060327135 0.2501996 0.017389445 0.3110478
0.3049012 -0.25043523 0.03530963 0.0995696 0.16385673 -0.14688249 -0.111902766 0.0876161
-0.19535294 0.045992866 -0.18373631 -0.08215638 -0.068725795 0.03951857 0.05697008 0.09378343
0.238422 0.108077765 -0.29501718 -0.18332376 -0.06963498 0.13227268 0.16802536 0.036898404
-0.31289735 -0.19286475 0.07729229 0.26862034 -0.19772118 -0.16452572 -0.29533842 0.09582314
0.21420337 -0.19709493 -0.18966442 -0.09866589 0.14156616 0.044310868 -0.12597753 -0.3021647
0.22132377 -0.12177786 -0.13381758 0.28135052 0.1036461 0.04737044 0.017345404 0.07604544

discriminator.fc1.weight f4 [4, 32]
00000000: 8fe8 5f3d 45e8 a7bd f41a 68bd 648e 9939
00000010: c16e cd3d 9973 56be 49cb 32be c7f8 843a
00000020: 8752 a43d 8ef9 bf3d 1692 e3bb f3a0 8b3d
00000030: b0f8 42be be6d 023e 81ac f6bd 0ece ca3d
00000040: 72a8 11be b902 1f3e e1e2 41be 9013 c13d
00000050: d21b 63bd 5a3c 07be 5f99 1dbe 9a9e 87bd
00000060: f10f 243e 90b3 a33c a046 f73d 9832 293e
00000070: d86d 653d c3e3 443e 15a3 373e 822a 2cbe
00000080: 4585 f03e 491f ebbe ef7d 0dbf 7495 443e
00000090: 3ef3 ea3e b7c0 23bf def2 15bf 7a44 c93e
000000a0: 75b1 be3e 73cc fe3e 37ee 443c cba9 33bd
000000b0: 4398 45bf 24ce e33e e092 e1be f204 1c3f
000000c0: e082 06bf c110 ed3e 9fd1 1cbf 99d9 e93d
000000d0: 353f 74be 60d0 20bf 7fc2 0ebf 9fc5 edbe
000000e0: 3f4e 0e3f d4ea ca3e 0818 b03e ece4 153f
000000f0: 49e0 d03e 8c67 383f 26cb fd3e 5b9b e4be
00000100: 1b21 03bc 409c 3cbd 7de7 033d d954 32bd
00000110: 7ce6 553d 5ad6 3cbe dfcd 1bbe 9cb8 8cbd
00000120: 3e57 323d e250 4d3d c7a4 15bd e2ce 8e3d
00000130: 1fcf 85bd f094 803d 487b d7bd cd81 d53c
00000140: f21b 88bd b233 0f3e ba60 b7bd 2979 253e
00000150: 97b6 50bd 918b bebc 2f7e fcbd 6e0b 68bc
00000160: bd76 023e 4956 82bd 1d4a dc3d 51c3 f83d
00000170: 1cb7 73bb 18db 903d ec32 f93d 0f79 1cbe
00000180: 28ab 713c 2a3d 8dbd 957e d33b 95ee 56bd
00000190: 7301 cd3d dbad 89be 964b 53be 33fe 8dbd
000001a0: aeec aa3d 3dc4 793d 13e7 2dbd b801 a63d
000001b0: 27a1 09be 9049 e23d bc0a 1dbe 6c45 8c3d
000001c0: ef4f d5bd a6a2 403e 340d 11be 661c 4b3e
000001d0: f1b0 09bd 28a0 93bd bed5 28be 6eb5 43bd
000001e0: 40b4 533e 7a92 96bd b9ad 0d3e 8169 2c3e
000001f0: 26de 863b a7a3 ff3d 6945 463e c522 48be
0.054665145 -0.08198599 -0.05666633 0.00029288523 0.1003089 -0.20942535 -0.1746036 0.0010144942
0.08023553 0.09373771 -0.006944905 0.06817808 -0.19040179 0.12737176 -0.12044621 0.09902583
-0.14224413 0.15528382 -0.18934204 0.094275594 -0.055446453 -0.13206616 -0.15390538 -0.06622048
0.16021706 0.019983083 0.120740175 0.16523206 0.05601296 0.19227509 0.17933305 -0.1681309
0.46976677 -0.45922306 -0.55270284 0.19197637 0.45888704 -0.63965935 -0.5857371 0.39310056
0.37244764 0.49765357 0.0120196855 -0.0438631 -0.7718546 0.4449321 -0.4405737 0.60945046
-0.5254345 0.46301845 -0.61257356 0.114184566 -0.23852237 -0.62817955 -0.5576553 -0.46439835
0.55588144 0.39632285 0.34393334 0.5855243 0.40796116 0.72033 0.49569052 -0.44649777
-0.008003498 -0.04604745 0.032203186 -0.04353795 0.05222176 -0.18441144 -0.15215252 -0.06871149
0.043540232 0.050125964 -0.036534097 0.069730535 -0.06533646 0.062784076 -0.10521561 0.02606287
-0.06645955 0.13984564 -0.08953996 0.161595 -0.05095538 -0.02325991 -0.12328755 -0.014162881
0.12740608 -0.06364114 0.107563235 0.12146629 -0.0037188 0.07073039 0.12167916 -0.15280555
0.0147502795 -0.06896432 0.0064542987 -0.052473623 0.10010042 -0.26890454 -0.20634302 -0.0693325
0.08345924 0.060978163 -0.042456698 0.081057966 -0.13440381 0.11049187 -0.15336126 0.06849179
-0.10415637 0.18812045 -0.14165193 0.19835052 -0.03361601 -0.07208282 -0.16487786 -0.047780447
0.20674229 -0.07352157 0.13835801 0.16837122 0.0041158376 0.12482386 0.19362415 -0.19544514

discriminator.fc1.bias f4 [4]
00000000: bb68 c03e 62a5 6fbe 5e56 a63e 5f79 d73e
0.37579903 -0.23402932 0.32487768 0.42084786

discriminator.fc2.weight f4 [2, 4]
00000000: 3a22 1c3f 2a6a cebe c4e3 b43e 40d1 cf3e
00000010: 802d 803d 7aea 2d3f 65c6 01bf 6454 45be
0.60989726 -0.40315372 0.3533002 0.40589333 0.062586784 0.6793591 -0.5069335 -0.19270474

discriminator.fc2.bias f4 [2]
00000000: a280 f53d a950 e53d
0.119874254 0.11197025

discriminator.fc3.weight f4 [1, 2]
00000000: 6a57 32bf 5305 fa3e
-0.69664633 0.48832187
