src/algorithms/deep/pretrained/arga_cora.pt (torch, 284500 bytes, 9 tensors)

encoder.conv1.bias f4 [48]
00000000: c727 0f3d af22 043c 82df 753c 510a 3a3c
00000010: 4ac4 9d3c ffe1 b73c b836 a73c 0bc7 fa3c
00000020: 0805 e53c 8859 fe3c cf72 d23c 0f90 243c
00000030: 9b20 113d a89a eb3c b3f2 f03c d9eb fb3c
00000040: a5b4 903c 2497 ba3c f171 953c 719f 403c
00000050: 3a39 053d 19bd f43c 9800 b93c 3430 ed3c
00000060: 90f7 303d 590d 363c 16b8 bf3c 1957 eb3c
00000070: a75c 913c 6f77 a63c 9295 e73c 3a89 033d
00000080: aa79 993c 33f9 bb3c 330d 1e3c 6000 dd3c
00000090: 0cc6 0a3d fb1d 1a3d 12aa ee3c 7538 103d
000000a0: 0073 023d 7bfe 1d3d 0e03 bb3c 29e3 a53c
000000b0: 4bbe 163d 40d0 c63c b667 b03c 5ac5 053d
0.034950044 0.00806491 0.015006902 0.011354999 0.019258637 0.02244663 0.020411834 0.03061249
0.0279565 0.031048551 0.02568951 0.010044112 0.035431486 0.02876027 0.029412603 0.03075211
0.017664263 0.022777148 0.018242808 0.011756764 0.03252528 0.029875325 0.022583291 0.02895365
0.043204844 0.011111581 0.023403209 0.028728055 0.017744375 0.020320622 0.028269563 0.03211329
0.018734772 0.022945976 0.009646702 0.026977718 0.03388028 0.037626248 0.02913383 0.03521009
0.031847954 0.03857277 0.022828605 0.02024992 0.03680257 0.024269223 0.021533828 0.032658912

encoder.conv1.lin.weight f4 [48, 1433]
00000000: 1e59 233d 3b2c ff3a bb31 653d 5e67 00bc
00000010: 6b67 b63d 2654 3fbd fc00 3d3d 2a08 a83c
00000020: fb24 26bd 6552 bf3b b561 813b b374 1b3d
00000030: 2c1e 81bd af62 4bbd a96d 53bb 0c98 a53d
00000040: 8349 84bd abd7 f23c 62f8 46bd e434 8f3d
00000050: d34b 42bd 71d8 ff3c 9334 f9bc 3948 7bbd
00000060: 69c7 693d 1903 98bd 4f98 ea3c c1e1 f1bc
00000070: 2874 8e3d d6c0 f03c c625 49bd b419 013d
00000080: b9b4 afbd 5c4c 0ebd 78e2 703d 9224 213c
00000090: 4366 683c cec5 dbbb a5a5 a13d 0eb0 6b3d
000000a0: 9996 f53c 54cb 79bc 34cd 943d 9c09 fcb9
000000b0: 9e74 98bb 5e56 b1bc a48d e33d 2a12 ffbc
000000c0: 6c9d 363d e10b 933d 61e2 903c ecd6 26bd
000000d0: 4c1e 99bc 414d 133d 8c4c febc 424f 78bc
000000e0: 9c69 e43b 8232 183c 5bbd d73c 086c 21bc
000000f0: 2291 83bc 8e94 7b3b b93a a93c 0240 c83c
00000100: db1d 4dbd 349f 803d 3e05 743c f680 56bd
00000110: 719a 16bc db20 e23c 20a2 243d b24d b53d
00000120: 8153 903c 250e 383c 1a0a b7bc a5b3 293a
00000130: f35b 84bd cc3c 81bc 71aa c03c 8875 323d
00000140: 98a4 1a3d 9f61 8abd d203 9c3d e934 31bd
00000150: 0ca9 5b3d 0bf3 38bc b0d4 403d ac72 043d
00000160: bf69 933d 896e 4c3d 6a29 483c 5ac0 01bd
00000170: cc4b 693b 417d 983d 5437 47ba 7270 4fbd
00000180: 9a42 ccbb 3b8b febc bd76 9cbc 3ab2 16bd
00000190: fb6b afbd bcd1 0c3d 98ce 66bd 6a84 86bd
000001a0: fb2a d6bb 2095 11bd 9784 313d df8b 22bd
000001b0: 317a 0abd 2eec aa3d b6f1 9fbd 10f3 803d
000001c0: f1b7 edbc 31d3 cc3c 8988 5a3d 4c14 fcbb
000001d0: dd74 973d 442f e6bc 878c 9a3d 8b0f eb3b
000001e0: 3dbc 2bbc b0fe 303c feff a83d 58cf a9bc
000001f0: 3969 393d 2374 8b3c 523c 333d 434b b3bd
00000200: 96c8 57bc 113c 783c 3f58 34bd f146 a0bd
00000210: 352a 213d cae2 68bd d674 b03d 2cad 33bd
00000220: 9c08 40bc 4f3d 503d db13 afbc ed95 2fbd
00000230: 7aba 503c abcc dd3c 4041 5ebd 64b9 063c
00000240: a6a2 203c 2622 b6bc d86a 0abd dc0c a63d
00000250: 9ff0 7bbd a965 b6bd 4426 14bd 0cf4 823d
00000260: b2f1 82bc 3da2 3ebc dcaf b83d 737f b1bc
00000270: cfa9 cdbd 9022 1fbd 9ec8 833d 5579 b53c
00000280: b54e 963c ac3c 2c3d bfd5 863c c299 a8bd
00000290: ea29 00bd ca30 9c3d cda4 b8bd 161c 3e3d
000002a0: 2127 e4bc 8bb3 383d 2868 7f3d 2b91 d63d
000002b0: 134c bcbd 3a3e 853b a02b 5c3d 92e8 bc3d
000002c0: 0826 e53c fce5 cf3a ba52 4abd 6cea 8e3d
000002d0: 868a 0a3d 0e1c ff3c 77c9 e13c 1c28 51bd
000002e0: ed41 9f3c fd03 f8bc c6ea bc3d eb97 3c3d
000002f0: b6e9 c7bc 1415 45bd 2af8 903b da9b 66bb
00000300: f765 f0bc 4640 8f3d 4955 11bd 6a92 273d
00000310: c316 973d 3158 103d 52f4 d5bd ea69 a3bd
00000320: d73f d33c b90e 7e3a 2dcc ce3c 16e0 bfbc
00000330: 3002 063d 03f5 7fbd 7144 a43d 5241 f13c
00000340: f727 d83b e55b c2bd 746b 41bb 341f afbc
00000350: befe a4bd 79c2 b3bb fcc2 553d fb3e 64ba
00000360: 7370 24bc 3e0a 26bd e3f6 d7bb 7616 1ebc
00000370: 35be 8dbc 1584 67bc b185 843b 399c 84bc
00000380: 8e75 20bb 7aeb 2a3d 6def 193d ff9a 293d
00000390: 37f5 45bd 1ead 3dbd 685a b93c 4d7b ed3c
000003a0: 75c9 6d3d 4432 ca3d 3a46 c93d 1841 a83c
000003b0: 1955 66bb 2da8 a23c 74d7 72bd 43f4 dd3d
000003c0: 652c 8b3d a9df b33c 92f5 823d aff5 cf3c
000003d0: 6566 3abd 8437 64bc 9072 91bd d80e 893d
000003e0: 16eb 453a 66ef f03a 8b1b a83c faea 803d
000003f0: 844e 6bbd 3ac8 a3bb 9bd5 cb3d e698 623c
0.03987991 0.0019468138 0.05595563 -0.007837145 0.08906444 -0.04671111 0.046143517 0.020511705
-0.04056261 0.0058386796 0.003948415 0.03795309 -0.06304583 -0.04965466 -0.0032261407 0.08085641
-0.06459334 0.029643854 -0.04857672 0.0699251 -0.047435593 0.031231137 -0.030420577 -0.061348174
0.057074938 -0.07422466 0.02863708 -0.029526593 0.06955749 0.029388826 -0.04910829 0.031518653
-0.08579392 -0.03474079 0.058809727 0.009835379 0.014184537 -0.0067069298 0.07892922 0.057540946
0.029979037 -0.015246231 0.07265702 -0.00048072345 -0.0046525737 -0.021647628 0.11111 -0.031136591
0.044583723 0.0718 0.01768607 -0.04073231 -0.018691204 0.035962347 -0.03104236 -0.015155615
0.0069705974 0.009289386 0.026335409 -0.009852417 -0.016060416 0.0038388106 0.020657884 0.024444584
-0.0500773 0.062803656 0.014893828 -0.05236908 -0.009192095 0.027603557 0.040193677 0.0885271
0.017617943 0.011233841 -0.022343684 0.00064736075 -0.064628504 -0.01577606 0.023518773 0.043569118
0.037754625 -0.06756901 0.07617916 -0.04326335 0.053628013 -0.011288415 0.047077835 0.032335922
0.07197904 0.049910102 0.012216905 -0.03167758 0.0035598157 0.07445765 -0.0007599492 -0.050644346
-0.0062335255 -0.03107225 -0.019099588 -0.036791064 -0.085655175 0.034379706 -0.056349367 -0.06568225
-0.0065358854 -0.035542607 0.04333934 -0.039684173 -0.033807937 0.08345829 -0.078097746 0.062963605
-0.029018374 0.025003048 0.053352866 -0.0076928493 0.07395337 -0.02809871 0.07546335 0.0071734837
-0.010481891 0.01080291 0.08251952 -0.020728752 0.045266364 0.017023152 0.043758698 -0.087545894
-0.013170382 0.01515104 -0.04402947 -0.07826031 0.039346892 -0.056856908 0.08616035 -0.04386632
-0.011720803 0.05083972 -0.021371773 -0.04286759 0.012739772 0.027075132 -0.054261446 0.0082229115
0.009804403 -0.02223308 -0.0337933 0.081079215 -0.06150877 -0.08906109 -0.036169305 0.063942045
-0.01598439 -0.01163536 0.090179175 -0.021667218 -0.10042154 -0.03885132 0.06434749 0.022152582
0.018348077 0.04205005 0.016459344 -0.08232452 -0.031289972 0.07626493 -0.09015808 0.046413504
-0.02785069 0.0450931 0.06235519 0.10476907 -0.091941975 0.004066256 0.05375254 0.09224047
0.027972236 0.0015861387 -0.0493953 0.06978306 0.033823512 0.031141307 0.027561886 -0.051063642
0.019440616 -0.03027534 0.09224467 0.046043318 -0.024403434 -0.048115805 0.0044241147 -0.003518811
-0.029345496 0.06994681 -0.035481725 0.040911116 0.07377388 0.035240356 -0.10446991 -0.07979186
0.025787277 0.0009691525 0.025243843 -0.023422282 0.03271693 -0.06248952 0.08020867 0.029450092
0.006596561 -0.09490184 -0.002951351 -0.021377183 -0.08056401 -0.0054858294 0.052187905 -0.00087068946
-0.010036576 -0.04053711 -0.0065907105 -0.00964891 -0.017302612 -0.014130612 0.0040442576 -0.016187774
-0.002448413 0.041728474 0.03758185 0.04140758 -0.04832956 -0.046307676 0.022626117 0.028989458
0.058053453 0.09872869 0.09827848 0.020538852 -0.0035145937 0.019855583 -0.059287503 0.10837605
0.06795577 0.021957235 0.06394495 0.025385706 -0.045507807 -0.013929252 -0.07101929 0.06692284
0.0007549984 0.0018381893 0.020520946 0.06294818 -0.057447925 -0.004998234 0.099528514 0.013830399

encoder.conv2.bias f4 [24]
00000000: 9481 c1bc 941b c3bc 56e2 433c f63c acbc
00000010: 9869 9d3c 8617 8dbc b908 26bd 571e d7bc
00000020: aec6 acbc 3767 a53c da4b e9bc 88f1 ee3c
00000030: 6a7c babb b7f5 21bc 1615 973c 9f23 6bbc
00000040: d07c db3c 9b81 203c 36fd 7e3c fb6c 9f3c
00000050: db8c 803c b1c5 b5bc 56a0 aabc 5e7d b3bb
-0.023621358 -0.023816861 0.011955818 -0.021025162 0.01921539 -0.01722313 -0.040535662 -0.026259584
-0.021090832 0.020190818 -0.028478552 0.029167905 -0.005691101 -0.009885243 0.018442672 -0.014351754
0.026792914 0.009796525 0.0155633 0.019461146 0.015692165 -0.022188993 -0.020828407 -0.0054775914

encoder.conv2.lin.weight f4 [24, 48]
00000000: 35f1 aa3d a8b0 ee3d 1e34 01be 7090 dd3d
00000010: 80f8 2fbd 3e5c 043e c203 adbd 447f 23be
00000020: 4563 96be 2612 a1bc 7724 92be 9a7e 283e
00000030: 954b f6bd e5bb 38be 6efd 92be c05d 1d3d
00000040: e6d3 823e 6ca0 8f3e 01f2 863e c0a5 893d
00000050: 1731 063e 7e58 6cbe a3c9 9c3e cd32 47bc
00000060: 7c9e b5bd 9f2a b93d c974 8c3e 5f70 113e
00000070: bcb6 6a3e 5ad3 b93d fe2d a6be 5efb 623e
00000080: 558f 9a3e 08b1 893e ad44 70be bbb4 f33d
00000090: 4ae4 ccbd 0c00 3a3e 61da 653e 98fe 86be
000000a0: d2d9 923e 9340 193e d2f5 7ebe 7b9a b83d
000000b0: c6af a0be 1332 a2be 5681 053e b492 28bc
000000c0: 6aea cd3c 6ca1 76be 9841 363d e09a 3dbe
000000d0: 3215 6d3e 8419 543d b8c4 cbbd e162 293d
000000e0: 0b14 97be 2dab 7f3d 158d 153e 0727 37be
000000f0: 02ab 38bd d2e0 923e 7f99 65bc 9b28 193e
00000100: e872 12bd 7855 ae3e c9c8 8a3e 3882 f2bd
00000110: d39f 77be 85f9 39be 61e4 893e f909 7e3e
00000120: e96d 8e3e dcdc 6ebe 4014 b53d 82a0 1c3e
00000130: d6bd 2a3d 4c4b 7fbe b553 8b3e 82fe f6bd
00000140: 2dd5 883e 990d acbd 2ed0 7abd 77e5 c4bd
00000150: bf80 1abe e180 213e bfff 46be 32c3 cabc
00000160: a4a2 66bc 9286 cb3c fbff 63be 4c25 3dbe
00000170: dee1 92be adc9 923e 10ab c7bd 435e b43d
00000180: 3b40 8d3e 71be c63c e546 2d3e 1841 a5be
00000190: e526 8a3e b211 4c3e 44cc 3c3e 8591 f73d
000001a0: 202f 87be 7b98 ae3e 9296 ea3d 19ff 063d
000001b0: b7fd cabd 57e8 ab3e c58c 1cbe 72c2 36be
000001c0: e72d 94be 37c4 9f3e 0b26 8fbe 33b9 273c
000001d0: fb88 1f3e a305 ee3d 4f33 893e b9ac b63b
000001e0: b1b3 083d be5b e0bd 397e 643e 54ee 44be
000001f0: 93d4 8ebe 3ba6 d5bd 9289 4abe 97d5 31be
00000200: 3be1 d7bd 55e5 07be 5926 6c3e ee3e 753c
00000210: dde1 64be 10ee 9d3e 525d b9bc fc87 f6bd
00000220: 269a 92be 0893 97be eb2b 00be 4da7 33be
00000230: 2d7a 4ebd 4324 553e d81b 173e 547a e63c
00000240: 0add 4fbe 29ac 80be b1b4 1e3d 0127 ffbd
00000250: ef37 94be a73c 813e 9780 98be 6158 773d
00000260: ea2b f43c 3581 1b3d 9163 913e 1bdc 173e
00000270: 014a 973d f307 f93d 730b 84bd 4433 863e
00000280: ea4d 1b3e 0f1c 783e 7912 37be 7dfb 8d3e
00000290: 5328 91bd 209c 85be 9496 6c3e d5ed 9fbe
000002a0: 5f7b 37bd 4c32 893d f697 90bd daa9 423e
000002b0: a18e b23d 825b 693e 7dad 763d e612 843d
000002c0: 4355 11be ee0e 2dbe 37fa c33d d7d1 7d3d
000002d0: 9658 7c3e eb21 6bbe 08e7 863e 5186 053e
000002e0: f7dc 95be 0cfc 5abd ed47 fe3d fc24 653d
000002f0: bb7f 41be e93d 9ebe 9e42 6e3e d791 2fbe
00000300: 9b02 853e 4b9e 8fbd 432d 423e 291a 90be
00000310: f6bd 8f3e 9e3a f0ba 3d0a fabc be8f 3c3e
00000320: 40e6 a93d 0c2d 233d 1398 9b3c 1cb2 76be
00000330: 7fd2 933e 759b ecbd 402f 52be 9067 65be
00000340: f9f5 223e 9b19 a03e b510 733a b9ca 2bbe
00000350: b71f 9cbe 2c0b 0fbe 8515 a63e 2232 85be
00000360: dc2b 283e 567e babd 7f30 613b 36d5 d63d
00000370: 23e2 90be 73b9 6a3e e1c1 963e d442 8fbe
00000380: 2a52 b93d 9070 913e 359f 67be e0fa 31be
00000390: 5e6c 9ebc f8fe 4a3e d4ac c1bd 1fec ffba
000003a0: 11da 60be 9bd6 643e 7f7a 5f3e b87f 7fbe
000003b0: 5923 1bbe da75 16be 4839 6dbe 9042 603e
000003c0: ed98 e93d 49f6 27be d8dc 893e a299 2f3e
000003d0: 73bd edbd 4671 173e f287 89bd caf9 903e
000003e0: 0be1 4dbe 154a 403d 8de1 a4bc a02e 9c3e
000003f0: 4572 0ebe 9c43 b4bd 8590 43be fb24 a6be
0.08346788 0.11654788 -0.12617537 0.10818565 -0.042961597 0.12925813 -0.08447982 -0.15966517
-0.29372612 -0.019661974 -0.28543445 0.16454545 -0.12026135 -0.18040426 -0.28708977 0.038419485
0.2555229 0.2805208 0.2635651 0.067210674 0.13104664 -0.23080632 0.30622587 -0.012158108
-0.08868119 0.090413325 0.2743285 0.14203022 0.2292127 0.09073515 -0.32456964 0.22166201
0.3018748 0.26892877 -0.23463698 0.11899706 -0.1000448 0.1816408 0.22446586 -0.26366115
0.2868181 0.1496604 -0.2489846 0.0901384 -0.31384104 -0.3167883 0.13037619 -0.010288883
0.025136191 -0.24085015 0.04449615 -0.18516111 0.23152617 0.051782146 -0.099496305 0.041354064
-0.2950748 0.062419105 0.146046 -0.17885982 -0.04508496 0.2868715 -0.014013647 0.14956896
-0.035754114 0.34049582 0.27106312 -0.118412435 -0.24182062 -0.1816159 0.26932052 0.24808492
0.2781823 -0.23326439 0.08841753 0.15295604 0.041684948 -0.24931067 0.272123 -0.12060262
0.2672514 -0.08401031 -0.061233692 -0.096140794 -0.15088175 0.1577182 -0.19433497 -0.02475128
-0.0140768625 0.024844442 -0.22265618 -0.18471259 -0.28687948 0.2866949 -0.097494245 0.088070415
0.27588066 0.024260731 0.16921575 -0.32276225 0.269828 0.19928625 0.18437296 0.120883025
-0.2640314 0.34100708 0.114545 0.032958124 -0.099116735 0.335757 -0.15288074 -0.17847613
-0.2894127 0.31204388 -0.27958712 0.010237026 0.15579598 0.11622169 0.26796958 0.0055747894
0.033374492 -0.109549984 0.22313775 -0.1923154 -0.27896556 -0.104320966 -0.19779041 -0.17366634
-0.10541006 -0.13271077 0.23061503 0.014968617 -0.22351785 0.3084569 -0.022627506 -0.12037656
-0.2863323 -0.29604363 -0.12516753 -0.17544289 -0.050409485 0.20814614 0.14756715 0.028134502
-0.20299163 -0.25131348 0.03874654 -0.12458611 -0.28948924 0.25241587 -0.29785606 0.06038702
0.029806096 0.03796502 0.28396276 0.14830057 0.07387162 0.12159719 -0.06447496 0.26210988
0.1516644 0.24229454 -0.1787814 0.27730933 -0.07087769 -0.26095676 0.23104316 -0.3123614
-0.04479539 0.066990465 -0.07060234 0.19010106 0.087186106 0.22788814 0.060224045 0.06448917
-0.14192681 -0.16900226 0.09569209 0.061967697 0.24643168 -0.22962157 0.26348138 0.13039519
-0.29270145 -0.053463027 0.124160625 0.055943474 -0.18896382 -0.3090661 0.232676 -0.17145477
0.2597855 -0.07012614 0.18962578 -0.2814496 0.28074616 -0.0018328016 -0.03052246 0.18414208
0.0829587 0.039837882 0.018993413 -0.24091381 0.28871533 -0.115530886 -0.20525837 -0.22402787
0.15914144 0.31269535 0.0009272204 -0.16776551 -0.30492947 -0.13969105 0.32438293 -0.2601481
0.16422981 -0.09106128 0.0034361181 0.104898855 -0.2829753 0.22922306 0.29444793 -0.27980673
0.09048875 0.2840619 -0.22619326 -0.17380857 -0.019338783 0.19823825 -0.094567925 -0.0019525326
-0.21958186 0.2234749 0.21824072 -0.24951065 -0.15150203 -0.14693394 -0.23166382 0.21900392
0.114061214 -0.16402544 0.26926303 0.1714845 -0.116084 0.14789304 -0.06715383 0.28315574
-0.20105378 0.04694565 -0.020127082 0.30504322 -0.13910778 -0.08801958 -0.19098099 -0.3245009

discriminator.fc1.weight f4 [4, 24]
00000000: 5cd9 cf3e b235 113f c3ec cfbe 0387 cebe
00000010: 815f 24be d81c c53e d80a 163f b623 77bd
00000020: c048 10bf 2dee 443d 3891 df3e cb1c d8be
00000030: 7ff9 e53e 009c d53b d3a5 39bf 6e3f 063f
00000040: 221f ca3e 76f5 efbb 9731 04bf 61d0 13bf
00000050: 992d 2dbf 41f2 063d c58f 26bf 743a 0cbf
00000060: 9fb9 223f 9582 243f de5c 313f 2a76 bc3e
00000070: 0f62 3ebf ccd3 b63e 2155 25bf e7a8 453e
00000080: 29d1 a5be 5170 7cbe 21c7 f23e 24c7 2d3e
00000090: c1de d23e 42b2 283f 5697 9b3e d5a1 16bf
000000a0: 0a5b 213f 66f7 4f3e 1f74 bcbe feb8 e9be
000000b0: c823 04bf d423 273c 47e4 b03e 8a0b 383e
000000c0: f7b7 c4be d95e d1be 5add 15be c93a 09bf
000000d0: b0a7 00bd df63 813e c4dd 963e 7492 033f
000000e0: 648c 57be 1491 13bf 634e db3e c857 043f
000000f0: 9da6 f03e a272 723e 5a72 a43e 0686 023e
00000100: aec1 0cbf 02f7 a83e 87cc 1f3f 8108 8b3e
00000110: 3e6f e53e c773 c1be fdcf 043e 2069 8bbe
00000120: 2671 9abe 7984 07bf 4162 0f3f e03b 063f
00000130: 0c1c 923e 0141 07bf dcaa cdbe 2989 f0be
00000140: b82c 273f dafc eabe faff 1cbf 8ea7 543e
00000150: 4df1 15bf 398e 07bf 6f6e 143f 25a1 9dbe
00000160: 936a bebe 01df efbe 67c5 c73e 7f03 163f
00000170: f331 d93d 743b 88be 7eb1 e13e bfe1 d03d
0.4059552 0.5672256 -0.40610322 -0.4033738 -0.16052057 0.3849857 0.58610296 -0.06033679
-0.5636101 0.048078705 0.4366548 -0.42209467 0.44916913 0.006518841 -0.7251865 0.52440536
0.39476877 -0.0073229624 -0.5163817 -0.57739836 -0.676477 0.032945875 -0.65063125 -0.5477669
0.63564485 0.6426175 0.6928233 0.36808902 -0.74368376 0.35708463 -0.6458302 0.19302712
-0.3238614 -0.2465222 0.47417548 0.16970497 0.41185573 0.65897 0.30388898 -0.58840686
0.6302954 0.20309219 -0.36807343 -0.4564895 -0.516171 0.010201413 0.34549162 0.17973152
-0.38421604 -0.40892676 -0.1463522 -0.53605324 -0.03140992 0.25271508 0.2946607 0.51395345
-0.21049649 -0.57643247 0.42833242 0.51696444 0.47002116 0.23676541 0.32118493 0.12746438
-0.5498303 0.33000952 0.6242146 0.27154925 0.44811434 -0.37783644 0.12969966 -0.27228642
-0.3016445 -0.5293651 0.560093 0.5243511 0.28537023 -0.52833563 -0.40169418 -0.46979645
0.6530261 -0.45896035 -0.6132809 0.20767042 -0.5857132 -0.5295139 0.5798101 -0.30787006
-0.37190685 -0.46849826 0.39017794 0.58599085 0.1060523 -0.2660786 0.44080728 0.10199308

discriminator.fc1.bias f4 [4]
00000000: cda8 64be 589f 3bbe b237 1ebe daa4 9abc
-0.22330017 -0.18322504 -0.15450934 -0.018877435

discriminator.fc2.weight f4 [2, 4]
00000000: 986c 3d3f 8c3a 233f 1723 573f 31ac 003f
00000010: d3f9 1b3e c2f6 05bf 7684 10bf 510f ba3d
0.73993826 0.6376121 0.8403792 0.50262743 0.15232019 -0.5232965 -0.5645212 0.090849526

discriminator.fc2.bias f4 [2]
00000000: 3a01 75be 17e4 16bf
-0.23926249 -0.5894179

discriminator.fc3.weight f4 [1, 2]
00000000: dae7 673f f424 89be
0.9058815 -0.26786005
