src/algorithms/deep/pretrained/arga_dblp.pt (torch, 98708 bytes, 9 tensors)

encoder.conv1.bias f4 [64]
00000000: d51a 86bc b61a e53c f8db ad3c ac03 b73c
00000010: b1e3 afbb a901 043d 0fcb cabc 8090 44ba
00000020: a6e6 003d 730c b43c 4f3f 8c3b 2bc0 c23c
00000030: 0b0e 80bc ef74 083c 6d85 e93c 9a40 4d3c
00000040: a57b febb dade 24ba 9f12 0d3d 2d8f c9bc
00000050: 3747 263d 220e c4bc fadb 093c 3c9b ecbb
00000060: 9a98 8b3a 10d3 f63c c9b4 c4bc 691c 58bb
00000070: 3772 293d 206f 093d 3f30 a43c 417e b2bc
00000080: 753d 1fbb b36a 003d d4e6 73bb 8114 ccbc
00000090: 6267 27ba c696 c7bc 2383 cf3c 05e3 25bc
000000a0: 163d 6dbc e50d f73c 0fd5 2dbc 892a 9fbc
000000b0: c170 833c 6b4b b2bc 39da 2cbc 749f 99bc
000000c0: 410b 80bb abdb 393b 9ee3 153d 2a28 c4bc
000000d0: b33a eb3c b796 1cbb 7f54 95bc 9996 d33c
000000e0: f68f 0c3d a98c 21bc 7a64 083c f7ca dc3c
000000f0: 8a0a 143d 370f 303c 0b2a 0a3d 04c6 acbc
-0.016370216 0.027966838 0.021223053 0.022340618 -0.005367719 0.032228146 -0.024755029 -0.0007498339
0.031469963 0.021978593 0.004280008 0.023773273 -0.015631696 0.00832866 0.028506005 0.012527609
-0.0077662044 -0.0006289311 0.034441587 -0.024604404 0.04059526 -0.02393252 0.008414263 -0.007220654
0.0010650337 0.03012994 -0.024011986 -0.0032975918 0.04136869 0.033553243 0.020042537 -0.021788718
-0.0024298106 0.031351756 -0.0037216442 -0.02491212 -0.00063859497 -0.024363887 0.025331086 -0.010124926
-0.014479896 0.030157993 -0.010609879 -0.019429462 0.016044976 -0.021764478 -0.010550075 -0.018752791
-0.0039075916 0.0028359692 0.036594026 -0.023944933 0.028714513 -0.0023893544 -0.018228767 0.025828646
0.03431698 -0.009860196 0.008324737 0.02695225 0.036142863 0.010745815 0.0337315 -0.021090515

encoder.conv1.lin.weight f4 [64, 334]
00000000: 0872 0bbe 216a e23d f2f0 c33d 6e00 353d
00000010: df0f 81bd 2de5 98bd 5ded 89bd 92ea f5bd
00000020: 0fad 383c b698 583b abd5 203c ccbb 533d
00000030: de17 87bd f055 76bd eebc 5cbd 68c9 a7bd
00000040: 9740 85bd 7fe8 833d 7896 8abd 0093 683d
00000050: d15f f23c 1b22 6bbd 328d d83a 2405 113c
00000060: c71a 2b3d 9cff 843c 23ad 24bd bfa1 1dbd
00000070: bf6b c63c 10bd dfbc 2c4b ca3d 664d d9bd
00000080: eb09 8d3d 8e58 af3c 97cb 7f3d 41c0 3e3d
00000090: ba18 36bd 7dd0 0fbd d941 85bd f191 09bc
000000a0: 5d36 a03c a421 55bd a05b d6bc 87f2 2e3c
000000b0: bc5a e2bd 82fe 30bd bbec 9cbc fdf1 b83d
000000c0: ae49 c33c 3351 823d 6715 60bd abf5 b5ba
000000d0: c85b 1a3d fca5 1cbe da7a c53d 8bb0 f93b
000000e0: 9879 8a3d ec8d 8ebc 8ded c5bd 8f19 c33b
000000f0: 90ad a4bd 6051 08be d52b 6fbb 2db3 aa3d
00000100: dc00 00be 224c bfbd 3ee2 b2bd 35b6 413d
00000110: 32c0 bb3c 20e1 0cbe 544a 60b9 3d12 ee3d
00000120: 5647 b7bd dfd5 00be 1ca0 8d3d e170 04be
00000130: e15f c0bc 62f7 2e3d 6697 03be 4a2b bdbc
00000140: 4bf1 eebd 6e02 ac3c 7189 8e3d b2fb a2bc
00000150: 62f8 8f3c 83a1 c43d 18fd 563a 4b76 ee3c
00000160: 11cb cbbd 1569 cbbc 0685 b4bd eb9d cdbd
00000170: da1f ea3c d41b c0bd e60f 4ebd 24dc 6bbd
00000180: 972b 993b 6c7c 723d bae9 4dbd b529 01be
00000190: 1392 403d 7a97 fd3c d5d3 e63d 42de de3c
000001a0: 88f7 01be 2a01 353c b918 04bd 9dfb b0bd
000001b0: f776 62bd 3492 69bd edd1 993c d1a6 9e3c
000001c0: 5742 40bd 7e7e a3bd de91 7a3d 7763 35bd
000001d0: 434a 66bc 6838 7c3c 3463 8fbd 7d99 053e
000001e0: a2cb bfbd 6d76 453d cd30 b2bd 5908 abbd
000001f0: ce18 d7bc 86e7 68bd 90fb 6abd 3b70 9b3d
00000200: b274 b93c 6553 a93d 3f5c 083d 7b80 3ebd
00000210: 7de4 d53c 3499 3f3d 0027 d53c 26f6 ec3c
00000220: cea7 b6bd 5418 da3c 0564 6e3d ff79 963d
00000230: 5ea3 873c da6a 99bd 9667 b2bd 7ea7 5d3d
00000240: 112e 36bd d3dc 55bd e393 49bc 3c81 a93c
00000250: e6e0 453d a8a8 e0bd 35e1 ab3d 17b6 b03d
00000260: 650d bfbd 1c2e b63c 18b8 d0bd e80a 9bbc
00000270: 32c6 6ebc d2b6 f9bd 3755 72bd c3a0 273c
00000280: d64c 8a3d 78a1 04be 24de 963d 8a5b 5dbd
00000290: 5713 9b3d 8685 333d a30d 37bc bcae ff3c
000002a0: db39 be3d 4f5e 913d 32de 843d 7e33 e0bd
000002b0: 7632 fbbd b635 d2bd d911 a53d 757f 08be
000002c0: e81b a83d 6435 96bd ca3b 113e ace6 90bd
000002d0: 6fbd ad3d b782 903c 46d7 e5bd 1eb2 143d
000002e0: f691 a63c edbc 6fbd 6930 bcbd c10b 12be
000002f0: 5633 50bd 40d7 963d 0da5 a13c e247 f3bd
00000300: 247f 98bd a81e ecbc f9c9 8a3d c265 81bd
00000310: a676 34bc 20fc b73d 39a6 a9bd 3ef5 683d
00000320: cde9 773b 24da a53d 4504 96bd 8c79 a5bd
00000330: 57fe 48bd 39e3 d93d 13fc 42bd 46cf 0c3d
00000340: b1f7 b5bd 7de2 e43b 2c64 f7bd caf8 d2bd
00000350: b220 fe3c 1e46 e1bd e73c 63bd 6409 573d
00000360: 0b2a dabd cb32 8cbd 2c4f b33d 0cff 983c
00000370: d3f2 ad3d 43c0 0cbe ff24 47bd fdf7 10bd
00000380: 15fe f5bd b928 d4bd 6c92 c53d 23fd 593c
00000390: e9c7 783d a760 ab3d 3c6b 9cbd b3f1 a73d
000003a0: 5b67 07bd 1dc3 83bd 66d3 823c ef87 5abd
000003b0: 82fa 863c e734 bebd bc5d c4bd 802f c2bd
000003c0: d65b d4bd 60d1 893d 8039 3fbd 7ea7 bb3d
000003d0: 63b3 8bbd b954 ba3d e5af 0cbe 3683 ce3c
000003e0: ba29 31bd ccfb 04be b3a1 d93d 23da 993a
000003f0: c944 bdbd d8ea bebd 4df2 4f3d 84c2 0abd
-0.13617718 0.11055399 0.09567441 0.044189863 -0.06301855 -0.07465587 -0.067347266 -0.12007631
0.011271729 0.0033050007 0.009816567 0.05169277 -0.06596349 -0.06014055 -0.053891115 -0.08192712
-0.0650646 0.064408295 -0.06766981 0.056780815 0.029586704 -0.057405572 0.0016521572 0.008851323
0.041773584 0.016235165 -0.04020418 -0.03848433 0.0242213 -0.027311832 0.09877619 -0.10610466
0.06886657 0.02140453 0.062450018 0.046570066 -0.044457175 -0.03511094 -0.065067 -0.008396612
0.019557172 -0.052034035 -0.026166737 0.01067794 -0.110524625 -0.043211468 -0.01915585 0.090305306
0.023838844 0.06363144 -0.05470791 -0.0013882419 0.037685186 -0.15297693 0.09642573 0.0076199225
0.067614734 -0.017401658 -0.0966445 0.0059539746 -0.08040917 -0.13312292 -0.0036494632 0.08334956
-0.12500328 -0.09340693 -0.087345585 0.047292907 0.022918794 -0.13757753 -0.00021389994 0.116245724
-0.08949153 -0.12581585 0.06915304 -0.12933685 -0.023483219 0.04271639 -0.12850723 -0.02309193
-0.11667117 0.020997252 0.069598086 -0.019895408 0.017574493 0.096011184 0.0008201166 0.02910914
-0.09950841 -0.02483038 -0.08814435 -0.10039886 0.028579641 -0.09380308 -0.05030813 -0.05758299
0.004674386 0.05920069 -0.050271727 -0.12613566 0.047014307 0.030956019 0.112708725 0.02720559
-0.12692082 0.011047641 -0.03225014 -0.086417414 -0.055289235 -0.057024196 0.018776858 0.019366654
-0.046938267 -0.07983111 0.061174266 -0.04428431 -0.014055791 0.015394308 -0.07001343 0.13046832
-0.09365012 0.048208643 -0.08700714 -0.083512016 -0.026256945 -0.056861423 -0.057368815 0.07589766
0.022638652 0.08267859 0.033291098 -0.046509247 0.026109928 0.046776965 0.026019573 0.028925966
-0.08918725 0.026622929 0.058200855 0.07347488 0.016557392 -0.074910834 -0.08711164 0.05411481
-0.044477526 -0.052212548 -0.012303325 0.020691507 0.048310183 -0.109696686 0.08392564 0.08628481
-0.09328727 0.022238784 -0.10191363 -0.018926099 -0.014573621 -0.12193073 -0.0591633 0.0102312
0.067529365 -0.1295222 0.07366589 -0.054042377 0.07572048 0.04382851 -0.011172685 0.03121125
0.09288379 0.07098066 0.06487693 -0.10947321 -0.12265484 -0.10264151 0.08060045 -0.13329871
0.08208448 -0.07334402 0.14182964 -0.07075247 0.08483397 0.017640455 -0.11222701 0.03630268
0.020333271 -0.058529783 -0.09188921 -0.14262296 -0.050830208 0.073652744 0.019732023 -0.11878945
-0.07446125 -0.028823212 0.067768045 -0.06318237 -0.011014616 0.08983636 -0.082836576 0.056874506
0.0037828565 0.08098248 -0.07325033 -0.08079824 -0.049070682 0.106390424 -0.047603678 0.03437736
-0.08885134 0.0069850073 -0.12079653 -0.10301359 0.03102145 -0.10999702 -0.055478003 0.05249919
-0.1065255 -0.068456255 0.08755335 0.018676303 0.08493581 -0.13745217 -0.048619267 -0.03539275
-0.12011353 -0.1035933 0.096470684 0.013304981 0.060737524 0.08368044 -0.07637641 0.08200397
-0.03305755 -0.06433699 0.015969943 -0.053352293 0.016476873 -0.09287434 -0.09588191 -0.09481716
-0.10369079 0.06729388 -0.046685696 0.09162806 -0.06821325 0.09098191 -0.13738973 0.02520905
-0.043252684 -0.12986678 0.10626545 0.0011737983 -0.09241635 -0.09322137 0.050768185 -0.03387691

encoder.conv2.bias f4 [32]
00000000: 9ea4 e2bc 0993 943c e66c d93c a647 ba39
00000010: ac60 17bd f970 02bd 3b79 dd3c 19bd bdbc
00000020: 254b 04bc 73cf 4a3a 2bb1 b33c a55c ec3c
00000030: 7892 ce3c ea61 c03c 5fd9 19bd 2c99 9b3b
00000040: a137 5ebc 70ae df3b 1cdd 4dbc 355b a6bc
00000050: 11b5 a83b bdcc 073c ef8b 90bc 6def dfbc
00000060: 3190 e1bc 89bb 833c 527c 913c 051d e6bc
00000070: 0233 cbbc 8aa1 4a3c 356f debc b52f 073d
-0.027666386 0.018136518 0.026541185 0.00035530067 -0.036957428 -0.03184602 0.027035346 -0.023161458
-0.0080745565 0.0007736601 0.021935066 0.02885277 0.025216326 0.023484189 -0.037560817 0.004748484
-0.013563068 0.0068262145 -0.012564924 -0.020307163 0.005148538 0.0082885595 -0.01764485 -0.027335847
-0.027534576 0.016080635 0.017759476 -0.02809001 -0.024804596 0.0123676155 -0.027152637 0.03300448

encoder.conv2.lin.weight f4 [32, 64]
00000000: f059 81be ed61 5d3e 7dc2 34be c20f 33be
00000010: ecec 86bd 1479 5bbb fbaa 2dbe 3dd7 6f3d
00000020: 1743 953d d1bd ecbd 38f3 a23d a498 0c3d
00000030: 3146 e23d 3984 3b3e d3f6 81be c5cb 71be
00000040: 0a04 4ebe 6397 af3d 8aba ea3d ee9c cf3d
00000050: 3f45 5d3d 4ee7 fb3d b25b 483e 425f 85be
00000060: dd6a b53c afd3 aabd 4777 0e3e 6b44 263d
00000070: 5e75 63be 6603 42be 170f a1bc dfb3 023e
00000080: ed79 2bbd c290 3a3e 9ee2 613e 4ab5 723d
00000090: e886 8dbe b03a 803d 4481 183b c1d4 3c3d
000000a0: f9e5 733e dcc6 1cbe a7e3 013e 07fd 2dbd
000000b0: 157c 1f3e b670 36be 00bc c93b 2398 9c3d
000000c0: 9b33 7abd 737c afbd 8be4 cb3d 32c6 37be
000000d0: 63b4 d6bd e06e df3d 5b28 173e 9d23 483d
000000e0: 19e1 863d e037 c9bd 7a81 3f3e 0f22 02be
000000f0: c0cd 583e cf26 8ebc aa1a 233e 6cfb 6abe
00000100: 370d 9d3c 6a9e 13be 3b4a 58be afa1 43bd
00000110: 19be b4bd a186 2f3e c00d 66be 46c0 fdbd
00000120: bcd5 9cbb c6a1 a43d 2579 e3bb 7bff 193d
00000130: 5ba7 f33c e6de 8b3e 0c44 95bd 85b3 4b3e
00000140: 698a 48be 7733 b43c 5599 aabd 7874 15be
00000150: 71e3 0ebe ceed bebd 38d3 673e a127 15be
00000160: 0154 b7bc 4331 343e 84c4 2e3e fbfc 14be
00000170: 5c9c 4bbc c077 273e 8ab2 7abd 2494 853e
00000180: 19c5 003e 0ad6 0fbd 709a 8fbd 1c52 0dbd
00000190: 8c34 e3bd 8cb5 da3d 8b3e 313b 3887 3dbe
000001a0: 5099 373d 7949 fabd 2bfc 213e 4c75 083e
000001b0: e10d 803e a5b7 22be 62b7 d13d f96c 273e
000001c0: 3f7a 3abd 4748 50bd cf91 1ebe c09f 723e
000001d0: 1b63 5e3e 90de ab3c a469 b9bd b704 543e
000001e0: 7c1b 79be 56ac 6bbe 5772 03bd ffd7 093c
000001f0: 7d52 fb3d e12b 46be 73d4 f73d b6f0 4cbe
00000200: c61e 1d3d ebae 06bd 1035 24be 8613 7f3e
00000210: f364 01be 3b96 33be aa87 90bd f5a8 2dbe
00000220: c6c6 8c3e bb8e 42be d7a8 4b3d f287 803e
00000230: b660 e0bd ac60 793e 9db8 553e c79f 71bd
00000240: 222d 233e 5135 18be ef0b 773e 7d59 033e
00000250: b998 cd3c d965 50be 4ae1 3a3d 7d2b 5e3e
00000260: 75c2 35be 06b6 4abd b25f dbbc b834 4bbe
00000270: ec67 0d3e 757d e5bd 3032 e13c 2155 c2bd
00000280: 0c55 853e cb9e 853e b4de 5c3d 14c2 cfbc
00000290: 2f14 a2bd 5b1c e23c 2ee0 15be 7147 df3d
000002a0: 95b4 0abe 9931 293e 5304 fd3d 305c 45be
000002b0: f112 83bd 1418 53be a316 0fbe a9b8 28be
000002c0: c0a0 adbd b39c bbbd 546b 33be 4d0c 17bd
000002d0: 222b 0a3e 241f 06be cf18 26be f6b9 e6bd
000002e0: 9be2 41be 320d a93c 715f debd 29d2 593e
000002f0: 5a26 8a3e 0127 bb3d f341 843e 06b8 57be
00000300: 408d 69be da7f dabd ccb8 d73d f1d5 853e
00000310: 24e9 613e 40e4 ecbd 9580 d63d e9a2 103c
00000320: d103 d8bc 80e5 dabd 9858 ee3c a4f0 133e
00000330: bffd 2dbe a8fa 313e f8d2 cdbd de90 9a3d
00000340: 06a9 3d3c 2bb8 81be 8b54 69be 8a7f e63d
00000350: 2b4d 84be 48a4 d8bb 1128 e33d 2e07 2bbe
00000360: df16 133e cb70 b93c e6e4 e5bd 2908 2cbd
00000370: 5b00 2cbc 2525 1e3b f4e3 14be ac42 febc
00000380: 5f78 103e 1b64 e33d 1f53 1b3d 9fd0 e03d
00000390: 75eb e33d 10b6 ee3c 6a89 dc3d 8ad7 3dbe
000003a0: 48e6 073e f8f6 57be 8fe2 3cbe 57dc bc3c
000003b0: 6d5c 0b3e 4ac9 813e 7e2e 893e 771b dd3d
000003c0: a583 2a3d a6a8 393e d036 70be e8cf 2ebd
000003d0: 23be 8abe 3482 88be 7590 4c3e 52af b4bc
000003e0: 9c5b 79be 3f13 34be 8b2b 8b3e 20f7 32be
000003f0: 8486 62be 61ab 2dbc e8eb 65be 93f6 7bbe
-0.2526393 0.21619387 -0.17652316 -0.1748648 -0.06588158 -0.0033488916 -0.16959755 0.058554877
0.07288187 -0.11559642 0.079565465 0.034325257 0.11048544 0.18312158 -0.25383624 -0.23612888
-0.20118728 0.085737966 0.11461361 0.10137354 0.054021116 0.12299977 0.19566229 -0.26049238
0.022145683 -0.08341157 0.13912688 0.040592592 -0.22212741 -0.18946609 -0.019660516 0.12763928
-0.041864324 0.18219283 0.22059104 0.059254922 -0.27641988 0.06261194 0.0023270408 0.046101335
0.23818196 -0.15310234 0.12684499 -0.042477634 0.15574677 -0.17816433 0.0061564445 0.07646205
-0.06108437 -0.08568659 0.099557005 -0.179467 -0.10483625 0.109098196 0.14761488 0.04886209
0.06585903 -0.098251104 0.18701735 -0.12708305 0.21172237 -0.01735249 0.1592814 -0.22947472
0.01917134 -0.14415899 -0.21122067 -0.047761615 -0.08825321 0.171412 -0.22466183 -0.12390189
-0.0047862213 0.08038668 -0.006941932 0.03759716 0.029742887 0.27318496 -0.072883695 0.198927
-0.1958405 0.021997197 -0.08330027 -0.1459521 -0.1395395 -0.093227014 0.22639167 -0.14565898
-0.022378923 0.17596917 0.17067152 -0.1454963 -0.012427416 0.16354275 -0.061205424 0.26089585
0.12575187 -0.035116233 -0.070118785 -0.034502134 -0.11094007 0.106791586 0.0027045335 -0.18508613
0.044823945 -0.12221045 0.1581885 0.13325995 0.2501059 -0.15890367 0.102400556 0.16350164
-0.04552674 -0.05085018 -0.15485309 0.23693752 0.21717493 0.02098015 -0.090533525 0.20704924
-0.2432689 -0.2301496 -0.032091465 0.008413314 0.12271593 -0.19352676 0.12101068 -0.20013699
0.038359426 -0.03288166 -0.16035867 0.24909791 -0.12636165 -0.17537777 -0.07057126 -0.16958983
0.27495402 -0.1899976 0.049721565 0.25103718 -0.10955946 0.24353284 0.20871206 -0.058990266
0.15935186 -0.14864089 0.24125646 0.12827106 0.025097238 -0.20351352 0.04562501 0.21696277
-0.1774996 -0.049489997 -0.02677903 -0.1984433 0.13809174 -0.1120557 0.027489752 -0.09488893
0.26041448 0.26097712 0.053923324 -0.025361098 -0.07914006 0.027601412 -0.14636299 0.10902298
-0.13545449 0.16522826 0.123543404 -0.19273448 -0.06400097 -0.20614654 -0.13973479 -0.16476692
-0.08477926 -0.091607474 -0.17521411 -0.036876965 0.13493016 -0.13097817 -0.16220401 -0.11265938
-0.189341 0.020636175 -0.10858048 0.21271576 0.26982385 0.09138299 0.25831565 -0.21066293
-0.22807789 -0.10668917 0.10533294 0.26139787 0.22061592 -0.11566973 0.10473744 0.008827903
-0.026369007 -0.10688305 0.02909498 0.14447266 -0.16991328 0.17380774 -0.10050005 0.075471625
0.011575943 -0.25335822 -0.22786157 0.11254795 -0.25840124 -0.0066113807 0.110916264 -0.16701958
0.14364193 0.022636792 -0.112252995 -0.04199997 -0.010498132 0.0024131027 -0.14540082 -0.031037651
0.14108418 0.11103078 0.037921067 0.10977291 0.11128894 0.029139549 0.10768397 -0.18539253
0.13271439 -0.21090305 -0.184458 0.023054285 0.13609476 0.25348884 0.26793283 0.10796254
0.041629452 0.1813074 -0.2345841 -0.042678744 -0.27098188 -0.26661837 0.19976981 -0.022056255
-0.24351352 -0.17585467 0.27181658 -0.17477083 -0.22121626 -0.010599942 -0.22453272 -0.2460578

discriminator.fc1.weight f4 [4, 32]
00000000: aa5e 8bbe ed08 d9be 2367 883e e635 a5be
00000010: 37ea 86be 16dd a23e 3316 043e 8033 c33e
00000020: 5901 a6be c754 95be 7663 64be 3d3e 313e
00000030: bde0 5f3e c8c9 88be 8418 a23e 5289 adbe
00000040: 30c7 b03e 75f1 0cbe 8a8e b93e c580 423e
00000050: f941 293e ae73 c13e 9af2 5ebd 452b 953e
00000060: 8936 b4be 51de bdbe cccc 7e3e 5dc4 843e
00000070: 8724 0ebe f1df 813e ca9c 6dbe 6f2a 7a3e
00000080: 8ff3 953e 537d 48be d74f 93be d9ce c63d
00000090: daa3 b0be 2c95 a23e 2c32 af3e 8329 f6bc
000000a0: 583f 9abe 81d8 b5be 8cdc 9e3e bdb8 3dbe
000000b0: 13db a83e c8f9 8d3e 6396 a8be 481d 353e
000000c0: b23e b73e bc45 eabe a1b4 77be 9fd3 b0be
000000d0: 0333 bebe ed9a e23e e697 a33e e58e 5abe
000000e0: c719 9cbe 48fa c4be 4d94 84be 2338 bf3d
000000f0: 7163 a7be 90b5 513d 9f44 90be 8d7b 873e
00000100: f2ed 813e 5612 b1bd d644 34bc ae94 ba3d
00000110: 2a63 8abe bdf0 793e a99d 6ebd 74ce 863e
00000120: e66d a03e 1b8b b7be 3e10 8f3e 0769 74bd
00000130: 3eaa 84be 0f3c e0bd 852b 7b3e 4370 8d3e
00000140: d1bd 93be 4c83 37bb cdc1 dabd 014d 933e
00000150: 2bd9 813e cc76 d93e b4c9 2fbe 8f58 843e
00000160: 072f b4be 5067 823e b316 2fbe 2997 c03e
00000170: 270b 403e ff63 8bbe 7461 8ebe 6835 2a3e
00000180: 6368 90be 0aba a43e 1b42 84be 4abb af3d
00000190: 945c adbe bf54 503c ddfc 8a3e 6f93 eabd
000001a0: 60d5 cb3e be25 a5bd 4cfe 283e 7f8f 713e
000001b0: e441 833e 96a8 5a3e 0fe4 c0be b9fa 933e
000001c0: 45b5 6d3d 1d55 b5be 81a9 923e 7f32 c6be
000001d0: b76a 433e 7cdf 973e 1f02 bb3e a8ab 8fbd
000001e0: 958d 683c bd08 a43e 8f46 7abe 34e1 60bd
000001f0: 2a90 7ebe f636 a23e cbe7 7e3e 7f04 f13d
-0.2722066 -0.42389622 0.26641187 -0.32267684 -0.26350567 0.318093 0.12899093 0.3812523
-0.32422903 -0.29166242 -0.22303566 0.17308898 0.21863075 -0.26716447 0.3165933 -0.3389383
0.34526968 -0.13763984 0.3624156 0.18994434 0.16529073 0.3778357 -0.05443058 0.29134575
-0.35197857 -0.37083676 0.24882811 0.25931063 -0.13881122 0.25366166 -0.23204342 0.2443025
0.29287383 -0.19579057 -0.2877185 0.09707422 -0.3450001 0.31754434 0.34217966 -0.030049091
-0.30126452 -0.35516742 0.3102764 -0.18527503 0.3297964 0.2772963 -0.32927236 0.17686951
0.3579002 -0.45756328 -0.24189998 -0.34536454 -0.37148294 0.44258824 0.31951827 -0.21343572
-0.30488417 -0.384722 -0.25894395 0.09336879 -0.32693055 0.051198542 -0.28177354 0.2646145
0.2537685 -0.086460754 -0.01100274 0.0911039 -0.2702878 0.2440824 -0.058255825 0.26329386
0.31333846 -0.35848317 0.2794208 -0.059670474 -0.25911134 -0.10948955 0.2452832 0.2762471
-0.28855756 -0.0028001843 -0.10681496 0.28769687 0.25361 0.42473447 -0.17166787 0.25848815
-0.3519213 0.25469446 -0.17098503 0.37615326 0.18754254 -0.27224728 -0.27808726 0.16621935
-0.2820464 0.32173187 -0.25831684 0.085806444 -0.33859694 0.012715518 0.27146044 -0.11453902
0.3981123 -0.080638394 0.16503257 0.23589896 0.25636208 0.21353373 -0.37673995 0.28902224
0.0580342 -0.354165 0.28644946 -0.387104 0.19083677 0.29662693 0.36525056 -0.07015163
0.014193912 0.32037917 -0.24440978 -0.05490227 -0.24859682 0.31682557 0.2489311 0.11768436

discriminator.fc1.bias f4 [4]
00000000: 0ea8 b8bd b917 88bd eb1a c4bd 32b4 dbbc
-0.09016429 -0.0664515 -0.09575447 -0.026819322

discriminator.fc2.weight f4 [2, 4]
00000000: 7122 05bf 6c34 6f3b 5495 3c3c 164a 92be
00000010: 6eab 163f b340 773e 7b70 7a3e 0fab 013f
-0.5200568 0.0036499752 0.011510212 -0.28572148 0.5885533 0.24145775 0.2445697 0.5065164

discriminator.fc2.bias f4 [2]
00000000: 7812 34bd 5df2 2e3e
-0.043962926 0.17084642

discriminator.fc3.weight f4 [1, 2]
00000000: 7436 a0be be86 7a3e
-0.31291544 0.24465463
