src/algorithms/deep/pretrained/arga_citeseer.pt (torch, 961228 bytes, 9 tensors)

encoder.conv1.bias f4 [64]
0	0x3c296c20	0.01034072
1	0x3c7a5046	0.015277928
2	0x3b749836	0.003732217
3	0x3ca3e660	0.020007312
4	0x3caa64bf	0.020799993
5	0x3c909471	0.017648907
6	0x3ace5260	0.0015741102
7	0x3cb8497e	0.022495981
8	0x3c296f8b	0.010341535
9	0x3c18a49a	0.009316588
10	0x3af93294	0.0019012266
11	0x3c70d4a0	0.014699131
12	0xbb061212	-0.0020457548
13	0xbb05b1dd	-0.0020400204
14	0x3c497d5e	0.012297956
15	0xbae140b3	-0.001718542
16	0x3c147a61	0.0090623805
17	0x3c8a426d	0.016877377
18	0x3c7d79b5	0.015470912
19	0x3ca51870	0.020153254
20	0xbb18ab73	-0.002329555
21	0x3ccaf6b9	0.02477585
22	0x3ca2a9db	0.019856384
23	0x3c2e1957	0.010626159
24	0x3bb2c16b	0.005455186
25	0x3c8f9dec	0.017531358
26	0x3b85cbd2	0.004083135
27	0x3c9d5f12	0.019210372
28	0x3c4e169a	0.012578631
29	0xba3496ea	-0.0006888943
30	0x3c591352	0.013249235
31	0x3ca098de	0.019604143
32	0x3baa0531	0.005188607
33	0x3b4df532	0.0031426665
34	0x3c4dd1cb	0.012562226
35	0x3c80669a	0.015673924
36	0x3bb0a317	0.0053905356
37	0x3c2ee4e8	0.010674693
38	0x3c8a7bf1	0.016904803
39	0x3bd745ad	0.0065695853
40	0x3c3caa60	0.01151523
41	0x3c821214	0.015877761
42	0x3c30a4e5	0.010781501
43	0xbb3941c3	-0.0028267957
44	0x3c200f72	0.009769307
45	0x3c3c5d4b	0.011496852
46	0x3c952e87	0.018210663
47	0x3c81b319	0.01583247
48	0x3c4aad6e	0.01237045
49	0x3b879c9b	0.004138542
50	0x3c8371e4	0.016045518
51	0x3c38ef20	0.011287481
52	0x3cc5671e	0.024097022
53	0x3c774bdb	0.015093769
54	0x3c783215	0.015148659
55	0x3c9462bb	0.018113485
56	0x3c34cb38	0.011034779
57	0x3c8b5b6c	0.017011367
58	0xbb3766f8	-0.0027984958
59	0x3c7ef544	0.015561406
60	0x3c7bb135	0.015362074
61	0x3bfc8499	0.0077062366
62	0x3c8f8cef	0.017523257
63	0x3c4941a0	0.012283713

encoder.conv1.lin.weight f4 [64, 3703]
0	0x3d259092	0.040421076
1	0x3cfc8fb0	0.030830234
2	0xbce0dad0	-0.027448088
3	0xb911ee52	-0.00013917059
4	0xbc1a8348	-0.009430714
5	0x3d45102e	0.048111133
6	0x39d5d684	0.00040786352
7	0x3d0919c6	0.033471845
8	0xbbecc017	-0.0072250473
9	0xbbd76102	-0.0065728435
10	0xbcea5ea0	-0.028609574
11	0xbaa6757f	-0.0012699811
12	0x3d0ab46b	0.033863466
13	0xbbd3a551	-0.0064589162
14	0xbcbea80f	-0.023273496
15	0xbd36b6aa	-0.044607796
16	0xbc39e2a0	-0.0113455355
17	0xbd3537e8	-0.04424277
18	0xbd1b2579	-0.037877534
19	0x3d0e1679	0.0346894
20	0xbd3e8644	-0.046514764
21	0xbca13123	-0.01967675
22	0xbcd977be	-0.026546355
23	0x3b3a4663	0.0028423301
24	0xbc96d8a6	-0.018413853
25	0xbd159bf1	-0.03652567
26	0xbcfdc000	-0.030975342
27	0x3cb2f437	0.021844966
28	0x3c62ef4f	0.013851001
29	0xbc5de0a2	-0.013542326
30	0xbcbbb442	-0.022913102
31	0x3d214c7e	0.03937959
32	0xbc46f9cd	-0.012144518
33	0x3cc4e41a	0.024034549
34	0xbc5c38bd	-0.013441262
35	0xbc5deb9f	-0.013544946
36	0xbc54971d	-0.012975481
37	0xbb88a9cd	-0.0041706325
38	0x3c667e4c	0.014068197
39	0x3d5e548c	0.05427985
40	0xbcf011e9	-0.029305415
41	0xbc1a930a	-0.009434471
42	0xbd06d456	-0.032917343
43	0xbcd43c7d	-0.02590775
44	0xbcf8a92c	-0.030354105
45	0xbb332f9a	-0.0027341605
46	0xbc90374e	-0.017604496
47	0x3cb42100	0.021988392
48	0x3c84a03a	0.016189683
49	0x3bb97c13	0.0056605428
50	0x3c268941	0.01016456
51	0x3d058fa0	0.032607675
52	0x3d715e53	0.058927845
53	0xbbd21bf9	-0.006412026
54	0x3bddd077	0.0067692357
55	0x3ca024c4	0.019548781
56	0xbcd90fe6	-0.026496839
57	0x3c2764c8	0.010216899
58	0x3aa47d2a	0.0012549509
59	0xbb3fa817	-0.0029244476
60	0x3bb301a0	0.00546284
61	0x3cf71062	0.03015918
62	0xbc319a1a	-0.010839963
63	0xbc6e99f3	-0.014563072
64	0x3b8f682d	0.0043764324
65	0x3d38cd7a	0.045117833
66	0x3c34c664	0.011033628
67	0x3c88aa89	0.01668288
68	0xbb4f8db7	-0.0031670162
69	0xbce1c89a	-0.027561475
70	0xbcc4a0b1	-0.024002405
71	0xbd1fd7e3	-0.039024245
72	0x3cc50bac	0.024053417
73	0x3b4e42c6	0.0031472906
74	0x3d803d6f	0.062617175
75	0x3c2a815e	0.01040682
76	0x3c06196d	0.008184773
77	0x3b98c028	0.0046615787
78	0xbd4722f2	-0.04861731
79	0xbcbd96f0	-0.023143262
80	0x3d4583d0	0.04822141
81	0xbc2295dc	-0.009923425
82	0x3baf9f5a	0.0053595724
83	0x3bdc532e	0.006723783
84	0x3d679da2	0.056546815
85	0x3ca365b4	0.019945957
86	0xbad759e8	-0.0016429992
87	0xbd4ece82	-0.05048991
88	0xbcd3c8f7	-0.025852663
89	0x3c0af68e	0.008481635
90	0xbbf5f9e6	-0.007506597
91	0x3c8d4129	0.017242985
92	0x3c132f22	0.008983405
93	0xbd57f385	-0.052722473
94	0x3d096526	0.03354373
95	0xbd4a9bec	-0.049465105
96	0xbc8062e5	-0.015672157
97	0x3c579680	0.013158441
98	0x3d605c8b	0.054775756
99	0xbb1a84a0	-0.0023577586
100	0xbca6fcfd	-0.020384306
101	0xbcc679a9	-0.024227934
102	0xbd263d40	-0.040585756
103	0xbcf55ee7	-0.02995248
104	0x3c0a2903	0.0084326295
105	0xbd05837f	-0.032596108
106	0xbd8eda74	-0.069752604
107	0xbd11bd94	-0.035581186
108	0xbd4d7056	-0.05015596
109	0xbca06560	-0.01957959
110	0xba3f70bd	-0.0007302871
111	0x3d0f253b	0.034947615
112	0xba2c811e	-0.0006580519
113	0xbcaf2d4f	-0.02138391
114	0xbcd42505	-0.025896559
115	0x3cd71913	0.026257074
116	0x3cd638c1	0.02615011
117	0xbbbebc02	-0.005820752
118	0xbd0263d5	-0.03183349
119	0xbd061d43	-0.03274275
120	0xbd47ad86	-0.04874947
121	0x3d01af58	0.03166136
122	0xbb031fb3	-0.0020007908
123	0x3c9c87b7	0.019107683
124	0xbd4b4493	-0.049625944
125	0x3cf5095e	0.029911693
126	0x3c594880	0.013261914
127	0x3c8e263a	0.017352212
128	0x3d1da776	0.03848978
129	0xbb8d5fd4	-0.004314402
130	0xbcdd656b	-0.027025899
131	0x3d33f41c	0.043933973
132	0xbcf5a88c	-0.029987596
133	0xbaf7bc9a	-0.0018900812
134	0x3b65fbb2	0.003509265
135	0x3cdd8904	0.027042873
136	0xbd0ce245	-0.034395475
137	0xbc60cf0f	-0.013721242
138	0x3ca87695	0.020564357
139	0xbc996710	-0.018725902
140	0x3be23c60	0.00690417
141	0xb9ffc664	-0.00048785203
142	0xbce6c8f2	-0.02817199
143	0xbd4451f7	-0.04792973
144	0x3ba0f11e	0.004911556
145	0x3d3af342	0.045642145
146	0xbb3c5cdc	-0.0028741872
147	0x3c2358bd	0.009969887
148	0xbca09e4e	-0.019606736
149	0x3aacf06c	0.001319421
150	0xbb7e81e4	-0.0038834745
151	0x3d55002a	0.05200211
152	0xbc588790	-0.013215914
153	0x3c8f4d94	0.017493047
154	0xbcffdac5	-0.031232247
155	0x3c3d1493	0.01154055
156	0xbcf8ad86	-0.03035618
157	0xbd53c4dd	-0.051701415
158	0x3d38a6d3	0.04508097
159	0x3c61e452	0.013787346
160	0xbcb11dd2	-0.021620665
161	0xbcec8f0b	-0.028876802
162	0x3d17fba6	0.037105225
163	0xbc0cfcb7	-0.008605174
164	0x3b5f4476	0.0034067906
165	0x3d0c3cf0	0.034237802
166	0xbbe7dff5	-0.0070762583
167	0xbd60a7f3	-0.05484767
168	0xbd05834b	-0.032595914
169	0xbc2c186f	-0.010503872
170	0xbc8a3cdb	-0.016874721
171	0xbcc50e17	-0.02405457
172	0xbbf10fd3	-0.0073566227
173	0x3d0756c8	0.033041745
174	0xbc94987f	-0.018139122
175	0xbb3012e1	-0.0026866721
176	0xbc0f8688	-0.008760102
177	0x3cca480a	0.024692554
178	0x3d430733	0.047614288
179	0xbcb14872	-0.02164099
180	0xbc0217a1	-0.007940204
181	0xbc8fbdbd	-0.017546529
182	0xbcb8dbf0	-0.022565812
183	0x3b81dc6d	0.0039630444
184	0xbd0fd575	-0.035115678
185	0xb9c84761	-0.00038200154
186	0x3c226f74	0.009914268
187	0xbc7bd45f	-0.015370457
188	0x3d28bb85	0.041194458
189	0xbc5c1cff	-0.013434648
190	0xbd1a2f53	-0.03764279
191	0x3c9d3d1a	0.019194175
192	0x3cd8fbf8	0.026487336
193	0x3cab04e6	0.02087636
194	0x3c7a9817	0.01529505
195	0x3d499801	0.049217228
196	0x3c465273	0.012104618
197	0x3d09ed5c	0.03367363
198	0x3d5e6fa1	0.054305676
199	0x3d1b3bd0	0.03789884
200	0xbc704c59	-0.01466664
201	0x3ca8f956	0.020626705
202	0xbb97f933	-0.004637861
203	0x3999481c	0.0002923616
204	0x3ac1870b	0.0014764977
205	0x3c3f5856	0.011678776
206	0xbce76a12	-0.02824882
207	0xbcd38161	-0.025818529
208	0xbc0cf57b	-0.008603449
209	0x3d10c5b8	0.03534481
210	0xbca86a7c	-0.020558588
211	0x39a2d4b9	0.0003105754
212	0x3cbb5516	0.02286772
213	0xbd3f2017	-0.046661463
214	0xbc044f35	-0.008075525
215	0x3c96ee8f	0.0184243
216	0x3b31eaa5	0.0027147916
217	0x3cda0911	0.026615651
218	0xbd1e26c7	-0.0386112
219	0x3d465ffa	0.048431374
220	0x3c221f4a	0.009895155
221	0xbbcf3bad	-0.0063242526
222	0x3cdcee31	0.026969047
223	0x3d836839	0.06416363
224	0x3c6febbb	0.014643605
225	0x3d32dc21	0.043666963
226	0x398f39ca	0.00027318142
227	0x3d1b56b4	0.037924483
228	0xbab391ff	-0.0013700126
229	0xbc84bbdd	-0.016202861
230	0x3d308cc8	0.04310301
231	0x3cd136df	0.02553886
232	0xbc1aee35	-0.009456207
233	0x3d2aa2ad	0.041659046
234	0xb9d3455b	-0.0004029673
235	0xbca1fb31	-0.019773098
236	0xbcb29217	-0.021798177
237	0xbcce93d5	-0.025216976
238	0xbbe069f6	-0.006848569
239	0xbd1bd5f3	-0.038045835
240	0xbc5d5024	-0.013507877
241	0xbd102055	-0.035187084
242	0xbbb07d49	-0.005386029
243	0xbc9048cf	-0.017612843
244	0xbca45adc	-0.020062856
245	0xbcaeba43	-0.02132905
246	0xbc454ff8	-0.012042992
247	0x3d0348fa	0.032052018
248	0x3d5265a5	0.051366467
249	0x3d1c2cac	0.03812854
250	0xbd4b9aeb	-0.04970829
251	0x3b9f5c2a	0.0048632817
252	0xbbb6aea0	-0.005575016
253	0x3b25b8d7	0.0025287175
254	0xbcb797e8	-0.022411302
255	0x3c1cec2a	0.00957779

encoder.conv2.bias f4 [32]
0	0x3cae8c0b	0.021307012
1	0xbcc0b012	-0.023521457
2	0x3ca68aed	0.020329917
3	0x3c92175e	0.017833408
4	0x3c918942	0.017765645
5	0xbc97eeff	-0.01854658
6	0xbb369c2f	-0.0027864089
7	0x3ca10534	0.019655801
8	0xbc8c9818	-0.017162368
9	0xbc9d871d	-0.019229466
10	0x3c8c1286	0.017098676
11	0xbcc13343	-0.023584014
12	0xbbcd735d	-0.006269856
13	0xbc9cdd3a	-0.019148458
14	0xbcadce55	-0.02121655
15	0x3c1d5a4b	0.009604047
16	0x3a161e4d	0.0005726561
17	0xbcbef73b	-0.023311248
18	0x3cb58109	0.022156255
19	0xbcad6ecd	-0.021170998
20	0xbca8f162	-0.020622913
21	0xbc99c5d7	-0.018771095
22	0x3ca5baa5	0.0202306
23	0x3c9bc675	0.01901553
24	0x3cabbe6a	0.02096482
25	0x3c63cb2f	0.013903423
26	0xbcbde3ff	-0.023180006
27	0x3c957049	0.018242018
28	0x3cb2fc46	0.021848809
29	0xbcb7514a	-0.022377629
30	0xbc9c8266	-0.019105148
31	0x3c093a5e	0.008375732

encoder.conv2.lin.weight f4 [32, 64]
0	0xbe3cd000	-0.1843872
1	0xbe2ed9e6	-0.17075309
2	0x3e84cb9a	0.25936586
3	0xbe166576	-0.14687142
4	0x3cf62da6	0.030051064
5	0x3e1961ec	0.1497876
6	0x3d9045c7	0.07044559
7	0xbda1c89b	-0.078995906
8	0x3e0d82de	0.13819453
9	0x3d8aeda3	0.06783607
10	0xbdafbf3a	-0.085813954
11	0xbdd8fb56	-0.105948135
12	0x3ddbc363	0.107306264
13	0xbe080a2d	-0.13285132
14	0x3e1afecf	0.15136264
15	0x3e7bfd0e	0.24608251
16	0xbdde9a87	-0.108693175
17	0xbe1412f2	-0.14460352
18	0xbe35431b	-0.1770138
19	0xbda6b044	-0.08139089
20	0x3e4df7c0	0.2011404
21	0x3c5e8a52	0.013582783
22	0x3e408ddb	0.18804114
23	0xbe69f0b0	-0.22845721
24	0xbe688e8b	-0.22710626
25	0xbb79e4a9	-0.0038130677
26	0xbe7234fa	-0.23653021
27	0x3d8076e0	0.062726736
28	0xbde37fac	-0.11108336
29	0x3c49aa12	0.012308614
30	0x3e7d5894	0.24740821
31	0xbe704e3d	-0.23467346
32	0xbcbac5bb	-0.022799363
33	0xba5e7bf9	-0.00084871013
34	0xbe06ad6e	-0.13152096
35	0x3d25ffaa	0.040527023
36	0xbe1fdfea	-0.1561276
37	0x3e4bd443	0.1990519
38	0x3e7b88f6	0.24563965
39	0xbe0e5776	-0.13900551
40	0xbe50e6cc	-0.20400542
41	0x3e2bbe95	0.1677192
42	0xbe16671a	-0.14687768
43	0x3d9ce9fc	0.076618165
44	0x3e6a3c22	0.22874501
45	0xbe5d7fa3	-0.21630721
46	0x3e8765d6	0.26444882
47	0xbe019216	-0.12653384
48	0xbd87d8e4	-0.066331655
49	0x3dda2a63	0.10652616
50	0xbe80e14b	-0.25171885
51	0x3dda8632	0.10670127
52	0xbd9d3024	-0.07675198
53	0xbd88acdd	-0.06673596
54	0x3cd98e41	0.02655709
55	0xbe257cf8	-0.16160953
56	0x3e24ceb1	0.16094472
57	0xbcad5e24	-0.021163054
58	0xbe4ac32c	-0.19801015
59	0x3dfd6f65	0.123747624
60	0x3e2d5eec	0.16930741
61	0x3e24e94a	0.16104618
62	0x3e6e4dfc	0.23271936
63	0x3e1e30a4	0.15448242
64	0x3e644291	0.22291018
65	0x3e141c1d	0.1446385
66	0x3da39641	0.07987643
67	0x3d0cd373	0.03438134
68	0x3de88943	0.113543056
69	0x3daa49e8	0.08314878
70	0xbcf4845a	-0.029848266
71	0xbe43b4b1	-0.19111897
72	0x3e43c792	0.19119099
73	0xbe3b4942	-0.18289664
74	0x3e52b428	0.20576537
75	0x3e2560c2	0.16150191
76	0x3e2c229f	0.16810082
77	0x3e13cfcb	0.14434735
78	0xbd784b05	-0.06061842
79	0x3e2a3ba3	0.16624312
80	0x3d005ca6	0.031338356
81	0xbe324a75	-0.17411216
82	0x3ca882bf	0.020570157
83	0xbe72238a	-0.2364637
84	0x3de70d73	0.11281862
85	0x3dbf4b5d	0.09340546
86	0xbd155f6a	-0.036467947
87	0x3e3e13a9	0.18562187
88	0x3e57f015	0.21087678
89	0xbe01368e	-0.12618467
90	0xbd79a969	-0.060952578
91	0x3e60e16e	0.21960995
92	0x3d29f07e	0.041489117
93	0x3e28ea1e	0.16495559
94	0xbccbdc48	-0.024885312
95	0xbe768052	-0.24072388
96	0x3c845f1d	0.016158635
97	0xbdb330b4	-0.08749524
98	0xbe2eb9fb	-0.17063133
99	0x3d0cebd5	0.034404594
100	0xbd97a546	-0.0740457
101	0x3e3023ff	0.17201231
102	0x3e22b0b7	0.15887724
103	0xbd940567	-0.07227593
104	0xbd486c39	-0.048931334
105	0xbd6358f1	-0.055504743
106	0x3ba34c58	0.004983466
107	0x3dc76d6a	0.09737666
108	0x3db155e7	0.08658963
109	0xbca44c61	-0.020055952
110	0xbb3406b6	-0.002746982
111	0x3e3b4366	0.18287429
112	0x3c862f78	0.016380057
113	0x3df911f3	0.12161627
114	0x3df6b2a0	0.12045789
115	0x3e16efb9	0.14739884
116	0x3d70bea4	0.05877556
117	0xbdec862a	-0.11549027
118	0xbe793efe	-0.24340436
119	0xbe359a3a	-0.17734614
120	0x3e3ad14f	0.18243907
121	0x3c802caf	0.015646307
122	0xbe22a0c2	-0.15881637
123	0xbe7d5098	-0.24737775
124	0xbe5ee249	-0.21766008
125	0xbdc0ac77	-0.09407895
126	0x3e66ac66	0.22526702
127	0x3e410c37	0.18852316
128	0xbe52dc02	-0.20591739
129	0xbe203633	-0.15645675
130	0xbc82b1b3	-0.015953874
131	0x3b59a112	0.0033207578
132	0x3e00f26d	0.12592478
133	0x3e1e81f8	0.15479267
134	0x3d80b68d	0.06284819
135	0x3e892118	0.2678306
136	0xbe7cf5b6	-0.24703106
137	0xbe660914	-0.224644
138	0xbe05d453	-0.13069277
139	0x3e675ec0	0.22594738
140	0x3e61f77c	0.22067064
141	0xbd9611b6	-0.07327597
142	0xbd08d270	-0.033403814
143	0xbc7d0558	-0.015443169
144	0x3e4b3432	0.1984413
145	0xbe1e3fe5	-0.15454061
146	0xbc391125	-0.0112955915
147	0x3e15c3eb	0.14625518
148	0xbcb240de	-0.021759447
149	0xbe5bc52f	-0.21461938
150	0x3e45ac31	0.19303967
151	0xbe07a2b1	-0.13245656
152	0xbd53b998	-0.051690668
153	0x3d948582	0.07252027
154	0x3e19f1b0	0.15033603
155	0x3e5a654a	0.21327701
156	0xbcb0b8de	-0.021572527
157	0xbe6db563	-0.23213725
158	0x3e7cb535	0.246785
159	0xbe7ddb14	-0.24790603
160	0xbe811367	-0.25210115
161	0x3e379f44	0.17931849
162	0xbe2fbbeb	-0.17161529
163	0xbd9df6de	-0.07713102
164	0xbdfe2af5	-0.12410537
165	0xbddbb8c8	-0.107286036
166	0xbe0ae381	-0.13563348
167	0x3c1b8abb	0.009493525
168	0xb9c21f2a	-0.00037025783
169	0xbe5da232	-0.21643904
170	0xbe13cc87	-0.1443349
171	0x3d95bd87	0.0731154
172	0x3e27d57e	0.16390035
173	0x3e164f1d	0.14678617
174	0x3e2199c5	0.15781315
175	0x3d43c0c6	0.047791265
176	0xbe58d662	-0.2117553
177	0xbe31d67f	-0.1736698
178	0xbe0e3883	-0.13888745
179	0xbc57e428	-0.013176955
180	0xbe247035	-0.16058429
181	0x3e328d68	0.17436755
182	0xbde0dc1d	-0.10979483
183	0x3e42515d	0.1897635
184	0xbdc6a60b	-0.09699639
185	0xbda30ff1	-0.07962025
186	0x3e407e95	0.18798287
187	0xbdc4e651	-0.09614242
188	0x3d1c9e4c	0.0382369
189	0x3e6a22c6	0.22864828
190	0xbdec31ac	-0.11532912
191	0x3e47900c	0.19488543
192	0xbe881ef8	-0.26586127
193	0xbe0e634b	-0.13905065
194	0xbddcc320	-0.10779405
195	0xbbfb3808	-0.0076665916
196	0x3e253550	0.16133618
197	0x3e7c5e13	0.24645261
198	0x3e64f4f2	0.22359064
199	0x3e6328a9	0.2218348
200	0x3d99a198	0.07501525
201	0xbe7e8c4b	-0.24858205
202	0xbe9017b7	-0.28143093
203	0x3e2cdf0f	0.16881965
204	0x3e535a3b	0.20639889
205	0xbe2030b5	-0.1564358
206	0xbd1d1536	-0.038350306
207	0x3e73fbdf	0.2382655
208	0xbe7e7f3d	-0.24853225
209	0x3dd670a5	0.10470704
210	0xbd6c1f18	-0.05764684
211	0x3e590e00	0.21196747
212	0xbd2b1409	-0.041767154
213	0x3e20d2a1	0.15705349
214	0xbe227da0	-0.15868235
215	0x3df86734	0.121290594
216	0xbe485adc	-0.1956591
217	0xbd9e3232	-0.07724418
218	0xbe68f8bc	-0.22751135
219	0xbe71cf20	-0.23614168
220	0x3db3c768	0.08778268
221	0x3e6f9e53	0.2340024
222	0xbe241b99	-0.16026153
223	0x3dba382f	0.090927474
224	0x3c4f646c	0.01265822
225	0xbe21a2fb	-0.15784828
226	0x3e656bb8	0.22404373
227	0x3e8a573b	0.27019677
228	0x3dd99bc0	0.1062541
229	0xbe28d9e9	-0.16489376
230	0xbe8725ff	-0.26396176
231	0xbc1a0b46	-0.009402102
232	0xbe59f80e	-0.21286032
233	0x3d9224a8	0.07135898
234	0x3da4df0e	0.08050357
235	0xbdd366bb	-0.10322329
236	0x3e4cd294	0.20002204
237	0xbdda971b	-0.10673352
238	0x3e2bf143	0.16791253
239	0xbe39f0da	-0.18158284
240	0xbe09120a	-0.13385788
241	0x3e0388b4	0.12845117
242	0xbd04fc87	-0.03246739
243	0xbe8c37b3	-0.27386245
244	0x3e66e3b9	0.22547807
245	0xbe762908	-0.2403909
246	0x3e80f032	0.25183254
247	0x3da9fdef	0.08300387
248	0xbe1509bf	-0.14554499
249	0x3c8ae152	0.016953144
250	0x3e73508b	0.23761193
251	0x3bc36655	0.0059631267
252	0xbe00fae3	-0.12595706
253	0x3ced0749	0.028934138
254	0x3da3122b	0.0796245
255	0xbe5aa715	-0.21352799

discriminator.fc1.weight f4 [4, 32]
0	0x3e18c6b1	0.14919545
1	0x3e0109e8	0.12601435
2	0x3e47309a	0.19452134
3	0xbb0a8089	-0.0021133742
4	0x3e914ba4	0.28378022
5	0x3e857efb	0.2607344
6	0x3e9a038d	0.30080834
7	0xbe60a2e5	-0.2193714
8	0x3e7e3790	0.24825883
9	0xbe52fc48	-0.2060405
10	0xbe0dad12	-0.13835552
11	0xbe83e44e	-0.2576012
12	0x3e87ed92	0.2654844
13	0xbe4535e4	-0.19258839
14	0xbe69fb56	-0.22849783
15	0xbe465d20	-0.19371462
16	0x3e20b343	0.15693383
17	0x3e6e0dad	0.23247404
18	0xbe8cea88	-0.27522683
19	0x3ecaf0c6	0.3963682
20	0xbd8f2daa	-0.069911316
21	0xbe30137d	-0.17194934
22	0x3e4b84b3	0.1987484
23	0xbdc56de6	-0.09640102
24	0x3e7b0e1c	0.24517101
25	0x3d766d41	0.060162786
26	0xbea8227c	-0.3283881
27	0xbe2713be	-0.16316125
28	0x3e96f530	0.29483938
29	0xbdc70c98	-0.09719199
30	0x3daf50e0	0.085603476
31	0xbcc4c7ba	-0.024021018
32	0xbe95d40a	-0.29263335
33	0x3e3b2a53	0.18277864
34	0xbd5dadfe	-0.05412101
35	0xbc944400	-0.018098831
36	0xbdb8b050	-0.09018004
37	0xbe0548b4	-0.13016015
38	0x3e1959cb	0.1497566
39	0xbe0177e3	-0.1264339
40	0xbe082de5	-0.13298757
41	0xbd55b0ab	-0.052170437
42	0xbe2eadf9	-0.17058553
43	0xbe87ea25	-0.26545826
44	0x3e3efc72	0.18650988
45	0xbe841e95	-0.25804582
46	0xbcdc4ec0	-0.02689302
47	0x3ea04cdd	0.31308642
48	0x3ea31cef	0.31858012
49	0xbe71fbe7	-0.2363125
50	0xbd38fd4b	-0.045163434
51	0x3ecfbd52	0.40574127
52	0xbe4cdc3b	-0.20005886
53	0xbe7889d7	-0.24271332
54	0xbea16cb3	-0.31528243
55	0xbeb99f38	-0.36254287
56	0x3e938289	0.28810528
57	0xbeb14b5c	-0.34627807
58	0x3e2ed39a	0.17072907
59	0x3e9c7e54	0.3056513
60	0x3e887520	0.2665186
61	0x3e009d45	0.12559994
62	0xbddc2de7	-0.10750943
63	0xbea09c72	-0.31369358
64	0xbdd3636c	-0.103216976
65	0x3887d6c2	6.4773034e-05
66	0x3d309e70	0.043119848
67	0x3d1e79be	0.03869032
68	0xbd01e108	-0.031708747
69	0x3dc3d74f	0.09562551
70	0xbdb963aa	-0.090522125
71	0xbe34208f	-0.17590545
72	0xbc8005fc	-0.015627854
73	0x3d3986a6	0.045294426
74	0x3c7c6346	0.015404528
75	0x3dfd0588	0.123545706
76	0x3dd35ce8	0.10320455
77	0x3c566ff6	0.013088217
78	0xbcfd8fbd	-0.030952329
79	0x3dc84e69	0.097805806
80	0xbd7f49d8	-0.062326282
81	0xbdb260b0	-0.08709848
82	0xbc706f36	-0.014674952
83	0x3dcc30fa	0.09970279
84	0xbc801c46	-0.015638482
85	0x3d6ca8f9	0.057778332
86	0xbd50320a	-0.05082897
87	0x3c3e1322	0.011601241
88	0x3d8ff618	0.070293605
89	0x3cce9187	0.025215877
90	0xbcffa0f6	-0.031204682
91	0xbd891a0f	-0.066944234
92	0x3b9817fc	0.004641531
93	0x3ccd0fa7	0.025031878
94	0xbc0c84a5	-0.008576547
95	0xba81b4a2	-0.0009895752
96	0x3d92f97a	0.0717649
97	0xbd7d3ffb	-0.061828595
98	0xbe3a589c	-0.18197864
99	0x3e82f126	0.25574607
100	0xbe49a7c4	-0.19692904
101	0xbda9ed3b	-0.08297201
102	0xbe5e0137	-0.21680151
103	0x3d57c265	0.052675623
104	0xbe9cfca8	-0.3066151
105	0xbdeecd01	-0.11660195
106	0xbc9cb591	-0.019129546
107	0x3e891e1f	0.26780793
108	0x3dea0094	0.114258915
109	0x3d12cf41	0.035842184
110	0x3c8e1691	0.017344745
111	0x3e8522b9	0.26003054
112	0x3da3a8e2	0.07991196
113	0xbe007ad7	-0.1254686
114	0x3d748eb1	0.059706394
115	0xbe756674	-0.23964864
116	0xbead5a62	-0.3385802
117	0x3e974413	0.29544124
118	0xbeb086a6	-0.3447773
119	0xbe8d7248	-0.27626252
120	0x3e3917f2	0.1807554
121	0xbe5de28d	-0.21668454
122	0x3e222960	0.15836096
123	0xbe325710	-0.17416024
124	0x3d0474c3	0.032337915
125	0x3df6ec63	0.12056806
126	0x3e9bcce9	0.30429772
127	0x3da2da11	0.07951749

discriminator.fc1.bias f4 [4]
0	0xbe09c367	-0.13453446
1	0xbd4ffa28	-0.050775677
2	0x3dcf6a59	0.10127706
3	0xbe3b2feb	-0.18279998

discriminator.fc2.weight f4 [2, 4]
0	0x3eb60ffa	0.35559064
1	0x3f39d201	0.72586066
2	0xbe97dd55	-0.2966105
3	0x3f0dbdfd	0.55368024
4	0xbed3cfda	-0.41369516
5	0xbd34e9bc	-0.04416822
6	0x3e40cb02	0.18827441
7	0xbf14f560	-0.5818691

discriminator.fc2.bias f4 [2]
0	0x3dd81146	0.1055017
1	0x3edee513	0.43534145

discriminator.fc3.weight f4 [1, 2]
0	0x3ebd7569	0.3700364
1	0xbf089916	-0.5335859
