src/algorithms/deep/pretrained/arga_cora.pt (torch, 380052 bytes, 9 tensors)

encoder.conv1.bias f4 [64]
0	0x3d0b273d	0.033972967
1	0x3c7d23cc	0.015450429
2	0x3bcf32a5	0.006323176
3	0x3c7a30e5	0.015270446
4	0x3cda4d88	0.026648298
5	0x3c11334b	0.008862327
6	0x3d0bd0f6	0.034134828
7	0x3bfd4ce8	0.007730115
8	0x3cf9acee	0.030477967
9	0x3c801311	0.015634092
10	0xbb4a7f8e	-0.0030898782
11	0x3c5fe7f8	0.0136661455
12	0x3cd9c5a3	0.026583498
13	0x3bd59883	0.006518425
14	0x3c2f5273	0.01070081
15	0x3c62423f	0.01380974
16	0x3bd5b990	0.006522365
17	0x3c0b8914	0.008516569
18	0x3cabb3f8	0.02095984
19	0x3cba8787	0.022769703
20	0x3c696bc2	0.014246883
21	0x3cdb8531	0.026796909
22	0x3cad5f0c	0.021163486
23	0x3cc795e5	0.024363467
24	0x3c93eb73	0.018056607
25	0x3cb6e86c	0.022327624
26	0x3cc539e4	0.024075456
27	0x3ce88d60	0.028387725
28	0x3cd76f68	0.02629824
29	0x3c8dc6ee	0.017306771
30	0x3cd2e91e	0.025745925
31	0x3c2a8ba5	0.01040927
32	0x3c81c98b	0.015843173
33	0x3b38db4f	0.002820689
34	0x3ce6b0de	0.028160509
35	0x3caf4d62	0.021399204
36	0x3b9d21e5	0.0047953003
37	0x3cfa3ea1	0.030547442
38	0x3cdf8940	0.027287126
39	0x3c9a9bf7	0.018873198
40	0x3c859cd1	0.016310127
41	0x3cbe6ee2	0.023246232
42	0x3c8886d0	0.016665846
43	0x3cb908e3	0.022587245
44	0x3c2f6bd6	0.010706862
45	0x3ccd437d	0.025056595
46	0x3cdead4e	0.027182247
47	0x3c5762fc	0.013146158
48	0x3c642508	0.013924845
49	0x3cf53fd3	0.02993766
50	0x3c4d61f2	0.012535559
51	0x3bf4211c	0.007450236
52	0x3cc3d758	0.023906395
53	0x3c9795f8	0.018504128
54	0x3ccfb318	0.025353953
55	0x3c8f37fd	0.017482752
56	0x3ca7fe96	0.020507138
57	0x3c5e8454	0.013581354
58	0x3cea276e	0.028583255
59	0x3b9bb5a8	0.0047518797
60	0x3c894832	0.016758058
61	0x3c79c637	0.015245012
62	0x3b31d490	0.0027134754
63	0x3c67cb7c	0.014147636

encoder.conv1.lin.weight f4 [64, 1433]
0	0x3d0b6e3b	0.03404067
1	0x3c9cb8e8	0.019131139
2	0xbda9423b	-0.082645856
3	0x3d3ae5b4	0.04562922
4	0x3ca4f29f	0.020135222
5	0x3d8a9e8d	0.067685224
6	0x3dbda26e	0.09259497
7	0xbca70f39	-0.020393
8	0xbd209ca6	-0.03921189
9	0x3d734712	0.05939395
10	0xbd2d0932	-0.042245097
11	0x3bc2efe6	0.0059490083
12	0x3d56abb5	0.052409846
13	0x3cb68d87	0.022284282
14	0x3d306186	0.043061756
15	0xbc117ef6	-0.0088803675
16	0xbb2419cc	-0.002503979
17	0x3a7b83e2	0.0009594542
18	0x3c102e54	0.008800108
19	0xbbaf6730	-0.005352877
20	0x3d9aa28b	0.07550534
21	0xbda32c80	-0.07967472
22	0xbcbf7788	-0.023372427
23	0x3d217c3b	0.039425116
24	0xbbf1ba16	-0.0073769195
25	0x3d316515	0.04330929
26	0xbd6249ef	-0.05524629
27	0xbd125722	-0.035727628
28	0xbcfcccd0	-0.030859381
29	0x3cc423a9	0.023942785
30	0x399aa02e	0.00029492512
31	0x3cd68f33	0.02619133
32	0xbd90bfc1	-0.07067824
33	0x3da72b3f	0.081625454
34	0x3d0f9527	0.035054352
35	0xbcdfae5a	-0.027304817
36	0x3da7af27	0.081877045
37	0x3d2b9b9f	0.04189646
38	0xbcf75af4	-0.030194737
39	0xbc7ea126	-0.0155413505
40	0xbbc77e46	-0.006088051
41	0xbc5b060c	-0.013368141
42	0x3d7a28ab	0.06107394
43	0xbd4919ce	-0.049096875
44	0xbd851a6b	-0.064991795
45	0xbd9168c6	-0.07100062
46	0x3c86f63f	0.016474841
47	0x3d633a2d	0.055475403
48	0x3c0c8fb4	0.008579183
49	0x3d358adf	0.04432189
50	0x3d020d98	0.031751245
51	0xbd547f3f	-0.051879164
52	0x3dddf694	0.10838047
53	0xbbca01ad	-0.0061647505
54	0xbcaea6be	-0.021319743
55	0x3d0302ab	0.031984966
56	0xba2ead5e	-0.0006663407
57	0x3d05e640	0.032690287
58	0xbd3b2f01	-0.045699123
59	0x3ce45585	0.02787281
60	0x3cb084f3	0.02154777
61	0xbca98180	-0.020691633
62	0xbd5e9042	-0.054336794
63	0x3d62b9a7	0.055352833
64	0xbd2c634d	-0.042086888
65	0xbb35fcbc	-0.002776905
66	0x3c888ed2	0.016669665
67	0x3da38a65	0.07985381
68	0x3d866c52	0.06563629
69	0xba10e7f5	-0.00055277284
70	0xbd374c31	-0.044750396
71	0x3d4c6b7d	0.049907196
72	0x3d67fdf4	0.056638673
73	0x3d2794ce	0.040913396
74	0xbc2da9ce	-0.010599567
75	0xbd822331	-0.063543685
76	0xbb80597c	-0.0039169174
77	0x3dc4dcb3	0.096124075
78	0x3c8d68eb	0.017261943
79	0xbb922056	-0.004459421
80	0x3db08a05	0.08620075
81	0x3c59b6ff	0.013288259
82	0xbdc672a4	-0.09689835
83	0xbcc27b55	-0.02374045
84	0xbd0c684e	-0.03427916
85	0xbd47bdc9	-0.048764978
86	0x3c4b8494	0.012421746
87	0xbd7c7d51	-0.06164295
88	0xbd2596c1	-0.040426973
89	0xbcbd8ef9	-0.023139464
90	0x3b293be2	0.0025823046
91	0x3cac910a	0.021065254
92	0xbb339b33	-0.0027405738
93	0xbda4c4bc	-0.080453366
94	0xbccf9871	-0.025341244
95	0xbd5edcc4	-0.054409757
96	0x3a245d70	0.0006270027
97	0xbbf00fc9	-0.0073261005
98	0xbb755bde	-0.003743879
99	0xbbf14298	-0.007362675
100	0xbc79056b	-0.015199046
101	0x3d09fcdb	0.033688407
102	0xbd90e632	-0.07075156
103	0xbc32ebb7	-0.010920457
104	0x3d72f6db	0.05931745
105	0x3daea089	0.085267134
106	0xbd128d93	-0.035779547
107	0xbd68e04f	-0.056854542
108	0x3d4d968b	0.050192397
109	0x3dc76226	0.09735517
110	0x3dc4d4b1	0.0961088
111	0xbd9d5f1f	-0.076841585
112	0x3d3e5743	0.046469938
113	0x3d8abba6	0.06774072
114	0x3d61105e	0.05494725
115	0x3d8b159d	0.06791232
116	0xbca7df7a	-0.020492304
117	0x3db4b0a7	0.08822756
118	0xbce53fd9	-0.027984546
119	0xbd834479	-0.064095445
120	0x3d8b8627	0.06812697
121	0x3c2a0620	0.010377437
122	0xbbf4bae3	-0.0074685677
123	0x3d49affa	0.04924009
124	0xbdba1153	-0.090853356
125	0xbc793abd	-0.015211758
126	0xbc1a0906	-0.009401565
127	0xbd6c8150	-0.05774051
128	0x3c9a124a	0.018807549
129	0xbd1db373	-0.038501214
130	0x3cdd3187	0.027001156
131	0x3d4715f6	0.048604928
132	0x3bb3b7cc	0.005484557
133	0x3cf25451	0.02958122
134	0x3c1f1b2f	0.009711071
135	0x3c242d5d	0.010020581
136	0x3b97a64d	0.004627979
137	0x3d1726a2	0.036902077
138	0xbd4538bd	-0.048149813
139	0xbdb7b38a	-0.08969791
140	0x3d68ecbc	0.056866392
141	0x3d8022ae	0.062566146
142	0x3ccaefee	0.02477261
143	0xbd86b8d5	-0.06578223
144	0xbd6a15b2	-0.057149597
145	0x3c97f073	0.018547272
146	0xbd514fc7	-0.051101472
147	0x3b2762c2	0.0025541042
148	0x3d607c80	0.054806232
149	0xbcd222b1	-0.025651308
150	0xbced5fb0	-0.028976291
151	0x3aa63e68	0.0012683393
152	0x3cac5a04	0.021039017
153	0xbdb84b70	-0.089987636
154	0x3d4ce849	0.050026212
155	0x3d3cc0e1	0.04608238
156	0xbd944a3f	-0.07240724
157	0xbcce223a	-0.025162805
158	0x3bca371a	0.0061711194
159	0x3d011947	0.031518247
160	0x3dcf1066	0.1011055
161	0x3d7f63fd	0.062351216
162	0x3d9c428a	0.07629879
163	0xbd090a40	-0.03345704
164	0x39246124	0.00015676446
165	0x3d03acb3	0.03214712
166	0x3c30f725	0.010801111
167	0x3db2cf2b	0.087309204
168	0xbdb786c6	-0.08961253
169	0x3db6af0a	0.08920105
170	0x3d771137	0.06031915
171	0x3d88b0d5	0.06674353
172	0x3d53affb	0.0516815
173	0x3d3028e3	0.043007743
174	0x3ca82a37	0.020527942
175	0xbcfd04b7	-0.030886037
176	0x3ba53b2a	0.0050424533
177	0x3d20dcc7	0.03927305
178	0x3d9dddb4	0.07708302
179	0x3cda092a	0.026615698
180	0xbd1ce32d	-0.03830259
181	0x3dbf31cb	0.09335669
182	0xbc58817e	-0.013214467
183	0xbd73b11d	-0.05949508
184	0xbcdca8ad	-0.0269359
185	0xbd8bbf10	-0.06823552
186	0x3d590840	0.052986383
187	0xbd4081bb	-0.04699872
188	0xbb06bdd8	-0.0020559933
189	0x3db5d133	0.08877792
190	0xbd98decc	-0.0746437
191	0x3d20ef7b	0.039290886
192	0x3c67b5ea	0.014142493
193	0x3d41a152	0.047272988
194	0xbc7e44ef	-0.015519365
195	0xbb275dac	-0.002553801
196	0xbd96e726	-0.07368307
197	0x3d8e5927	0.06950598
198	0x3cc53e96	0.024077695
199	0xbcfe5e23	-0.031050747
200	0x3dc1f246	0.09470038
201	0x3ce2fb31	0.027707668
202	0xbcc2ebb6	-0.023794036
203	0x3d70ee3e	0.058820955
204	0xbd591428	-0.052997738
205	0x3c88e8ef	0.016712634
206	0xbd1a054e	-0.037602715
207	0x3cbdaa0a	0.02315237
208	0x3c24f3ba	0.010067875
209	0xbdac9b7d	-0.084280945
210	0xbcd4d160	-0.025978744
211	0x3d0bfcf9	0.0341768
212	0x3d0b66b4	0.034033492
213	0xbc943cd2	-0.018095408
214	0xbc86adde	-0.016440328
215	0xbd316b6d	-0.04331534
216	0x3da4338c	0.08017644
217	0x3d3154fa	0.04329393
218	0xbdaa0391	-0.083014615
219	0x3db6dcb9	0.08928818
220	0xbcc253cc	-0.023721598
221	0xbd825ebc	-0.063657254
222	0x3b9123d8	0.0044293217
223	0x3c021d98	0.007941626
224	0x3d210387	0.039310005
225	0x3d819588	0.06327349
226	0xba8938e4	-0.0010469225
227	0x3ca9be23	0.020720547
228	0xbd15216f	-0.036408838
229	0x3a278f33	0.0006391883
230	0xbd1ae5ce	-0.037816815
231	0xbc8c345f	-0.017114816
232	0x3c95b531	0.018274875
233	0x3d5383f6	0.05163952
234	0x3c208f31	0.0097997645
235	0xbb0654cf	-0.0020497327
236	0xbd0bd2c4	-0.03413655
237	0xbd488c8a	-0.048962153
238	0x3d8c7d52	0.068598405
239	0x3d93e8e7	0.07222157
240	0x3d65b5b5	0.056081492
241	0xbae3220c	-0.0017328872
242	0x3cd1c903	0.025608545
243	0x3dcc730d	0.09982882
244	0xbcf3495b	-0.029698065
245	0xbca06d08	-0.01958324
246	0xbd07f4a3	-0.033192288
247	0x3d871681	0.06596089
248	0x3a928d5e	0.0011181047
249	0x3ce6abbe	0.028158065
250	0x3d4f5787	0.050620582
251	0x3d8956e4	0.06706026
252	0xbc66c5be	-0.014085231
253	0xbd37464f	-0.044744786
254	0xbc5a4ab9	-0.013323479
255	0x3d4a0e11	0.04932982

encoder.conv2.bias f4 [32]
0	0x3cd378c6	0.025814425
1	0xbcb64b7e	-0.022252794
2	0xbc822761	-0.015887918
3	0x3cdb6c10	0.026784927
4	0xbcaa1f1f	-0.020766793
5	0xbcbd310b	-0.023094675
6	0x3c980579	0.018557297
7	0x3cb6d43e	0.022318002
8	0xbcd6b069	-0.026207166
9	0xbcc9b979	-0.024624573
10	0x3cc223e6	0.023698758
11	0xbcba9b8d	-0.02277925
12	0x3bea79d3	0.007155636
13	0xbcb8b609	-0.022547739
14	0xbcb05847	-0.021526469
15	0x3c849677	0.016185028
16	0x3cb4be11	0.022063287
17	0x3a9b9539	0.0011870033
18	0xbb4073f7	-0.0029365995
19	0xbcac44e9	-0.021028953
20	0xbcc69d97	-0.024245067
21	0xbc429da4	-0.011878405
22	0x3cbdc4e7	0.02316518
23	0x3cbf5fbb	0.023361078
24	0xbc05c6f3	-0.008165109
25	0xbcaec2fa	-0.021333206
26	0xbc4eeb39	-0.012629324
27	0x3cad3d66	0.021147441
28	0xbc3abd8d	-0.0113977315
29	0x3cc1b003	0.0236435
30	0xbcc1c20a	-0.023652095
31	0xbcd9a361	-0.026567163

encoder.conv2.lin.weight f4 [32, 64]
0	0xbc075dc1	-0.008262099
1	0x3db386b2	0.087659255
2	0x3e666bf4	0.22502118
3	0x3dd68751	0.10475028
4	0x3e241f81	0.16027643
5	0x3e4536e3	0.19259219
6	0xbd457d41	-0.048215155
7	0x3e0988fd	0.13431163
8	0x3e311008	0.17291272
9	0x3e7a55d8	0.2444681
10	0x3e0ecf91	0.13946368
11	0xbe40fef5	-0.18847258
12	0x3cea2654	0.02858273
13	0x3df151e3	0.11783197
14	0xbe32a088	-0.1744405
15	0xbe6572fa	-0.22407141
16	0xbd8c0906	-0.068376586
17	0xbe35b38a	-0.1774427
18	0xbe55cf87	-0.20879947
19	0xbe4ec102	-0.20190814
20	0xbcb28167	-0.02179022
21	0x3d504e00	0.050855637
22	0x3e3e054e	0.18556711
23	0xbdafe14d	-0.085878946
24	0x3e8a8203	0.27052316
25	0xbdb9c1c2	-0.090701595
26	0xbe386ff7	-0.18011461
27	0x3e7468e0	0.23868132
28	0xbd953fb6	-0.072875425
29	0xbe4bc6f6	-0.19900116
30	0xbe2e79e6	-0.17038688
31	0x3e6c90ab	0.23102061
32	0x3e4afcfc	0.19823068
33	0xbe0d6f7f	-0.13812064
34	0xbe6d0944	-0.23148066
35	0xbe3413ce	-0.1758568
36	0xbde74b64	-0.112936765
37	0xbe3479d4	-0.17624599
38	0xbe2c29da	-0.1681284
39	0xbe7694a5	-0.24080141
40	0x3e2937b5	0.16525157
41	0xbe3e2420	-0.18568468
42	0x3e6bff5f	0.23046635
43	0x3d16b508	0.03679374
44	0xbe621e28	-0.22081816
45	0x3dfa6619	0.12226505
46	0xbd23d77b	-0.04000042
47	0x3e0121c2	0.12610534
48	0x3e3aad5c	0.18230194
49	0xbd144ddd	-0.03620707
50	0xbe3d729f	-0.18500756
51	0x3d26df54	0.040740326
52	0xbe342310	-0.175915
53	0xbbbc21b1	-0.005741321
54	0xbe570721	-0.20998813
55	0x3de6e065	0.112732686
56	0xbe252f3b	-0.16131298
57	0xbd411abc	-0.047144637
58	0x3e800745	0.25005546
59	0x3e1cf6e8	0.15328562
60	0x3e4fba9c	0.2028603
61	0xbd09df1a	-0.03366003
62	0xbe1f05ae	-0.1552951
63	0x3d5ff503	0.05467702
64	0xbe7d843c	-0.24757475
65	0x3d856bb6	0.06514685
66	0x3ce07b96	0.02740268
67	0xbe0531f3	-0.13007335
68	0xbe740b1b	-0.23832361
69	0xbe251078	-0.16119564
70	0x3e394383	0.1809216
71	0x3dfa4c81	0.12221623
72	0xbe843431	-0.2582107
73	0xbdd31cd3	-0.10308232
74	0x3e300bf9	0.17192067
75	0xbdf3e3a2	-0.11908652
76	0xbe6de312	-0.23231152
77	0x3e0026f1	0.12514855
78	0x3d894ff8	0.06704706
79	0x3df31a4e	0.118702516
80	0xbd8a2b06	-0.06746487
81	0x3e317805	0.1733094
82	0x3e26af5e	0.16277835
83	0x3d0b88cb	0.034066003
84	0x3da3bc88	0.07994944
85	0x3d361758	0.044455856
86	0x3e5448f6	0.20730957
87	0x3d909d92	0.07061304
88	0xbe2ec7bf	-0.17068385
89	0x3e2d1edb	0.16906302
90	0x3dbebdb9	0.093135305
91	0x3e23a673	0.15981464
92	0xbe0716b4	-0.13192254
93	0x3e38d2a2	0.180491
94	0xbe53adff	-0.20671843
95	0x3e3cf1de	0.1845164
96	0xbd14f3f6	-0.03636547
97	0x3e62eb39	0.22160043
98	0xbe71ea79	-0.236246
99	0xbdf21989	-0.11821277
100	0x3de42927	0.11140662
101	0x3c895a10	0.016766578
102	0xbdf89535	-0.12137834
103	0x3e4c6cb6	0.19963345
104	0xbe6b42de	-0.22974727
105	0xbd7668dc	-0.060158595
106	0x3d093388	0.03349641
107	0x3db824ba	0.0899138
108	0x3e0a4e15	0.13506348
109	0x3db93958	0.090441406
110	0xbe409077	-0.18805109
111	0x3e4ec2fa	0.20191565
112	0x3e37a7fb	0.17935173
113	0x3e5a3eae	0.21312973
114	0x3e3ef004	0.18646246
115	0x3cbfd3d9	0.023416447
116	0x3d9c24ea	0.07624228
117	0xbda6ca85	-0.08144096
118	0xbe73e862	-0.23819116
119	0x3dbf5064	0.09341505
120	0x3e3304c5	0.17482288
121	0x3c46e28e	0.012138976
122	0x3de49a2e	0.1116222
123	0xbe38686f	-0.18008588
124	0xbd25e5e2	-0.040502436
125	0x3dc70ad0	0.09718859
126	0x3e625a29	0.22104706
127	0x3e60a787	0.21938907
128	0x3e4204e5	0.1894718
129	0xbe2de724	-0.16982704
130	0xbda44541	-0.08021022
131	0x3d44de37	0.048063483
132	0x3cedd927	0.02903421
133	0xbe1c7ae7	-0.15281259
134	0x3e28c78b	0.1648237
135	0xbe5e5792	-0.21713093
136	0xbe3408c7	-0.17581473
137	0x3d190f25	0.03736796
138	0x3e55161a	0.20809212
139	0x3e0cd026	0.13751277
140	0xbe8dcdc2	-0.27696043
141	0x3e1906c6	0.1494399
142	0x3dc744a4	0.09729889
143	0x3e822387	0.2541773
144	0xbddcd14a	-0.10782106
145	0x3e4ceb51	0.20011641
146	0x3e34215b	0.17590849
147	0xbe25c8f8	-0.16189945
148	0x3d8a7ac5	0.06761698
149	0xbe3c2544	-0.1837359
150	0xbdea942c	-0.11454043
151	0x3d7d370a	0.061820067
152	0xbe8208d1	-0.2539735
153	0x3c1b53bd	0.009480414
154	0x3e646530	0.22304225
155	0x3c6850d3	0.014179426
156	0xbe126ba1	-0.1429887
157	0x3e39dea0	0.18151331
158	0x3d06aa61	0.03287733
159	0xbc8dc3f9	-0.017305361
160	0x3d65e977	0.056130853
161	0xbdce360c	-0.100689024
162	0x3dc17fc8	0.094482005
163	0x3ccca34e	0.024980213
164	0x3d897585	0.06711868
165	0x3cd1a8aa	0.02559312
166	0x3e4a1cf4	0.19737607
167	0xbe6a47a4	-0.22878891
168	0xbdbaa81e	-0.09114097
169	0x3da7934e	0.08182393
170	0x3e103f03	0.14086537
171	0x3e7c7640	0.24654484
172	0x3e1433c6	0.14472875
173	0xbd39268c	-0.045202777
174	0x3e3f631b	0.1869015
175	0xbd47ced1	-0.04878122
176	0xbdb9dc32	-0.09075202
177	0x3db5df2a	0.08880456
178	0x3d059485	0.032612342
179	0xbda07bbb	-0.078361
180	0x3dad736b	0.0846928
181	0xbe4fbd64	-0.2028709
182	0xb99060c8	-0.00027537928
183	0xbd83782f	-0.064194076
184	0xbdc36be1	-0.09542061
185	0x3dd0ac76	0.10189144
186	0x3b022e56	0.0019864044
187	0xbdb6208e	-0.08892928
188	0xbe532edd	-0.20623346
189	0x3e30a554	0.17250568
190	0xbd0b2185	-0.033967514
191	0xbe404b8a	-0.18778816
192	0x3e669f0c	0.22521609
193	0x3e578157	0.21045433
194	0x3d88e640	0.06684542
195	0xbd944eef	-0.07241618
196	0x3de9d2b9	0.11417145
197	0x3e070513	0.1318553
198	0x3e8212c2	0.25404936
199	0x3cf1cbbe	0.029516097
200	0xbdb4cdf5	-0.08828346
201	0xbd2dcea0	-0.04243338
202	0x3d27244a	0.040806092
203	0xbe860bb0	-0.26180792
204	0xbe89f6ea	-0.26946193
205	0x3e86d485	0.26334015
206	0x3d945955	0.07243601
207	0x3d7c884b	0.061653417
208	0x3cf431b8	0.029808864
209	0xbb5c0c76	-0.0033576763
210	0x3df3e6c1	0.11909247
211	0xbe3fc44f	-0.1872723
212	0xbd904895	-0.07045094
213	0x3e7084c2	0.23488143
214	0xbd801f8e	-0.062560186
215	0xbdfd507c	-0.12368867
216	0x3e889071	0.266727
217	0xbe0bcb65	-0.13651808
218	0x3ddbb174	0.10727206
219	0x3dcf4aa3	0.10121658
220	0xbdac7a00	-0.08421707
221	0x3c258314	0.010102052
222	0x3c5aa948	0.013346024
223	0xbdb32adf	-0.087484114
224	0x3e3519b4	0.17685586
225	0xbe82268c	-0.25420034
226	0xbe216b86	-0.15763673
227	0xbe300853	-0.17190675
228	0x3db0890f	0.08619892
229	0x3dad9513	0.08475699
230	0xbe6d9403	-0.23200993
231	0xbddd069a	-0.10792275
232	0x3e5a6c2f	0.21330331
233	0xbdebb59c	-0.115092486
234	0x3e85360a	0.2601779
235	0xbe2c8681	-0.16848184
236	0x3dad700a	0.084686354
237	0xbe714452	-0.23561218
238	0x3e4999c9	0.1968757
239	0xbc2cb7b9	-0.01054185
240	0x3d211b2f	0.039332565
241	0x3d0c370e	0.03423219
242	0x3e46fdca	0.1943275
243	0xbe6b9924	-0.23007637
244	0xbe5fcb43	-0.21854882
245	0xbe6691d1	-0.22516562
246	0xbdf9c4e5	-0.12195758
247	0xbe6cc385	-0.2312146
248	0x3c92eb2e	0.017934408
249	0xbd1ef3c2	-0.038806684
250	0x3e7e1633	0.24813156
251	0xbe121d31	-0.14268948
252	0xbe675a4e	-0.22593042
253	0x3e59bd31	0.21263577
254	0x3e19fafd	0.1503715
255	0x3e1805dd	0.14845987

discriminator.fc1.weight f4 [4, 32]
0	0x3e1de9a5	0.1542116
1	0x3ea84e1f	0.32872102
2	0x3d89170e	0.066938505
3	0x3e9d4a72	0.3072086
4	0xbea281b8	-0.31739593
5	0x3e37a5f8	0.17934406
6	0xbe97283a	-0.29522878
7	0xbda45471	-0.080239184
8	0xbe9116f0	-0.28337812
9	0xbe65b552	-0.2243245
10	0x3e15981f	0.14608811
11	0x3e8ee6c1	0.27910426
12	0xbe982f5c	-0.29723632
13	0xbeab5759	-0.33465078
14	0x3e773602	0.24141696
15	0xbe4ef75f	-0.20211552
16	0x3e85ac99	0.26108244
17	0x3e722df4	0.23650342
18	0xbe9b2d8e	-0.30308193
19	0xbeb302c8	-0.3496306
20	0x3eba1654	0.3634516
21	0x3e4648a7	0.19363652
22	0x3e2ef5a7	0.17085896
23	0xbe879d92	-0.26487404
24	0x3e3635fa	0.17794028
25	0xbea1f45b	-0.3163174
26	0xbd341c1e	-0.043972127
27	0x3e6e38ea	0.23263898
28	0x3e56c4ee	0.2097356
29	0xbe6e0820	-0.23245287
30	0xbe8c2422	-0.27371317
31	0xbd03c5d0	-0.03217107
32	0x3e2e83ae	0.1704242
33	0xbe455883	-0.19272046
34	0xbda60253	-0.08105912
35	0x3e398637	0.18117605
36	0xbe699cf7	-0.22813784
37	0x3e974f20	0.29552555
38	0x3eb12271	0.3459659
39	0xbe662709	-0.22475828
40	0xbd995eeb	-0.07488807
41	0xbe873e2a	-0.26414615
42	0x3c84b4ab	0.01619943
43	0x3e8cfc03	0.2753602
44	0x3e7e3731	0.24825741
45	0x3ea315a7	0.31852457
46	0x3e1f27d1	0.15542533
47	0xbeb3cdac	-0.35117853
48	0xbe52c276	-0.20581993
49	0x3e815170	0.25257444
50	0x3e9ec5fb	0.31010422
51	0x3e813125	0.25232807
52	0x3e8dd85c	0.27704132
53	0x3ec7476a	0.38921672
54	0xbea11301	-0.3145981
55	0x3e872a72	0.2639957
56	0xbe8a7689	-0.2704356
57	0xbe3654ee	-0.17805836
58	0xbe7067fc	-0.23477167
59	0xbdf5b20c	-0.1199685
60	0x3eaebd94	0.34129012
61	0x3e879906	0.26483935
62	0xbe4f53a9	-0.20246758
63	0xbe8e1b21	-0.27755073
64	0x3cb55e49	0.022139685
65	0x3c463345	0.012097185
66	0xbea85a72	-0.32881504
67	0x3eaaf6ff	0.33391568
68	0x3ad3cb4f	0.0016158613
69	0x3e067746	0.13131437
70	0x3e9daabc	0.30794322
71	0xbe9cadad	-0.30601254
72	0xbca81641	-0.020518424
73	0x3ecf5b09	0.40499142
74	0xbe8ad904	-0.27118695
75	0xbe80e250	-0.25172663
76	0x3ead850a	0.33890563
77	0x3e845e6a	0.25853282
78	0xbeba3a53	-0.36372623
79	0x3e610cfe	0.21977612
80	0xbe1c4258	-0.15259683
81	0x3eb5e600	0.3552704
82	0x3e7b35da	0.24532261
83	0xbe3527be	-0.17690942
84	0xbe58d38c	-0.21174449
85	0x3e92196d	0.28535023
86	0x3e36e3f3	0.17860393
87	0x3eaf739c	0.3426789
88	0xbeab55ca	-0.3346389
89	0x3e86d3ef	0.26333568
90	0x3d175bda	0.03695283
91	0x3e7234ff	0.23653029
92	0xbe55865c	-0.20852035
93	0xbd892898	-0.06697196
94	0x3e9ebc83	0.31003198
95	0xbe76aa04	-0.24088293
96	0x3ebfc8dc	0.3745793
97	0xbe0ce916	-0.1376079
98	0x3e9cb18f	0.30604216
99	0xbe9efea2	-0.31053644
100	0xbd33175f	-0.04372346
101	0x3ecab001	0.39587405
102	0x3e8bc2cd	0.2729706
103	0x3e1c9d7d	0.15294452
104	0x3e4f3a3b	0.20237057
105	0xbdaebc52	-0.08532013
106	0x3e2758e9	0.1634251
107	0xbe30035d	-0.17188783
108	0xbe47f18c	-0.19525737
109	0xbe64128e	-0.22272703
110	0x3c944d6a	0.01810332
111	0x3e8e536b	0.27798018
112	0x3e7161b3	0.23572426
113	0xbe602204	-0.21887976
114	0x3e7653dd	0.24055429
115	0xbe43db19	-0.19126548
116	0xbda27c5d	-0.07933877
117	0x3e0b79f1	0.13620736
118	0x3e503c17	0.20335422
119	0xbec8437b	-0.39113984
120	0x3e9fc052	0.31201416
121	0x3d1fe866	0.03903999
122	0xbe8bb52a	-0.27286655
123	0x3c2f2fd5	0.010692556
124	0xbe79364d	-0.2433712
125	0xbd9530e0	-0.07284713
126	0x3e7bc0ac	0.24585217
127	0x3eaf3d97	0.34226677

discriminator.fc1.bias f4 [4]
0	0xbe18e209	-0.14929976
1	0xbdfc8d22	-0.123316064
2	0xbe0a0ff9	-0.13482656
3	0xbdfc4626	-0.12318067

discriminator.fc2.weight f4 [2, 4]
0	0x3ee4b17b	0.44666657
1	0x3f34e5bd	0.7066305
2	0x3ebabe94	0.36473525
3	0x3ea93ed2	0.3305574
4	0x3dfcbec2	0.12341072
5	0xbf09c245	-0.53812057
6	0x3e135248	0.14386857
7	0xbef94516	-0.4868552

discriminator.fc2.bias f4 [2]
0	0x3e95acc7	0.2923338
1	0xbf0a5103	-0.54029864

discriminator.fc3.weight f4 [1, 2]
0	0x3ef6c399	0.48196104
1	0xbf0fc820	-0.5616474
