src/algorithms/deep/pretrained/arga_citeseer.pt (torch, 720396 bytes, 9 tensors)

encoder.conv1.bias f4 [48]
00000000: d2c5 ab3c 9900 8d3c 1442 77bb ee0e 173c
00000010: 48a1 373c c11c 943c 5736 403c 257b 663c
00000020: 1844 f53b 20c1 593c c946 673c 48c5 073c
00000030: 2428 9c3a 8ef5 bb3b c619 8a3c f087 ff3b
00000040: e6b1 803c 7b87 433b ee51 073c 5e6a 743c
00000050: 3792 493c 4d10 c53b f8de 013c 9e0f 803c
00000060: 9b06 723c 4e41 40bb a16c d43b 0091 813c
00000070: 6d32 ac3c 6f96 ab3c 64c0 4c3c ba4d c33c
00000080: 0769 a13c c47a 9f3c e7b5 873c e4ad 7d3c
00000090: 2b38 823c 1bbe 83bb ee4d a53b 5c78 203c
000000a0: 5e82 b93c c5d1 803b 007e 943c 0c3e 833c
000000b0: a559 b03b bb60 963c bb3d b13c 4188 b53c
0.020968352 0.017212199 -0.0037728595 0.009219868 0.011207886 0.018080117 0.011731706 0.014067446
0.007484924 0.0132906735 0.014115998 0.008286782 0.0011913818 0.0057360595 0.016857993 0.0077981874
0.015709829 0.0029835391 0.00825928 0.014917938 0.012302927 0.006013906 0.007926695 0.015632447
0.014772083 -0.00293358 0.006482676 0.015816212 0.021020139 0.020945756 0.012497041 0.023840774
0.019703401 0.019467719 0.01656623 0.015483353 0.015895924 -0.004020465 0.0050446903 0.009794321
0.022645172 0.0039312565 0.018126488 0.016020797 0.00538178 0.018356672 0.02163588 0.022159697

encoder.conv1.lin.weight f4 [48, 3703]
00000000: 9838 1abb ca3a 143d db2d 223d 67e9 793d
00000010: 8ac4 a2bc f948 313d 737b 2cbc d4a2 963b
00000020: 62bd f6ba 0c16 213b 1692 b0bc 9a0a 4c3d
00000030: 12ec 5cbd 84f5 833d 0b55 d5bc 44cc 973b
00000040: 39c1 2a3d 5dd2 593c cbe5 833c 55f8 db3c
00000050: df1d ca3c 21a6 8c3c 8269 a0bc 1d9a 9d3c
00000060: 063e 4abd 3cf2 bebc 7da7 9d3d 83bb 4d3d
00000070: ebd1 f4bb dc28 6abc 7cee f7bc 0235 1f3d
00000080: 5f86 373d d564 53bd 3a6b 4d3d 1c60 1a3d
00000090: 94c6 623d 5a59 0c3d d6be 6ebd a18d 073d
000000a0: 0a3d a5bb d235 0dbc 5181 1f3d 9a56 1f3d
000000b0: 4f4e 943c 683e 8f3d d81b 083c fd70 b63c
000000c0: 4775 5c3d af07 213d af6f 0cbd e58c 90bc
000000d0: 7a25 af3c 8be3 a83c 2396 3a3d f549 183d
000000e0: b235 4bbc 334e 4e3d 0ce8 573d e0fb 8b3c
000000f0: f87b 01bd 3f3f 163d 4d57 293c b231 233d
00000100: 0578 8a3c 485f d8bc 555d 95bd 1f85 f7bc
00000110: c1b7 6a3d ba22 4dbd 5c7c 16bc e716 5f3d
00000120: d643 403d b0c5 4a3c 91ba 9dbc 9122 10bc
00000130: 7d35 cc3b 10fa 41bd 83ad 223c 6b26 163c
00000140: c933 e5bb 7bd1 363c 9b47 fb3c 4c8d 37bc
00000150: 6a07 b43c 62ff ebbc 40b3 5e3c 8143 873a
00000160: 0500 b4bc a9ac 533d 6518 ba3c 8273 82bc
00000170: 0fd6 2cbc a9fd 153d c516 833c bf63 6fbc
00000180: b966 f03c 54e2 b93c 3025 a13b 067e 0b3d
00000190: 90b0 f13c 9ca3 7ebc 9ff4 803d cf54 69bc
000001a0: 4bec 643c d450 943c c047 3fbb 4666 033d
000001b0: 94c1 053d c7f7 b03b a737 d53b 93e0 3d3d
000001c0: ac7e 4fbd a05c a3bc e7b6 343d 5708 62bd
000001d0: 5c01 6e3b a744 eabc 2fbd cd3c a805 5abc
000001e0: 96c9 a0bc 6817 dabc 8ffe fabc fb9c a4bc
000001f0: 3227 3ebc b729 683d 0102 553c 88e2 933b
00000200: 6e9c 81bd f04a 6b3b b065 313d f815 0f3d
00000210: 12e6 1abd 16ef d63b 15bc 42bc b7c6 2abd
00000220: c15c cf3a 5351 9e3c a400 e43b 1a8d 14bd
00000230: 9d48 053c 5101 ddbc f99a 563d 562a c13c
00000240: f3d9 d5bc 40a5 fd3c 3c6f b03c f880 18bd
00000250: 85ac 81bd e2a9 633c 891b b73c 4b42 6f3d
00000260: 6ecb 4d3c 48fa 383c f475 eb3c fe64 083c
00000270: 6c3e 4bbd d7b3 6f3b 3171 43bc 323e 003d
00000280: 1869 b23b d0da 673c 13bf 5e3d ca62 223d
00000290: f7c8 253d ae6a 71bc 47f3 70bb 228e f0bc
000002a0: 6cca cfbc 332e 68bb 9702 fa3c 82e4 66bb
000002b0: 7d91 adbb 869b f73c bc6b 373c 6bb5 e93c
000002c0: df3c b3bc 4e63 09bd 0dee 213d dea4 1bbd
000002d0: d7fe 963d 700b f3bc 2b4c 763d 33c4 023d
000002e0: bd88 2f3d aa52 1c3d 5ae0 763c ff8f 51bd
000002f0: 574b 5d3d d7d4 3cbb 2a31 5a3d 24d5 893c
00000300: b43e a43c 2bc2 0d3d 01dd 533d 06b6 1cbc
00000310: 14a5 e5bc 23a0 643d 454c c63c 41fc cb3c
00000320: 3093 cf3c 3a4d f13c 8c69 79bd ead4 c6bb
00000330: 54c0 3abd 3abc 7bbc a868 abbc 29b1 6d3d
00000340: 0bbb 143c 5a6a d23a 67be b53c 4e70 693d
00000350: ba81 a63d 3432 c73b 196a 9ebc 7b98 303d
00000360: fe09 e63c ac4f 093d 9a18 913c 1143 653d
00000370: a84b 853a 8f15 903c c05e d63b 3ea8 86bc
00000380: 8b27 9fbd eb09 8bbb 95a7 873c 579d 45bc
00000390: 8f6e 51bd c5f9 013d 647d 873d 0896 a23c
000003a0: 3fe3 ba3c a315 cc3c 80f7 82bd 0482 313c
000003b0: 0203 043d b416 cd3c 7456 bd3c 5050 54ba
000003c0: 34e7 8f3c e0fe 353c 8df7 6cbc 986f a83d
000003d0: d4f2 7c3c 5aac 993c 8caa 15bd 3f32 a73c
000003e0: 3374 dfbc 06aa 543d e086 7f3d 66f1 99bc
000003f0: 4fb7 233d 5618 13bd 72cd 06bd 5243 063d
-0.0023532268 0.036188878 0.039594512 0.061013605 -0.019869108 0.043282483 -0.010527479 0.0045970473
-0.0018824751 0.0024579791 -0.021554034 0.049814798 -0.05393607 0.06443313 -0.026041528 0.0046325047
0.041688178 0.013294783 0.016100785 0.026851812 0.024672447 0.01716906 -0.01958156 0.019238526
-0.049375556 -0.023308866 0.076979615 0.050227653 -0.0074713132 -0.014291968 -0.030265085 0.03886891
0.04480588 -0.051609833 0.050151087 0.037689313 0.05536516 0.0342649 -0.058287464 0.033094052
-0.005042677 -0.008618789 0.038941685 0.03890095 0.018103747 0.06994325 0.00830742 0.022270674
0.053822782 0.03931397 -0.034286197 -0.017645309 0.021380175 0.020616313 0.045553338 0.037179906
-0.012402939 0.050367545 0.05271153 0.017087877 -0.031612366 0.03668141 0.010335756 0.039842315
0.016902933 -0.026412621 -0.07293192 -0.030214844 0.057304148 -0.050081946 -0.009184923 0.0544652
0.046939693 0.012376234 -0.019254 -0.008797304 0.0062319622 -0.04735762 0.009929064 0.009164433
-0.0069946987 0.0111583425 0.030673793 -0.011203121 0.021976192 -0.0288083 0.013592541 0.00103198
-0.021972666 0.051678333 0.02271671 -0.015924219 -0.010549082 0.036618862 0.016002068 -0.014611184
0.029345857 0.02269093 0.004917763 0.034055732 0.029503137 -0.015541937 0.06296658 -0.014241411
0.013972352 0.018104948 -0.0029187053 0.032079957 0.032655314 0.005400631 0.0065068784 0.04635675
-0.050657913 -0.019941628 0.04411974 -0.055183735 0.0036316728 -0.02859719 0.025114624 -0.013307013
-0.019627374 -0.02662249 -0.030638961 -0.020094385 -0.011606025 0.056680407 0.013000966 0.0045130886
-0.06328665 0.003590282 0.043309867 0.03493306 -0.03781707 0.006559263 -0.011885663 -0.041693415
0.001582049 0.019325888 0.006958084 -0.036267377 0.008134988 -0.026978167 0.052393887 0.023579758
-0.026104903 0.030962586 0.021537416 -0.03723237 -0.063317336 0.013895484 0.022351997 0.05841283
0.012560708 0.01129014 0.028742768 0.00832486 -0.049620077 0.0036575699 -0.011928842 0.031309314
0.005444657 0.01415129 0.05438144 0.039644994 0.040474858 -0.014734907 -0.0036766098 -0.02936465
-0.025365077 -0.0035427928 0.030518813 -0.0035231416 -0.0052968846 0.030225527 0.0111951195 0.02852889
-0.021879612 -0.03354197 0.039533664 -0.037999026 0.073728256 -0.02966854 0.060131233 0.03192539
0.042855013 0.038164772 0.015068138 -0.051162716 0.054026928 -0.0028813386 0.053269543 0.016825266
0.02004943 0.034609 0.051724438 -0.009564882 -0.028032817 0.05581678 0.02420629 0.024900557
0.02533874 0.02945577 -0.060891673 -0.006067862 -0.045593575 -0.015364701 -0.020923927 0.05803028
0.009077798 0.0016053424 0.022185517 0.056991868 0.08130212 0.0060789827 -0.0193377 0.043114167
0.028080937 0.033523247 0.017711926 0.055972163 0.0010169642 0.017588405 0.006542057 -0.016437646
-0.07771214 -0.0042431257 0.016559402 -0.0120614385 -0.051130828 0.03173234 0.06615713 0.019846931
0.022813438 0.024912661 -0.06394863 0.010834221 0.03222943 0.02503524 0.023112513 -0.00080991257
0.0175663 0.01110813 -0.014463318 0.0822441 0.015438754 0.018758941 -0.0365396 0.020409701
-0.027277088 0.05191996 0.062384486 -0.018791866 0.03996974 -0.03591188 -0.03291077 0.032779045

encoder.conv2.bias f4 [24]
00000000: da1b 8bbc f4cf 71bc 48a0 a2bc 6efd b1bc
00000010: a90e bf3b a6c8 a2bb 9b15 913c f0cf 8cbc
00000020: e6a0 093c fff3 7f3c c9c9 9e3c 37db d83c
00000030: c114 803b a654 46bc 0b8e 9cbc fbb4 c6bb
00000040: 9060 9d3c 6b4b b9bc c40b d33c cab0 dc3c
00000050: 8e97 ac3b 2cb5 e03c be0e f33c 7436 3a3c
-0.016981054 -0.014759053 -0.019851819 -0.02172729 0.005830605 -0.004967767 0.017710498 -0.017188996
0.008400178 0.015622138 0.019383328 0.026471717 0.003908724 -0.012105143 -0.0191107 -0.006064055
0.019211084 -0.02261897 0.025762446 0.026939768 0.00526709 0.02743014 0.029670116 0.011365522

encoder.conv2.lin.weight f4 [24, 48]
00000000: 6ec6 123e 6db3 83bd 183b 493e 4b57 1ebd
00000010: 0806 9b3d d3f1 99be aa0a b83d 9c6e a0be
00000020: 8b06 23be d36b 8ebc 92d3 9f3d da00 47bd
00000030: 8b74 933e e7f1 70bd 897f 89be bdf7 853e
00000040: 4b4d 4f3e 7829 6e3e 434e 94be 5c3d 02be
00000050: e3b6 d5bd 863d 823e 0453 92bd 9639 88be
00000060: 8e47 123d 6139 2b3e b3a0 2f3e e868 51bc
00000070: 9b49 723e 846a 0abd 92ad 99be 098f 883b
00000080: ddef 263e 722a 9dbc 5055 6fbe 9857 c93c
00000090: 46bc e8bd f859 ca3c 86a7 d13d 41d3 9cbe
000000a0: 6a29 173e 6a62 7a3e 22bb 4b3d e07e 003e
000000b0: 5f6a 2d3e 9ba7 36be 0ca3 3dbe 7c6f 5e3e
000000c0: 9115 94be d273 43bd 9305 98be d13c 473e
000000d0: 04d1 c1bd 9b39 a53d 2c68 313e fcc3 923e
000000e0: 3b01 2fbc 0040 be3b 2f09 273d 9fb8 eabd
000000f0: 3d83 0b3e c399 693e a642 533e eae0 093e
00000100: e18e 99bd fc9e 92be 6e69 05be 6d59 7bbe
00000110: 3e2f 46be b134 86be c1f4 ffbd cbf5 55be
00000120: 8221 8abd b65b 9b3d ce13 3b3e 2a48 7bbe
00000130: bdb5 2a3e c828 a23e f4fa 8ebe 8904 083d
00000140: fe58 a03e b29c 833e 436d ec3d 2398 3dbd
00000150: 1264 843e cedb 053d 98ec 593c b4ae 253e
00000160: 16bc 89bd ca6c 553b bf2e 5bbd 88fb 24be
00000170: d6cd 50bd e897 b4bd 681c 85bd 9231 e4bd
00000180: 5fe9 3a3e d507 8f3d 4095 3f3e eac9 52bd
00000190: 0b62 553e adc2 5b3d 5bf1 6f3d 90d5 6fbe
000001a0: b65e 82bd 1e59 5f3e ec67 c03c e796 643e
000001b0: 6675 303e 544b 413e 4391 6bbe 941f 833e
000001c0: ca00 82bb a41f 363e 21e0 7d3e 7b21 513e
000001d0: a91d 413e 2052 11be 8348 cbbc 323e 80be
000001e0: 1ec0 023e d4c6 c4bd c403 a3bd 70ed 4bbe
000001f0: fc78 2f3e dbc2 82be 901c 80bd e870 85be
00000200: dd7b 27be 48fa cd39 ba3e 8fbd b175 9cbe
00000210: 68f9 063e 4a45 ea3d f63d b83d 66cb 39be
00000220: 5bfb 1e3e 7994 053e 0767 57be 7166 9ebd
00000230: 4c8d ad3d bcf9 e0bd 11da b7bd 0496 023e
00000240: 52f4 3a3e 965a e3bd 33bc 633e 951a 73be
00000250: c9bf 14be 322d 9ebe 88a3 1c3e bc52 643e
00000260: f5ee 873e 642a 06bd dfc5 b33d 8889 9b3d
00000270: baa9 323e edfb 113e 46e6 903c a190 1bbe
00000280: a7bb 423e 4589 323e c559 323e c834 93bd
00000290: b4c8 8ebe 5dc9 443e d998 8f3e f8e5 b2bd
000002a0: dc64 89bd 700b a9bd a56a 8b3e 5b72 a8be
000002b0: a287 c73d 03fe 53be 6a41 5ebe f649 803e
000002c0: 80c7 99bd 8b73 2dbe 8f91 e83d c40b 3e3d
000002d0: b4b9 e33d d402 89bd b407 69bd f17f 833e
000002e0: 25f0 33be dfba 9bbe 377f 80be ba97 debd
000002f0: c2ff 3c3d 185b bfbd 05d4 5b3e a6c9 ea3d
00000300: 41cb 963e 20af 73bc 5cc4 0cbe c236 623e
00000310: a2d7 623c bb7b 393e d139 6dbe b0f0 21be
00000320: 20da 92bb ba6b 98be a156 d33d cdb7 bebd
00000330: d8b1 debd ca0f 223e 4707 4d3e 17fd 5cbe
00000340: 35aa c43c 9e84 293e 08a3 11be 5348 353e
00000350: 2575 ab3d 24d9 b3bc 27c4 643e 1210 903a
00000360: 5bd2 3c3e 84cb 6b3c 23e4 533e b134 93be
00000370: 47cd 2fbe 4fb3 97bd 4ce1 cc3d e1b4 b0bd
00000380: 01d0 613e 14f4 1dbd 8380 38be 7e7e 0fbd
00000390: 7242 573e 7c73 8ebe 3b1e 0dbd 8b41 dd3c
000003a0: eb37 0f3e 053b bcbd 085b d43d b0fe 26be
000003b0: 3f4c 36bd 1218 52be 88e1 8abe a43d 53be
000003c0: 9fa1 a1bd 196b 283d 0dfd b93d 7ca2 89be
000003d0: 070d 09bb d077 6abe 60f8 133e f51e aa3d
000003e0: c338 a53e a15b 863d 1599 60bb e3ee 24be
000003f0: 7843 393e 2bd1 07be 789b 2cbd edeb 9e3e
0.14333507 -0.06430707 0.19651449 -0.038657468 0.0756951 -0.3006731 0.08986409 -0.31334388
-0.15920465 -0.017385399 0.07804026 -0.048584796 0.28799853 -0.058824446 -0.26855114 0.26165572
0.20244329 0.23258007 -0.2896596 -0.12718719 -0.104352735 0.25437564 -0.0714474 -0.26606435
0.03571277 0.16721107 0.17151146 -0.012781359 0.23660891 -0.033792987 -0.30015236 0.0041674417
0.16302438 -0.019185279 -0.23372388 0.0245779 -0.11364035 0.024701104 0.10237031 -0.30629924
0.14761892 0.24451604 0.04973901 0.12548399 0.16935109 -0.17837374 -0.18519229 0.21722215
-0.28922704 -0.047717877 -0.29691753 0.19456793 -0.09463695 0.08067628 0.17324895 0.2866515
-0.010681446 0.0058059692 0.040780243 -0.11460995 0.13624282 0.22812562 0.20630893 0.13464704
-0.07497955 -0.2863692 -0.130285 -0.24545832 -0.19353959 -0.26212075 -0.12497855 -0.20894544
-0.06744672 0.07585852 0.18269274 -0.24539247 0.1667089 0.3167174 -0.27925837 0.03320745
0.31317896 0.25705487 0.115442775 -0.046287667 0.25857598 0.032680325 0.013301037 0.16179925
-0.06725328 0.0032566064 -0.053511377 -0.16111577 -0.05097755 -0.08818036 -0.06499559 -0.11142267
0.18253087 0.06983916 0.18709278 -0.05146209 0.20838182 0.053652454 0.058579784 -0.23421311
-0.06365721 0.2181134 0.023487054 0.2232319 0.17232284 0.18876392 -0.23004632 0.2561003
-0.003967379 0.17785507 0.2479253 0.20422928 0.1885897 -0.14191484 -0.02481485 -0.2504745
0.127686 -0.09608236 -0.079597026 -0.19914794 0.17135996 -0.25539288 -0.06255448 -0.26062703
-0.16355844 0.0003928712 -0.06994386 -0.3055854 0.13181078 0.11438997 0.08996193 -0.18143997
0.15525572 0.13044919 -0.21035396 -0.07734383 0.08474216 -0.10985133 -0.0897714 0.12752539
0.18257263 -0.11101262 0.22239761 -0.23740609 -0.14526285 -0.30893856 0.15296757 0.22297186
0.26549497 -0.03275527 0.08777975 0.075945914 0.17447558 0.14256258 0.017687928 -0.1519189
0.19016896 0.17435177 0.17417057 -0.071878016 -0.278875 0.19217439 0.280463 -0.08735269
-0.067086905 -0.08254135 0.272298 -0.32899746 0.09742667 -0.20702367 -0.21704641 0.25056428
-0.07508755 -0.16938607 0.11355888 0.04639794 0.111194044 -0.066899925 -0.056892112 0.2568355
-0.17572077 -0.3041601 -0.25097057 -0.10868783 0.046142347 -0.09343547 0.21467598 0.11464243
0.29451945 -0.014873296 -0.1374678 0.22091201 0.013845356 0.18113606 -0.23166586 -0.15814471
-0.004481569 -0.2976969 0.103192575 -0.09312401 -0.10873765 0.15826336 0.20022307 -0.21580921
0.024006942 0.16554496 -0.14222348 0.17703371 0.08371953 -0.021954127 0.22340451 0.0010991117
0.18439619 0.014391784 0.20692496 -0.28751138 -0.17168151 -0.07407247 0.100039095 -0.0862825
0.22052003 -0.03856285 -0.18017773 -0.03503274 0.2102144 -0.27822483 -0.03445266 0.027008792
0.13986175 -0.091909446 0.10368925 -0.16308093 -0.044506308 -0.20516995 -0.27125192 -0.20628983
-0.07892155 0.04111776 0.09081469 -0.26881778 -0.0020912306 -0.22897267 0.14450216 0.08306686
0.32269868 0.065604456 -0.0034270932 -0.16106753 0.18092144 -0.13263385 -0.042140454 0.31039372

discriminator.fc1.weight f4 [4, 24]
00000000: 05ec 43be 61ef 7c3e b192 3bbe 6e88 90be
00000010: 0263 d2be 110f abbe ba0b 06bf 0b6b 493e
00000020: 206b 103f 43bb 37be ae41 e03e 803f 00be
00000030: b33b f7be fa28 fa3d 6316 18bf ea50 d0be
00000040: 7179 93be ebf7 fbbe a824 adbd 0e94 75be
00000050: ff50 c1be 2e92 573e 0416 c73e 3a67 e53e
00000060: a266 b1bd 2c73 8e3e 1451 bb3e 3190 36bd
00000070: 7fd5 2a3e dcfe 193f 2e6a 2f3f f218 39be
00000080: dc25 7abe b12c b03e 329e 0dbf ab89 853e
00000090: 376b ef3d 47c5 c23e 1923 993e 3436 f43e
000000a0: a6dc 0b3f 2cce 333e c670 bcbd 9d4e 1d3f
000000b0: 301f e739 ef9e 0c3e 534b db3e 39ca 6bbd
000000c0: 2106 79be 0c17 72bd 08b5 033e cfad 473d
000000d0: 9e7d 5b3e 7395 25be 2929 273d 8109 cd3d
000000e0: 7907 bc3d 3411 efbd e8a0 ffbd 320b 83be
000000f0: 6e16 623e 58a1 9ebe 7239 9f3e acb0 793e
00000100: d020 093e 3ef5 773d a620 5e3e 8810 babd
00000110: 825e 89be 38e3 81be 0cd4 94be 9895 f0bd
00000120: 9759 fa3e 0ce2 ed3e 62a3 19bf 419f 24be
00000130: f346 bbbe 2cc7 13bf 310d d8be ef57 d0be
00000140: 09ce abbe ee61 8bbe a70c 043f 9634 893e
00000150: 910e 973e 7752 093d 5ec4 cebe 0dd3 26bf
00000160: 0e9a 36bf 08d9 963e f5e2 26be 3bb8 a9bd
00000170: f487 1d3f 969a 883e 2b31 7c3e a73f b0bd
-0.19133003 0.24700691 -0.18317677 -0.28229088 -0.41091162 -0.33409932 -0.52361643 0.1966974
0.5641346 -0.17942528 0.4380011 -0.12524223 -0.48287734 0.12214847 -0.5940916 -0.40686733
-0.2880359 -0.49212584 -0.08454257 -0.2398226 -0.37757108 0.21051857 0.38883984 0.44805318
-0.08662154 0.27822244 0.36585295 -0.044571105 0.16683005 0.6015451 0.6852139 -0.18075922
-0.24428505 0.34409097 -0.5531951 0.26081595 0.116903715 0.38041136 0.2990959 0.47697604
0.5463356 0.17559117 -0.09201197 0.6144808 0.0004408299 0.13732503 0.42830905 -0.0575659
-0.24318744 -0.05910401 0.12862027 0.04874974 0.21434638 -0.16170292 0.040810738 0.10011578
0.09181113 -0.11673203 -0.12481862 -0.2559448 0.22078869 -0.3098247 0.31098515 0.24383801
0.13391423 0.060536616 0.21692142 -0.09085184 -0.26829916 -0.25368667 -0.2906803 -0.11747283
0.48896477 0.46461523 -0.6001493 -0.16076376 -0.36577567 -0.5772579 -0.42197564 -0.40692088
-0.3355563 -0.27223152 0.51581806 0.26797932 0.295033 0.03352591 -0.4038419 -0.6516579
-0.7132882 0.29462457 -0.16297515 -0.08287092 0.61535573 0.2668044 0.24628131 -0.08605891

discriminator.fc1.bias f4 [4]
00000000: 3697 96bd 0d7d 84bd 3118 843d 692f 38be
-0.0735306 -0.06469164 0.06449927 -0.17986836

discriminator.fc2.weight f4 [2, 4]
00000000: bbc2 293f 4e65 4a3f faa8 783e 80f2 123f
00000010: b6df 163f e8f8 1e3d 5596 963e 62de b03d
0.6631276 0.7906083 0.2428321 0.57401276 0.58935106 0.038811594 0.2941157 0.08636166

discriminator.fc2.bias f4 [2]
00000000: 6eb1 85be 3c05 9c3e
-0.2611193 0.30472744

discriminator.fc3.weight f4 [1, 2]
00000000: 0223 963f a0cd 87bd
1.1729434 -0.06631017
