src/algorithms/deep/pretrained/gae_cora.pt (torch, 282328 bytes, 4 tensors)

encoder.conv1.bias f4 [48]
0.030817308 0.024851898 0.031541586 0.026863463 0.028446564 0.021250881 0.023200886 0.014320149
0.027174108 0.013630806 0.038887642 0.024614718 0.0356045 0.028793888 0.0093157245 0.032580703
0.021174297 0.028773325 0.02956827 0.028300943 0.029394453 0.013082775 0.012329075 0.00641534
0.02533435 0.024022851 0.027868684 0.0038210878 0.012556051 0.033990253 0.041277323 0.010943469
0.010295129 0.012650945 0.026554743 0.01840116 0.02952216 0.0230132 0.0046733087 0.027359754
0.03597542 0.023320962 0.020709686 0.023697848 0.018073866 0.03193815 0.030025393 0.024567597
00000000: 9474 fc3c 3596 cb3c c031 013d c410 dc3c
00000010: c508 e93c 5416 ae3c c90f be3c 0f9f 6a3c
00000020: 3c9c de3c be53 5f3c a648 1f3d cea4 c93c
00000030: 06d6 113d 29e1 eb3c fba0 183c 5873 053d
00000040: b875 ad3c 09b6 eb3c 2839 f23c 61d7 e73c
00000050: a3cc f03c 2359 563c e3ff 493c c637 d23b
00000060: fc89 cf3c 92cb c43c de4c e43c 376b 7a3b
00000070: e5b7 4d3c 5d39 0b3d 6912 293d 3c4c 333c
00000080: e7ac 283c e945 4f3c 5589 d93c 08be 963c
00000090: 75d8 f13c 2e86 bc3c 8e22 993b 9021 e03c
000000a0: f65a 133d 9a0b bf3c 5ca7 a93c fd21 c23c
000000b0: a50f 943c 94d1 023d d0f7 f53c fc41 c93c

encoder.conv1.lin.weight f4 [48, 1433]
0.008936268 -0.06791679 -0.016244298 0.02422337 -0.014117059 -0.027434705 0.04472512 -0.017500361
-0.024124052 -0.05254156 -0.010269276 -0.062430475 -0.036205757 0.083394974 0.0064566853 0.07064302
-0.012483215 -0.03925931 -0.00092159095 -0.018634584 -0.013931893 0.08806263 0.102311574 0.0494251
0.094342545 -0.00015513385 0.05068916 0.0068647293 0.06290262 0.08978373 0.0047855764 -0.0025649262
0.003696422 0.023253646 0.08744643 -0.009780281 -0.029139213 0.004648516 -0.026784105 0.025581606
-0.0055153035 -0.07341332 0.03468277 -0.04535195 -0.025305113 0.010952367 0.01603727 -0.028651882
-0.030241065 0.10262442 -0.04120354 -0.031446036 0.049973246 0.026073115 -0.022585599 0.03201409
-0.022854658 -0.07376875 0.026825698 0.047182634 -0.09675051 -0.035575267 -0.0027568894 -0.007103617
0.046672534 -0.007404896 -0.01836149 0.0091413 0.034935955 -0.0119172735 0.06467899 -0.016718058
0.09601462 -0.038656954 0.012796983 0.08131637 -0.087092094 0.11677639 -0.09287729 -0.057579353
0.101555474 0.033373374 -0.05320748 0.042933993 -0.004945547 -0.0036369315 -0.007594399 0.039784748
0.026343111 0.086168535 -0.0593322 0.014080825 0.08440087 -0.056227684 0.0006999136 -0.05812362
0.10381847 0.0048672403 0.06096499 -0.0343561 0.007306162 -0.0035802824 0.0015514514 0.0729274
0.062267542 0.0944297 -0.015696585 0.00758494 -0.012321407 -0.054101996 0.016975459 0.019858086
-0.028850121 0.034178726 0.09091509 0.09559841 0.027737789 0.053866558 0.07992429 -0.022769973
-0.041833133 -0.050597236 -0.0003931278 0.0762473 -0.04656532 0.06722531 0.047585633 0.019060297
0.04397358 0.054989606 0.08830475 0.019888964 0.027886987 0.07603006 0.07431719 0.03317878
0.016673904 0.06540056 0.0020377152 0.03439518 0.06580842 0.011112861 0.0937331 0.07680285
0.029601118 0.046186876 0.03914458 -0.025080327 0.08408397 -0.007979635 0.020007012 -0.024887268
-0.00010143404 0.022599922 -0.017030861 0.008466838 0.0012570015 -0.0210608 0.05263299 0.023755683
-0.027832868 -0.02312384 0.07986501 0.08198623 0.048239857 -0.043923654 -0.06659147 -0.010346956
0.088901386 0.100451 0.10901154 -0.07741136 0.00061237084 -0.029070912 -0.02634418 0.09905365
-0.03143412 0.07527928 0.06651533 0.06742538 0.025835838 0.049564037 -0.034697793 0.028393246
0.04924641 0.028413026 -0.032415714 0.032604393 -0.042452224 0.0023583942 0.08793876 0.003196137
-0.053676255 0.049007043 -0.0051105293 0.050680373 0.007922534 0.06376577 -0.051630918 0.02529277
-0.03287455 -0.073958464 0.046375874 0.010965401 -0.0608968 0.08173366 0.031835016 0.0068961643
0.0010998358 0.027753606 0.04499887 -0.000111387766 0.11861396 -0.00485488 0.030210104 0.0701418
0.012394273 -0.032931615 0.06590819 0.06084776 0.06405871 0.014312641 0.043564007 0.03177314
-0.046900045 -0.03277113 -0.046697415 -0.025539901 0.012988059 0.089411065 0.036130205 0.048005387
-0.04166507 0.035062533 -0.0069019697 -0.013028146 -0.07467275 0.045720425 0.09091732 -0.09198044
0.11898341 -0.015539246 0.025718663 -0.03811739 -0.019802859 0.01805937 -0.0032446394 0.060455296
0.0008568847 0.07807142 -0.03717395 0.05588533 0.05540922 -0.05272074 0.057720818 0.065956816
00000000: 6d69 123c f517 8bbd c312 85bc 1770 c63c
00000010: 3d4b 67bc bfbe e0bc b031 373d eb5c 8fbc
00000020: ce9f c5bc d235 57bd 7740 28bc 19b7 7fbd
00000030: 7d4c 14bd fcca aa3d 9a92 d33b 4aad 903d
00000040: 6686 4cbc 5fce 20bd ec96 71ba 8ea7 98bc
00000050: 9842 64bc 2e5a b43d bb88 d13d f971 4a3d
00000060: aa36 c13d 6dab 22b9 709f 4f3d 86f1 e03b
00000070: 17d3 803d 88e0 b73d 53d0 9c3b 5218 28bb
00000080: ac3f 723b 6e7e be3c 1d17 b33d 793d 20bc
00000090: 5cb5 eebc 9452 983b 576a dbbc 8490 d13c
000000a0: b8b9 b4bb b959 96bd 850f 0e3d f7c2 39bd
000000b0: ab4c cfbc 8f71 333c 9860 833c 5ab7 eabc
000000c0: 1cbc f7bc c02c d23d 0bc5 28bd 8fcd 00bd
000000d0: bfb0 4c3d 4997 d53c 6f05 b9bc 3521 033d
000000e0: b139 bbbc 1214 97bd 91c1 db3c 9442 413d
000000f0: 2225 c6bd 5fb7 11bd eeac 34bb 75c5 e8bb
00000100: b32b 3f3d c5a4 f2bb d66a 96bc 64c5 153c
00000110: 0119 0f3d ab40 43bc 6b76 843d 4ff4 88bc
00000120: 50a3 c43d c156 1ebd 70aa 513c 3289 a63d
00000130: 575d b2bd 7628 ef3d 7336 bebd 54d8 6bbd
00000140: 51fc cf3d 85b2 083d 16f0 59bd 8edb 2f3d
00000150: 410e a2bb 9659 6ebb 70da f8bb 55f5 223d
00000160: 82cd d73c 2179 b03d 5206 73bd 43b3 663c
00000170: 5dda ac3d 004f 66bd 687a 373a 0813 6ebd
00000180: c79e d43d 5f7d 9f3b 6db6 793d fbb8 0cbd
00000190: 8768 ef3b 2ca3 6abb 125a cb3a f65a 953d
000001a0: 400c 7f3d 5c64 c13d 2096 80bc 178b f83b
000001b0: badf 49bc 0e9a 5dbd 1e10 8b3c 6dad a23c
000001c0: 1757 ecbc fefe 0b3d b131 ba3d 19c9 c33d
000001d0: 5c3a e33c 2ea3 5c3d 59af a33d 1888 babc
000001e0: 3859 2bbd 0c3f 4fbd b81c ceb9 8b27 9c3d
000001f0: 47bb 3ebd 6cad 893d 27e9 423d 5724 9c3c
00000200: a41d 343d c83c 613d 1fd9 b43d 2eee a23c
00000210: 4073 e43c a6b5 9b3d 9c33 983d 79e6 073d
00000220: b697 883c bbf0 853d 308b 053b f6e1 0c3d
00000230: 91c6 863d b812 363c 24f7 bf3d d04a 9d3d
00000240: 0b7e f23c 732e 3d3d 1156 203d 4275 cdbc
00000250: 3734 ac3d 04bd 02bc bfe5 a33c 62e0 cbbc
00000260: fcb8 d4b8 7923 b93c 4e84 8bbc 7eb8 0a3c
00000270: f9c1 a43a b387 acbc b195 573d 479b c23c
00000280: c101 e4bc 356e bdbc 4490 a33d 66e8 a73d
00000290: 2897 453d 4ae9 33bd 1c61 88bd 4786 29bc
000002a0: ee11 b63d 41b9 cd3d 7141 df3d d989 9ebd
000002b0: 8387 203a 1f26 eebc c0cf d7bc a4dc ca3d
000002c0: 10c1 00bd 062c 9a3d 3039 883d 5116 8a3d
000002d0: aea5 d33c a903 4b3d 461f 0ebd f498 e83c
000002e0: 9bb6 493d 6fc2 e83c 57c6 04bd 2f8c 053d
000002f0: 62e2 2dbd 4a8f 1a3b 3d19 b43d 4876 513b
00000300: a2db 5bbd 9cbb 483d 3a76 a7bb 3996 4f3d
00000310: 84cd 013c a197 823d f17a 53bd c832 cf3c
00000320: 77a7 06bd 8977 97bd a1f4 3d3d 3aa8 333c
00000330: ec6e 79bd fa63 a73d 6f65 023d 38f9 e13b
00000340: 5e28 903a 885b e33c bc50 383d da98 e9b8
00000350: e0eb f23d af15 9fbb 2e7b f73c 81a6 8f3d
00000360: 5911 4b3c 4de3 06bd e0fa 863d 803b 793d
00000370: 3731 833d 917f 6a3c 2c70 323d 8d24 023d
00000380: 431a 40bd 053b 06bd ca45 3fbd 0e39 d1bc
00000390: decb 543c 261d b73d 44fd 133d 4ca1 443d
000003a0: fea8 2abd bb9d 0f3d eb29 e2bb 0174 55bc
000003b0: 07ee 98bd 5745 3b3d dc32 ba3d 3e60 bcbd
000003c0: 93ad f33d 5298 7ebc f2af d23c fb20 1cbd
000003d0: 9b39 a2bc 3ef1 933c 04a4 54bb f99f 773d
000003e0: 8fa0 603a e9e3 9f3d b643 18bd 04e8 643d
000003f0: c7f4 623d b4f1 57bd aa6c 6c3d 5e14 873d

encoder.conv2.bias f4 [24]
0.033057883 -0.016570207 0.02750222 0.018140117 0.011751532 0.015883274 0.014332018 0.012765071
0.023425726 0.031382766 -0.039020553 -0.03606358 -0.0030451764 -0.029075421 -0.021472845 0.03262179
-0.03491813 -0.0020585794 -0.016823703 -0.030513328 0.033550467 0.03173194 0.020765336 -0.0011426933
00000000: b467 073d 3ebe 87bc 564c e13c 959a 943c
00000010: 7f89 403c a41d 823c d7d0 6a3c 9724 513c
00000020: 4fe7 bf3c 378b 003d 04d4 1fbd 68b7 13bd
00000030: 9591 47bb 942f eebc d2e7 afbc 6d9e 053d
00000040: 5006 0fbd 3be9 06bb ddd1 89bc 16f7 f9bc
00000050: 376c 093d 5af9 013d 111c aa3c 6dc6 95ba

encoder.conv2.lin.weight f4 [24, 48]
-0.075236514 -0.09990904 0.15108079 -0.21962786 0.19783461 0.2803425 -0.076222375 -0.2006467
-0.19158274 0.2576255 -0.28092214 -0.004493727 -0.09204268 -0.059876047 0.16426755 0.20819284
0.2760078 -0.015387754 -0.122351475 0.047563646 -0.26499647 0.058875117 0.043728147 -0.28777343
-0.012779401 0.31757945 0.066702865 0.22302544 0.08676012 -0.27408248 -0.17048956 0.0021946256
-0.07146452 -0.27423143 -0.16124424 0.18686517 -0.18759722 0.12983452 -0.15999328 0.20213652
0.22251862 -0.024621665 0.077350765 -0.17908032 -0.16529447 0.046164192 0.023110949 0.18776815
-0.09074658 0.22561078 0.2399637 -0.27052703 -0.038757723 -0.19303207 -0.29228246 -0.26453495
-0.3255447 0.30294615 0.076697454 0.28623992 -0.0153699275 -0.19171289 0.024370238 -0.111265376
-0.13234453 0.124641865 0.11495188 -0.22763549 -0.10696197 0.10124316 0.13856894 -0.038921613
-0.13037549 0.2745363 -0.059034627 0.15756689 0.2064208 0.12834223 0.27004322 -0.16910508
0.14929028 -0.055952035 -0.26214802 -0.022102697 -0.10939921 -0.0015464835 0.2627132 -0.05828143
-0.12191584 0.17759566 -0.18297753 -0.015910236 -0.04103381 -0.051378425 0.28599796 0.10862408
-0.26539046 -0.15652075 0.18844533 -0.24439141 -0.27094764 0.09933965 0.32602727 -0.1417938
-0.020006152 -0.07066767 0.22559796 0.3012977 -0.01519803 -0.16152225 -0.1921001 -0.20073646
0.068487376 0.040890027 -0.20850968 -0.15162453 -0.039197136 -0.08503666 -0.12556057 -0.31470045
0.21486622 -0.07138221 -0.11118016 0.19592057 0.024375847 -0.27555367 0.109671205 0.15514033
0.06753982 0.22771725 0.08808215 0.114145815 0.104304686 -0.20187394 -0.0043900767 0.2634073
-0.0021599804 0.20010468 -0.07098634 0.25408068 -0.1862135 -0.23202316 0.12082885 0.16894774
0.09517989 0.25137168 -0.176358 0.13677439 -0.2262179 0.27843624 -0.24267949 -0.23111834
0.08205033 0.00010995198 -0.067777336 0.11107454 -0.0059739454 0.05591188 0.1784599 0.03247895
-0.2556016 -0.11741452 -0.3019159 0.09401531 0.14461611 -0.22078331 -0.011073024 -0.15723619
-0.07624058 -0.114421874 0.20027564 -0.05568214 -0.27350187 -0.15619788 -0.12607774 -0.17273001
0.050056793 -0.17039953 0.10304089 0.17258988 0.24868493 0.22304685 -0.1598666 0.349734
-0.288235 -0.11064623 -0.08162883 0.24912527 0.2503205 -0.038731508 -0.09263512 0.25960523
-0.067108564 0.22620182 -0.24030049 -0.16655466 -0.03796785 -0.30888405 -0.08631181 -0.2306484
-0.008228664 0.17695098 -0.11549556 -0.12837254 0.29049435 -0.07877349 0.3007795 -0.15899816
-0.16938056 -0.19724837 -0.18169886 -0.03502965 0.14659862 0.32565483 -0.025009979 0.22912079
0.17634106 -0.31431276 -0.23427743 0.04279359 0.0005670807 0.023837097 0.23244615 0.2700626
0.10345517 -0.1605138 0.26376542 0.023285544 -0.2963702 -0.17196958 0.2374117 -0.039049745
0.21140182 -0.30843297 0.09158169 -0.12287534 -0.23576285 0.2478817 0.31412438 -0.2253426
-0.0931556 0.11175492 -0.07233466 -0.19207807 -0.09110182 -0.19353968 0.050113596 0.26480508
0.17772609 -0.3028242 0.077299654 -0.32204512 0.25645703 -0.013297529 0.104654334 0.22705632
00000000: 9a15 9abd 1c9d ccbd ecb4 1a3e 20e6 60be
00000010: 2895 4a3e 0d89 8f3e 7a1a 9cbd 5476 4dbe
00000020: 442e 44be 7de7 833e 07d5 8fbe 1d40 93bb
00000030: df80 bcbd 9640 75bd c135 283e 8130 553e
00000040: e550 8d3e eb1c 7cbc 6993 fabd 19d2 423d
00000050: 9ead 87be 0927 713d 491c 333d 0a57 93be
00000060: b160 51bc c699 a23e 839b 883d c860 643e
00000070: 4aaf b13d 8a54 8cbe d194 2ebe b5d3 0f3b
00000080: fe5b 92bd 1068 8cbe 361d 25be 9559 3f3e
00000090: 7c19 40be 57f3 043e 47d5 23be e0fc 4e3e
000000a0: ecdb 633e 60b3 c9bc 146a 9e3d d560 37be
000000b0: f442 29be aa16 3d3d 2c53 bd3c 4b46 403e
000000c0: 58d9 b9bd 8306 673e 0bb9 753e 8582 8abe
000000d0: 6bc0 1ebd 33aa 45be 0ca6 95be 2071 87be
000000e0: cbad a6be c21b 9b3e 8e13 9d3d 0a8e 923e
000000f0: 26d2 7bbc 6250 44be 18a4 c73c 1adf e3bd
00000100: 5385 07be 3c44 ff3d e46b eb3d 4719 69be
00000110: e10e dbbd 9358 cf3d 04e5 0d3e 456c 1fbd
00000120: 2781 05be 0690 8c3e 4bce 71bd 3759 213e
00000130: f95f 533e 256c 033e 1b43 8a3e e229 2dbe
00000140: 8ddf 183e f62d 65bd 4438 86be b710 b5bc
00000150: b10c e0bd 60b3 caba 5882 863e 82b8 6ebd
00000160: 03af f9bd a3db 353e 765e 3bbe 2f56 82bc
00000170: 1113 28bd 2f72 52bd 536e 923e 4d76 de3d
00000180: 42e1 87be fa46 20be d0f7 403e be41 7abe
00000190: a6b9 8abe 9672 cb3d 0ced a63e 6532 11be
000001a0: f1e3 a3bc 36ba 90bd 2703 673e b143 9a3e
000001b0: 2801 79bc 1766 25be e3b5 44be dc8d 4dbe
000001c0: 1c43 8c3d 4d7c 273d 9083 55be 7643 1bbe
000001d0: 2d8d 20bd b327 aebd f392 00be 6b20 a1be
000001e0: e405 5c3e d630 92bd 6cb2 e3bd 679f 483e
000001f0: dbaf c73c 5f15 8dbe 4c9b e03d 1bdd 1e3e
00000200: 5152 8a3d b62e 693e 6a64 b43d 48c5 e93d
00000210: b29d d53d 0bb8 4ebe a2da 8fbb 52dd 863e
00000220: 758e 0dbb 3ee8 4c3e 4961 91bd dd16 823e
00000230: c0ae 3ebe 7b97 6dbe 1e75 f73d a300 2d3e
00000240: aded c23d cab3 803e 3197 34be 960e 0c3e
00000250: aaa5 67be 328f 8e3e f980 78be 49aa 6cbe
00000260: 010a a83d 0596 e638 d8ce 8abd 0c7b e33d
00000270: 16c1 c3bb db03 653d 31be 363e a608 053d
00000280: 37de 82be 0677 f0bd b994 9abe 198b c03d
00000290: 3f16 143e 0515 62be a16b 35bc 8602 21be
000002a0: 0524 9cbd 0456 eabd 0f15 4d3e f512 64bd
000002b0: 7008 8cbe 56f2 1fbe 861a 01be 23e0 30be
000002c0: 5a08 4d3d 377d 2ebe 1a07 d33d 67bb 303e
000002d0: 43a7 7e3e 6566 643e 12b4 23be 5610 b33e
000002e0: 8a93 93be 7e9a e2bd 042d a7bd b21a 7f3e
000002f0: 022a 803e eea4 1ebd 7bb7 bdbd faea 843e
00000300: 3770 89bd 73a1 673e 5511 76be 4e8d 2abe
00000310: 2d84 1bbd 0d26 9ebe 3fc4 b0bd 182f 6cbe
00000320: 85d1 06bc a332 353e f088 ecbd 1774 03be
00000330: adbb 943e ff53 a1bd c5ff 993e 6ad0 22be
00000340: 1972 2dbe 7afb 49be 440f 3abe 407b 0fbd
00000350: f31d 163e 3bbc a63e bae1 ccbc a49e 6a3e
00000360: c092 343e 9aed a0be 6ce6 6fbe 5548 2f3d
00000370: 24a8 143a 0446 c33c 5d06 6e3e a545 8a3e
00000380: 4ee0 d33d bb5d 24be 430c 873e 53c1 be3c
00000390: d6bd 97be cb18 30be 0d1c 733e a0f2 1fbd
000003a0: b879 583e edea 9dbe 2e8f bb3d 11a6 fbbd
000003b0: d16b 71be b3d4 7d3e e9d4 a03e 36c0 66be
000003c0: 5dc8 bebd c3df e43d 3224 94bd 1db0 44be
000003d0: 9793 babd 442f 46be ea43 4d3d 8894 873e
000003e0: d4fd 353e c60b 9bbe 484f 9e3d 19e3 a4be
000003f0: 564e 833e e1dd 59bc 0355 d63d 7481 683e
