src/algorithms/deep/pretrained/gae_dblp.pt (torch, 96408 bytes, 4 tensors)

encoder.conv1.bias f4 [64]
0	0x3ce96611	0.028491052
1	0x3d1974e2	0.037464984
2	0xbc562168	-0.013069488
3	0x3a1c345a	0.0005958729
4	0xbc525244	-0.0128369965
5	0x3b4af787	0.0030970292
6	0xb9ed752e	-0.00045291468
7	0xba4528c5	-0.0007521029
8	0x3c8a77f4	0.016902901
9	0x3cedbae4	0.02901978
10	0x3ccfb665	0.025355527
11	0xbac5900b	-0.0015072835
12	0xbc6c8f04	-0.014438394
13	0x3ce2b438	0.027673826
14	0x3bfd5193	0.0077306717
15	0x3c54ddb9	0.012992316
16	0xbc4deff8	-0.01256942
17	0x3cbbf658	0.022944614
18	0x3d0751c9	0.03303698
19	0x3d00977d	0.03139447
20	0x3d070288	0.0329614
21	0x3d234bd9	0.039867256
22	0x3c8b0d1e	0.016974028
23	0xbc2f0a91	-0.010683672
24	0xbc114408	-0.008866318
25	0x3cdaa069	0.026687818
26	0x3ce519b8	0.027966365
27	0x3b4c1901	0.0031142833
28	0x3cce6b39	0.025197612
29	0xbbf11c3b	-0.0073581017
30	0xbc016a59	-0.00789889
31	0xbb65adba	-0.0035046176
32	0x3d0daad7	0.034586754
33	0xbc06b758	-0.0082224235
34	0xbc6de0d5	-0.014518936
35	0x3c594e87	0.013263351
36	0xbba5b19c	-0.005056573
37	0x3cf6c10e	0.030121353
38	0xbc8f0660	-0.017459095
39	0x3c856ac1	0.016286256
40	0x3be180cb	0.0068818084
41	0x3cf5fdb0	0.030028194
42	0x3cb7cf1b	0.022437623
43	0xbbdf7f61	-0.0068206047
44	0x3d0f6007	0.03500369
45	0xbc083670	-0.00831376
46	0x3ce03437	0.027368648
47	0xbb939486	-0.0045037894
48	0xbbf6a7c0	-0.0075273216
49	0x3b5456c4	0.003240035
50	0x3ba6b7ec	0.005087843
51	0xbb9c0ce5	-0.0047622793
52	0x3d23026a	0.039797224
53	0x3d174c8b	0.03693823
54	0x3c9a8f9b	0.018867305
55	0x3d2363a4	0.039889947
56	0x3d1870d1	0.037216965
57	0xbccadc78	-0.02476333
58	0x3cfbaf37	0.030723197
59	0xbb89f973	-0.004210645
60	0xbc319a9f	-0.010840087
61	0x3beec73b	0.0072869337
62	0xbbfa1524	-0.0076319147
63	0x3b892b20	0.004186049

encoder.conv1.lin.weight f4 [64, 334]
0	0xbd9703c1	-0.07373763
1	0xbd44d272	-0.04805226
2	0x3c1f4ffe	0.0097236615
3	0xbd8b4d21	-0.068018205
4	0x3dd8209e	0.10553096
5	0x3df2653b	0.118357144
6	0x3d8c705e	0.0685737
7	0x3da6172e	0.0810989
8	0x3d4b47d4	0.049629048
9	0xbc1789af	-0.009249135
10	0x3cc2a562	0.023760501
11	0xbd0aa09f	-0.033844586
12	0xbb5e2dc8	-0.00339018
13	0xbe044043	-0.12915139
14	0x3d13992a	0.03603474
15	0x3de8b72d	0.11363063
16	0xbe0558b4	-0.13022119
17	0xbdee296c	-0.11628994
18	0x3b0b3fff	0.0021247861
19	0xbdab4472	-0.08362664
20	0xbd7019d1	-0.05861837
21	0x3df2819e	0.11841129
22	0x3d8fde63	0.07024839
23	0x3dc87429	0.09787781
24	0x3df5db4f	0.120047204
25	0xbd8ae35c	-0.067816466
26	0x3db2be57	0.08727711
27	0x3d848ade	0.06471799
28	0x3ca83f4f	0.020538
29	0x3d246a06	0.040140174
30	0xbd360799	-0.04444084
31	0x3c857147	0.016289366
32	0xbe1ac6f3	-0.15114956
33	0x3d961433	0.073280714
34	0x3dcd9395	0.10037915
35	0x3d1133b4	0.0354497
36	0xbd7980eb	-0.06091396
37	0x3dc9d86a	0.09855731
38	0xbc97e062	-0.018539611
39	0xbd267916	-0.04064282
40	0x3d9b0a71	0.07570351
41	0xbd41b1cc	-0.0472887
42	0xbd4a0eea	-0.04933063
43	0xbcb5fdfd	-0.022215838
44	0xbdbeb099	-0.09311027
45	0x3d665fa5	0.056243557
46	0xbe055aa2	-0.13022855
47	0x3d771d73	0.06033082
48	0x3d9b4e08	0.07583243
49	0x3d59fd4c	0.05322008
50	0x3de1e2bf	0.110295765
51	0xbd0b0a1b	-0.033945184
52	0xbb79a46a	-0.0038092383
53	0xbcd6ffcb	-0.026245018
54	0xbdaa6598	-0.08320159
55	0x3c90f743	0.017696029
56	0x3d437d32	0.047726817
57	0xbcdf55ac	-0.027262531
58	0xbd892194	-0.06695858
59	0xbdcd2d0e	-0.10018359
60	0xbd106372	-0.03525109
61	0x3d3f5116	0.04670819
62	0xbc5bf14c	-0.013424229
63	0xbd90ba6a	-0.07066806
64	0xbdf950cf	-0.12173616
65	0x3e0049d4	0.12528163
66	0xbc67dec9	-0.014152237
67	0xbdd7e49d	-0.105416514
68	0xbc7656af	-0.015035315
69	0x3ce84574	0.02835343
70	0xbdb87c72	-0.09008111
71	0x3c64b3e4	0.013958905
72	0x3d85eaec	0.065389484
73	0xbe11d083	-0.14239697
74	0x3db31cb1	0.08745707
75	0x3dd797f7	0.10527032
76	0x3c838e0f	0.01605895
77	0x3bd3ca5a	0.006463331
78	0x3d2787a3	0.040900838
79	0x3dbad784	0.091231376
80	0x3bb64209	0.005562071
81	0x3ddc8238	0.10767025
82	0x3de83c70	0.113396525
83	0x3d387f08	0.04504302
84	0x3e05e792	0.13076618
85	0x38bec8d2	9.097312e-05
86	0xbdd412a4	-0.10355118
87	0x3d087bca	0.03332118
88	0xbc9b26dd	-0.01893943
89	0xbcfe38e2	-0.031032983
90	0x3e18cac3	0.14921097
91	0x3dbb7db9	0.09154839
92	0x3bd22ef2	0.0064142877
93	0xbd82f3d1	-0.063941605
94	0x3db1da7d	0.086842515
95	0xbcbd5b3f	-0.023114799
96	0x3c56758b	0.013089548
97	0x3d2440fb	0.040101033
98	0x3e1aa0ef	0.15100454
99	0x3af591fd	0.0018735524
100	0x3a6e4827	0.0009089731
101	0xbe0b1fc2	-0.13586333
102	0x3d9adb32	0.075613394
103	0xbdff5d1e	-0.124689326
104	0xbdbe6b42	-0.092978016
105	0xbdd25e4e	-0.102718934
106	0x3cfaecb0	0.03063044
107	0x3bd7bf08	0.006584052
108	0x3b96acde	0.004598244
109	0x3d5329dc	0.051553592
110	0x3c45810e	0.012054695
111	0x3d997103	0.074922584
112	0xbdd1be96	-0.102414295
113	0x3d4bea64	0.04978408
114	0xbcf78d87	-0.030218853
115	0x3e1976cb	0.14986722
116	0x3d64242f	0.05569857
117	0xbd9ab9d0	-0.07554972
118	0x3cd33c86	0.025785696
119	0x3ccd63fe	0.025072094
120	0x3d06ebcb	0.032939713
121	0x3de2c804	0.11073306
122	0xbd44b8b4	-0.04802771
123	0x3d8b838d	0.06812201
124	0xbd3ae182	-0.045625217
125	0x3dd6d441	0.10489703
126	0x3d57d994	0.052697733
127	0x3c3673bb	0.011135991
128	0xbc2ed916	-0.0106718745
129	0x3d9aa116	0.07550256
130	0xbdf4b9ac	-0.119494766
131	0xbd0bbba3	-0.03411449
132	0xbbcd3c8b	-0.006263321
133	0xbca107ee	-0.019657101
134	0xbd91472c	-0.07093653
135	0x3e206bba	0.15666094
136	0x3d3cfd3f	0.04613995
137	0xbdcc297c	-0.0996885
138	0xbdbac0b3	-0.09118786
139	0x3df1ea14	0.11812225
140	0x3db308fc	0.08741948
141	0x3d971a67	0.07378083
142	0x3d9c8e54	0.076443344
143	0x3ce0dcf3	0.027449107
144	0xbdde696d	-0.10859952
145	0x3dde3110	0.10849202
146	0xbc5323e7	-0.012886978
147	0xbda48e64	-0.08034971
148	0x3d9d8b48	0.076925814
149	0x3d9f1c40	0.0776906
150	0x3d00a6b6	0.031408988
151	0xbb28bd41	-0.002574757
152	0x3df98143	0.12182858
153	0xbda6dd75	-0.08147708
154	0xbd2b8d55	-0.04188283
155	0xbd2321fc	-0.039827332
156	0xbdad508b	-0.08462628
157	0x3d42bab9	0.047541354
158	0xbcc3a7ef	-0.023883788
159	0xbd956cb6	-0.072961256
160	0xbd05fa41	-0.032709364
161	0x3cd71f94	0.026260175
162	0x3c50b454	0.012738306
163	0x3d2dce55	0.0424331
164	0xbdacfa92	-0.0844623
165	0xbd1675c6	-0.03673341
166	0x3e0ff094	0.14056617
167	0x3d5ff30e	0.054675154
168	0x3c088fe3	0.0083350865
169	0xbda0fdf4	-0.07860938
170	0x3d8f14e7	0.06986409
171	0x3df3f017	0.11911028
172	0x3dd38f05	0.10330013
173	0x3dc1c965	0.09462241
174	0xbb887c2a	-0.004165192
175	0xbd8f0aa3	-0.06984451
176	0xbde45ffb	-0.11151119
177	0x3d0549c3	0.032541048
178	0xbdcee478	-0.10102171
179	0xbd62f479	-0.05540893
180	0x3d30e85e	0.043190353
181	0xbda5ddba	-0.080989316
182	0xbd4e5d2b	-0.05038182
183	0xbb6e1f35	-0.0036334519
184	0x3d4ea168	0.050446898
185	0xbdf5d671	-0.12003792
186	0x3d6883cd	0.05676632
187	0x3ce42d96	0.027853768
188	0xbd867680	-0.06565571
189	0xbd9853c0	-0.07437849
190	0xbd7eabe9	-0.062175665
191	0x3d3b40cb	0.04571609
192	0xbd45e0b3	-0.048309993
193	0xbcd83b72	-0.026395533
194	0x3da2fe94	0.07958713
195	0xbc9d101b	-0.019172719
196	0x3dc98bfc	0.09841153
197	0xbd3fd71c	-0.046836004
198	0xbc82a519	-0.015947865
199	0x3ddb0db3	0.10695972
200	0xbdc4ac6c	-0.09603199
201	0x3d767e0a	0.060178794
202	0x3db159e4	0.086597234
203	0x3e05502f	0.13018869
204	0xbdd12a46	-0.10213141
205	0x3dd5829a	0.10425301
206	0x3dcf9d96	0.10137479
207	0xbd11e247	-0.035616186
208	0xbd38499b	-0.04499207
209	0xbda5000e	-0.08056651
210	0xbddfeceb	-0.109338604
211	0x3d906a47	0.07051521
212	0xbd01e638	-0.031713694
213	0x3d0cafd7	0.03434738
214	0x3e1a1978	0.15048778
215	0xbcf16fa3	-0.029472178
216	0xbcf85c88	-0.03031756
217	0x3d45d085	0.048294563
218	0xbd0bd2bb	-0.034136515
219	0xbc89c591	-0.01681784
220	0xbc9e3c8f	-0.019315986
221	0xbdc764e8	-0.09736043
222	0xbdb076e3	-0.08616426
223	0x3cd559f3	0.026043868
224	0x3d964af6	0.073385164
225	0xbd322944	-0.043496385
226	0x3dbbf3c7	0.09177356
227	0x3d5409b9	0.051767085
228	0xbd81fecb	-0.06347426
229	0x3c6f86eb	0.014619569
230	0xbbc6a8cf	-0.006062604
231	0xbd96155a	-0.07328291
232	0x3d986746	0.07441573
233	0x3d75fe3f	0.06005692
234	0xbc0da37a	-0.008644933
235	0xbde960ee	-0.11395441
236	0xbd9e25e1	-0.077220686
237	0x3ddcfff3	0.10791006
238	0x3d419418	0.047260374
239	0x3d970ac4	0.073751
240	0x3d71ccc1	0.05903316
241	0xbd86a938	-0.06575245
242	0x3e0f6b64	0.1400581
243	0x3d93f83f	0.072250836
244	0x3c1be9ec	0.009516221
245	0x3dc836f9	0.0977611
246	0x3d880912	0.06642355
247	0xbd796f33	-0.060897063
248	0xbe0d0403	-0.13771062
249	0x3d91acfd	0.07113073
250	0xbd0e7fb3	-0.034789752
251	0x3d9a7834	0.07542458
252	0x3d09e8d5	0.03366931
253	0x3b32dd61	0.0027292597
254	0x3ddd32ed	0.10800729
255	0x3dd0040f	0.10157024

encoder.conv2.bias f4 [32]
0	0xbbca2992	-0.0061695063
1	0x3b9db8e8	0.0048133023
2	0x3cb23e5e	0.021758255
3	0xbcb80441	-0.022462966
4	0x3c996593	0.018725192
5	0xbbc0a62f	-0.0058791856
6	0xbab259ba	-0.0013607063
7	0x3ce583e9	0.028017001
8	0x3c8f21ed	0.017472232
9	0xbcbb4aa2	-0.022862736
10	0x3b8b8eca	0.004258965
11	0x3caa047d	0.020754093
12	0x3c7a57e4	0.015279744
13	0xbcadc8f2	-0.021213982
14	0x3cacd2c0	0.021096587
15	0xbccc4cb0	-0.024938911
16	0xbbbe2a96	-0.0058034165
17	0x3b7b3f36	0.0038337237
18	0x3c277902	0.010221722
19	0xbcce4032	-0.025177095
20	0x3cfaa3be	0.030595656
21	0xbc92d6c9	-0.017924683
22	0xbb8e82d7	-0.0043490934
23	0x3cf011ad	0.029305303
24	0x3cb2ca4c	0.021824978
25	0x3b74aea3	0.0037335537
26	0x3c70cde1	0.014697523
27	0x3ca020de	0.019546922
28	0xbcb687a7	-0.022281481
29	0xbcd631a7	-0.026146723
30	0xbb245553	-0.0025075271
31	0x3ae7945c	0.0017668116

encoder.conv2.lin.weight f4 [32, 64]
0	0xbe86e786	-0.26348513
1	0xbd87e71a	-0.06635876
2	0xbd193aa4	-0.03740944
3	0xbe2ed7c6	-0.17074499
4	0x3d666654	0.05624993
5	0x3e193ec2	0.14965346
6	0xbe81fa9a	-0.25386506
7	0x3e251f61	0.16125251
8	0x3e24c7ea	0.16091886
9	0xbe18c364	-0.14918286
10	0x3c91dc13	0.017805135
11	0xbe104161	-0.1408744
12	0xbe33ecba	-0.17570773
13	0xbd0d80f1	-0.034546796
14	0x3e753924	0.23947579
15	0xbe81faa9	-0.2538655
16	0xbe0ff34e	-0.14057657
17	0x3e818a1d	0.25300685
18	0xbe442edc	-0.191585
19	0xbe1a4269	-0.15064396
20	0xbdd259f4	-0.102710634
21	0x3e69dea8	0.22838843
22	0x3d9acfed	0.0755919
23	0x3e627f77	0.22118936
24	0x3d92651c	0.07148191
25	0x3cc5ea65	0.02415962
26	0x3e909c11	0.2824407
27	0x3d4a01f8	0.049318284
28	0xbe853542	-0.26017195
29	0x3e04268b	0.12905328
30	0x3e6203dd	0.22071786
31	0x3c060791	0.008180515
32	0x3d8fa8ca	0.07014616
33	0x3d5c7b42	0.053828485
34	0x3d7cc079	0.061706994
35	0xbd234649	-0.03986195
36	0x3e81c4c5	0.25345436
37	0xbe473552	-0.19453934
38	0xbe62eadd	-0.22159906
39	0x3e31189b	0.17294542
40	0x3e38ab79	0.18034162
41	0xbe44ffd6	-0.19238219
42	0x3e09fff0	0.13476539
43	0x3e83ff21	0.25780585
44	0xbe87b716	-0.2650687
45	0xbe295069	-0.1653458
46	0x3d3fe683	0.046850692
47	0x3de6f3d0	0.11276972
48	0xbe370491	-0.17872836
49	0x3daa1069	0.08303911
50	0xbe084eb1	-0.13311268
51	0xbe61ce4d	-0.22051354
52	0x3dae29b0	0.08504045
53	0xbe8599b6	-0.26093835
54	0x3d073f8d	0.03301959
55	0xbe3b226b	-0.18274848
56	0x3d4fe394	0.050754145
57	0x3c166069	0.009178259
58	0xbe216664	-0.15761715
59	0x3e66d48e	0.2254202
60	0xbd76d58e	-0.060262255
61	0x3dd04365	0.101691045
62	0xbd80c309	-0.062872
63	0xbceb6ad3	-0.028737461
64	0xbcdb1f40	-0.0267483
65	0x3dc532a7	0.09628802
66	0xbe67468f	-0.2258551
67	0x3e1e8474	0.15480214
68	0x3dc85d68	0.09783441
69	0x3d9f0728	0.07765037
70	0xbe1d7e15	-0.15380128
71	0x3e86da92	0.2633863
72	0xbe13a422	-0.1441808
73	0xbdb0f12b	-0.08639749
74	0xbd04dcf4	-0.03243728
75	0xbe16b51a	-0.14717522
76	0xbe64ffdb	-0.22363226
77	0x3e71cd0a	0.23613372
78	0xbdba1aa7	-0.09087115
79	0xbe449697	-0.1919807
80	0xbe4b308c	-0.19842738
81	0x3e1c62a2	0.15272
82	0xbdbd17c3	-0.09233048
83	0x3e6c1d4f	0.23058055
84	0x3e1f7a99	0.15574111
85	0xbce8bdf6	-0.028410893
86	0x3d950f89	0.07278354
87	0xbe09b9cb	-0.1344978
88	0x3e0797b8	0.1324147
89	0x3e83e5fc	0.25761402
90	0x3c0978b2	0.008390592
91	0x3dc5bb36	0.09654848
92	0x3d5692cf	0.0523861
93	0xbe11f4c6	-0.1425353
94	0x3d05d627	0.032674935
95	0x3defad3f	0.11702966
96	0xbe082e61	-0.13298942
97	0xbe05b59d	-0.13057561
98	0xbe03b846	-0.12863263
99	0xbc596908	-0.01326967
100	0x3d4e978e	0.050437503
101	0x3e022ee3	0.12713198
102	0x3e21f8f0	0.15817618
103	0x3e6e3164	0.23261029
104	0xbd730c96	-0.059338175
105	0xbdfa86ce	-0.12232743
106	0xbc6189b8	-0.013765745
107	0xbe0f1962	-0.13974527
108	0xbe6e19a1	-0.23251964
109	0xbd041abd	-0.032252062
110	0xbe885ab2	-0.26631695
111	0xbe38857c	-0.1801967
112	0x3df8f5dc	0.12156269
113	0x3e322223	0.17395835
114	0xbe480007	-0.1953126
115	0x3e1cfa98	0.15329969
116	0xbe55ec59	-0.2089094
117	0x3e6351ee	0.22199222
118	0x3e74b98f	0.2389891
119	0x3e6bf36e	0.2304208
120	0xbd93df59	-0.072203346
121	0x3cc1a5a5	0.023638556
122	0xbe4a83bb	-0.19776814
123	0xbd1d667d	-0.03842782
124	0xbdff5d3a	-0.124689534
125	0xbd3e3c55	-0.046444256
126	0xbe570483	-0.20997815
127	0xbe489bfd	-0.19590755
128	0x3e69aa43	0.22818856
129	0x3e4d41ed	0.2004468
130	0x3ce22a4a	0.027608056
131	0x3e02a5fa	0.12758628
132	0x3e497e31	0.19677044
133	0x3d78816a	0.060670294
134	0xbe0ca558	-0.13734949
135	0xbe48ead9	-0.19620837
136	0x3dd41fbb	0.103576146
137	0x3e6dcc39	0.23222436
138	0xbdc9009d	-0.0981457
139	0xbdea6543	-0.114450954
140	0xbe4536df	-0.19259213
141	0x3e66a49b	0.2252373
142	0xbd2cc8e4	-0.04218377
143	0x3e66cf84	0.22540098
144	0x3d94978a	0.07255466
145	0x3ca63a38	0.020291433
146	0x3e74ab33	0.23893432
147	0x3c999894	0.018749513
148	0xbe38ee60	-0.18059683
149	0x3e094e22	0.13408712
150	0x3dacca43	0.08437016
151	0xbdf5d661	-0.1200378
152	0x3dcfbc4d	0.101433374
153	0xbdc55e9c	-0.09637186
154	0x3da6c415	0.081428684
155	0xbe710f00	-0.23540878
156	0xbe35d367	-0.17756425
157	0x3d60a61d	0.054845918
158	0xbb75acbd	-0.0037486993
159	0x3d03c82b	0.032173317
160	0x3bb10196	0.0054018004
161	0xbe516313	-0.2044795
162	0xbdd589c1	-0.10426665
163	0x3d5f18ad	0.054466892
164	0xbe1cbd0e	-0.15306494
165	0x3e7f4407	0.24928294
166	0xbe81144e	-0.25210804
167	0xbd9fb657	-0.077984504
168	0xbd072911	-0.03299815
169	0xbdb39537	-0.08768695
170	0xbe623bb6	-0.2209309
171	0x3e5284fe	0.20558545
172	0xbde4d3bf	-0.111732
173	0xbe03a145	-0.12854488
174	0xbe159e03	-0.14611058
175	0x3e5aeedc	0.2138018
176	0xbe675e8d	-0.22594662
177	0x3e09509a	0.13409653
178	0x3e5b1d12	0.21397808
179	0xbe80bf4d	-0.2514595
180	0x3e8978f8	0.26850104
181	0x3e4e5d85	0.20152862
182	0xbad6a594	-0.001637625
183	0xbe2fd32e	-0.17170402
184	0x3e93c10d	0.28858224
185	0xbe014fb5	-0.12628062
186	0x3e3c6275	0.18396933
187	0x3e4b8035	0.19873126
188	0x3de490d6	0.11160438
189	0xbdb96ac3	-0.09053566
190	0x3a16877c	0.00057422346
191	0xbd3c2a93	-0.04593904
192	0x3e682bf7	0.22673021
193	0xbe2a3134	-0.16620332
194	0x3e3eaafc	0.18619913
195	0xbe5cb848	-0.21554673
196	0x3df0fc8e	0.11766921
197	0xbe3d76cf	-0.18502353
198	0x3da40f5f	0.08010744
199	0x3e4324ba	0.19056979
200	0x3d71914e	0.058976464
201	0xbe26f1e7	-0.16303216
202	0xbcef081c	-0.029178672
203	0xbd29ddab	-0.041471165
204	0xbd4935c5	-0.049123544
205	0x3e3e1ed1	0.18566443
206	0x3dd248f4	0.10267821
207	0x3d0e440a	0.034732856
208	0x3cd833f4	0.02639196
209	0x3e410775	0.18850501
210	0xbe88d82d	-0.2672743
211	0xbc59c2d6	-0.013291081
212	0xbe1d2fa1	-0.153502
213	0xbe0fab8a	-0.1403028
214	0x3e0d69cd	0.13809891
215	0xbc122280	-0.008919358
216	0x3e276b54	0.16349536
217	0xbe534df8	-0.20635211
218	0xbdf0994c	-0.11747989
219	0xbb99e5ac	-0.0046965685
220	0xbe2e8190	-0.17041612
221	0xbe5a37ba	-0.2131032
222	0x3d82c639	0.06385464
223	0x3e7bcb5e	0.24589297
224	0x3bcc7f81	0.0062407856
225	0x3e6ec315	0.23316605
226	0xbe78c0ea	-0.24292341
227	0x3e1bd677	0.1521853
228	0x3d669d32	0.056302257
229	0xbe3623fc	-0.17787164
230	0xbbdc7d0f	-0.0067287753
231	0xbdd067a0	-0.10176015
232	0x3e2b94fa	0.16756049
233	0xbc0ffbda	-0.008788073
234	0xbda9274d	-0.08259449
235	0xbc5fb9e2	-0.013655158
236	0xbe0f29b5	-0.13980754
237	0x3e71b139	0.23602761
238	0xbe5d6dc9	-0.21623911
239	0xbd9342b8	-0.0719046
240	0x3d73de1c	0.059537992
241	0x3d01d694	0.03169878
242	0x3c8870c5	0.016655335
243	0x3daf18b3	0.08549633
244	0xbe066ee7	-0.13128243
245	0x3e45254b	0.19252507
246	0xbe6158be	-0.22006509
247	0xbe13344b	-0.14375417
248	0xbd182f36	-0.0371544
249	0xbe3cb45c	-0.18428177
250	0xbd8788a3	-0.06617858
251	0x3d73acea	0.059491076
252	0x3e58d1ab	0.21173732
253	0x3e094cc6	0.13408193
254	0xbd4048a2	-0.046944268
255	0xbc9044a8	-0.017610863
