src/algorithms/deep/pretrained/gae_citeseer.pt (torch, 718200 bytes, 4 tensors)

encoder.conv1.bias f4 [48]
000000 8e aa 9c 3c d7 0b 43 3c dd 91 4a 3c 80 05 20 3c
       0.019124296 0.011904678 0.012363878 0.009766936
000010 9d b3 b3 3c ad e8 c2 3b de c6 84 3c b3 51 32 3c
       0.021936232 0.0059481473 0.016208109 0.010883736
000020 8c bd 6e 3c 2a 3a b0 3c 57 a2 bc 3b 25 70 80 3c
       0.014571559 0.02151211 0.005756657 0.015678475
000030 4d 53 44 3c bd 13 17 3c b6 fb 82 3b 69 e6 7a 3c
       0.011982751 0.009221015 0.0039972914 0.015313723
000040 3a c4 ad 3c 4c 2f 50 3c 46 ac c4 3c 41 dc 5a 3c
       0.021211732 0.012706589 0.024007928 0.013358177
000050 e0 1b 9d 3c cf 21 6d 3c f7 07 2b 3c fb ae d5 3a
       0.01917833 0.014473393 0.010438911 0.0016302759
000060 d3 0e 65 3c fc 80 40 3c ac 19 98 3c 6e c1 a8 3c
       0.013980585 0.011749502 0.018566929 0.020600047
000070 57 5e 98 3c d4 74 ed 3b b1 6e 91 3b 6a ff bf 3c
       0.018599672 0.007246593 0.0044382443 0.02343722
000080 76 72 95 3c dd 40 ad 3c 22 3c 77 3c 51 2e 14 3b
       0.018243056 0.021149093 0.01509002 0.0022610615
000090 14 45 12 3c 36 77 43 3c 9f 03 a9 3c 0a 05 8e 3c
       0.008927602 0.011930278 0.02063161 0.017336387
0000a0 89 c3 aa 3c 68 73 19 3c b5 c5 71 3a 0e c6 57 3c
       0.020845192 0.009365894 0.0009222881 0.0131697785
0000b0 fe ae 63 3b 4f 52 ad bb e3 90 96 3c 43 94 b9 3b
       0.0034741755 -0.005289353 0.018379634 0.005663426

encoder.conv1.lin.weight f4 [48, 3703]
000000 d2 41 91 3a 1c 7a cf 3b a0 ae 9b bc 4f 80 49 3c
       0.0011082238 0.0063316952 -0.019004166 0.012298658
000010 76 f8 4e 3c 3a a6 e5 ba ec dc b8 bc 0a d6 82 bb
       0.01263248 -0.0017520853 -0.022566281 -0.0039928006
000020 21 39 29 bc 62 20 e9 3c b6 7e db 3b 2a 5a 62 3c
       -0.010328562 0.028457824 0.0066984547 0.013815442
000030 fa ce a9 bc 11 a6 f1 bc e5 25 44 3d d9 6a bb bb
       -0.020728577 -0.029498132 0.0478877 -0.0057195243
000040 f6 52 82 3d ae 7c c7 bb 54 1f af 3c e3 65 4e 3d
       0.0636348 -0.006087861 0.021377243 0.050390135
000050 7b 0e 80 3c ad bc 0e bc b2 30 6a bc 7f 41 0a 3d
       0.015631905 -0.008711976 -0.014293836 0.03375387
000060 3b 6e 7c bd 66 2d e3 bc 86 66 12 3b 08 c1 c3 3c
       -0.06162856 -0.027731609 0.002233894 0.023895755
000070 32 ee 8a bc cf 79 0b bd 03 69 de bc 3e 01 eb bb
       -0.016959284 -0.034051713 -0.027149683 -0.007171779
000080 7a 31 9c 3c 70 f9 38 bc eb 85 2c 3c 04 ba 8b 3c
       0.019066561 -0.011289939 0.010529975 0.017056473
000090 49 5d 34 bd 72 e7 3f 3d ec 03 a2 bc d1 2f b6 bc
       -0.044034276 0.046851583 -0.01977726 -0.022239598
0000a0 71 aa 5f 3d 3a b2 c2 3c 5c 94 4e 3d 09 1d 93 bc
       0.054605905 0.023766626 0.050434455 -0.017958181
0000b0 f3 4a eb 3b 56 13 21 3d c2 cb 84 bc 16 08 a4 bc
       0.0071805655 0.03932508 -0.01621044 -0.020023387
0000c0 11 c3 64 3d d5 bb 29 bd c9 79 09 3d e5 db 30 3a
       0.055850092 -0.041438896 0.03356341 0.0006746634
0000d0 da 65 6f 3b fa 27 89 bc 09 f4 88 bd fb 66 90 bc
       0.0036529214 -0.016742695 -0.06687171 -0.01762723
0000e0 33 70 05 bd 24 5e 8c bd ec 3c 7b 3d 03 68 65 bc
       -0.032577705 -0.068538934 0.061337397 -0.014001849
0000f0 b4 6d 26 bc 53 d9 37 3c 07 f9 bf bc 99 51 d9 bc
       -0.010157991 0.011221248 -0.023434175 -0.026528167
000100 6f 4c 0f 3c 49 98 07 3d e1 fc 4c bd 20 60 27 3b
       0.0087462505 0.033104215 -0.05004585 0.0025539473
000110 a5 b2 1c 3d b1 67 79 3d 9a e1 29 bd 65 1d 45 3d
       0.038256306 0.060889903 -0.041474916 0.048123736
000120 f4 99 9b bc 55 eb a3 bc 2b 5f 4a bc 30 44 5d bc
       -0.018994309 -0.020009676 -0.012351791 -0.013505027
000130 7a 09 0a bc 6f df d2 ba 9e 8d 69 bc 98 c1 1e bc
       -0.008425111 -0.0016088317 -0.014254956 -0.009689711
000140 bf 3f 05 3b 71 6a 7f 3d f6 03 7f 3d c3 65 9b bd
       0.0020332185 0.06235737 0.062259637 -0.07587769
000150 10 ff 98 bc 56 8e 0a 3d 01 5a 2c 3d 44 31 ba 3c
       -0.01867631 0.03382715 0.042078022 0.02272857
000160 e6 e9 29 bd 88 93 89 3c fe ba d4 ba 18 35 39 3d
       -0.04148283 0.016793981 -0.0016230044 0.04521665
000170 aa e4 39 bb 53 4c 44 3d 34 2d 15 bd 40 5e 68 3c
       -0.0028365054 0.04792435 -0.036420062 0.014182627
000180 26 be 18 3d d0 d0 4c bd fd 37 98 3c 46 88 8b bb
       0.037290715 -0.050003827 0.018581385 -0.0042581884
000190 84 ca b9 3c 8a 35 9d 3b 1c 42 26 bc 36 2b a0 ba
       0.022679575 0.004797642 -0.010147598 -0.0012219909
0001a0 63 54 30 bd 56 01 fb 3c 5c e0 91 bd 8b 57 4c 3d
       -0.043049227 0.030640285 -0.07122871 0.049888175
0001b0 d4 82 ed 3c 7a 84 29 3d ca e9 24 bd b3 a5 28 3d
       0.028993048 0.041386105 -0.04026202 0.041173648
0001c0 3f c9 49 3d e7 b6 ff bc a8 99 95 3c 0a 8b 6a bc
       0.04926419 -0.031215144 0.018261746 -0.014315376
0001d0 8d 71 dc 3c 49 d7 03 3d cc cc 0e bc 6c 9d 03 3d
       0.026909614 0.032187734 -0.00871582 0.03213255
0001e0 ee 73 1a bc e7 c7 6d bd fc 3c f3 bc 43 43 d0 bc
       -0.009427054 -0.05805197 -0.029692166 -0.025422698
0001f0 4e 95 0d 3d 75 56 43 3d 3e 87 3a bd 99 ec 4d bd
       0.034566216 0.047689874 -0.045539133 -0.050274465
000200 ef 51 c2 3c f8 1b 9d bd 83 51 4a bc e5 a3 82 3d
       0.02372071 -0.0767135 -0.0123485355 0.06378917
000210 1d 61 05 bd a2 8a 68 bc 99 f1 9e 3c c2 37 51 bd
       -0.032563318 -0.014193209 0.019402312 -0.051078565
000220 fd 61 61 3d b8 84 a8 bc 97 c1 8e bc 4b 6b 0b 3d
       0.05502509 -0.020571098 -0.017426295 0.03403787
000230 35 63 fd bb 04 79 00 3c 74 d3 6a bd c3 de 78 bd
       -0.0077327737 0.007841352 -0.057330564 -0.060759317
000240 96 ae f4 3c 60 a8 f1 bb d6 85 ae 3b ba c3 30 3d
       0.029868405 -0.007374808 0.005326013 0.04315541
000250 3f 75 12 bb bf 24 71 3d ca 4b 3d bc 5b 82 26 3c
       -0.0022347716 0.058872934 -0.011553714 0.010162915
000260 c2 f7 e1 3c f0 08 a6 3c 24 30 27 3d ad ea 9f 3d
       0.02758396 0.020267934 0.040817395 0.07808433
000270 8d e2 85 bb 67 21 a1 bc b4 85 36 bd 00 95 eb 3c
       -0.004085845 -0.019669248 -0.044561103 0.028757572
000280 db 91 8e 3b 29 67 ad 3c af d9 00 3d 93 0b 87 3c
       0.0043508834 0.021167355 0.0314576 0.016485011
000290 12 2a 74 3d 75 a4 e0 3c 1a f1 35 3c 93 4e 61 3d
       0.059610434 0.02742217 0.011104846 0.055006575
0002a0 c2 0f c8 3c 63 0f c3 3c 0b b0 fa 3c fa 3b 72 bb
       0.024421576 0.023811048 0.030601522 -0.0036962018
0002b0 a5 16 29 bd 18 93 11 3d c1 71 9d 3b f8 3d bd bc
       -0.04128136 0.03554067 0.0048048203 -0.023100838
0002c0 e8 87 de 3c 06 32 30 3d 6e 1f 14 bd d6 1b ad bc
       0.027164415 0.043016456 -0.036162786 -0.021131437
0002d0 f9 19 2e 3c f8 99 3d bd ab 0d c7 bc b2 90 31 3d
       0.01062631 -0.046289414 -0.02429851 0.043350883
0002e0 7e fd eb bc 48 5c d4 3c e0 f6 e5 3b b0 eb 29 bc
       -0.028807398 0.02592291 0.007017955 -0.010371134
0002f0 26 f3 10 3d f7 59 a2 bc 86 fa 02 bd 1e 3a 1b bd
       0.035388134 -0.01981829 -0.0319772 -0.03789722
000300 c4 24 e7 3c c4 55 05 3d 69 45 35 bc 47 87 ca bc
       0.028215773 0.032552496 -0.011063912 -0.024722708
000310 dd 21 4b 3d ac 28 2d 3b 94 bf 40 bd 5f f6 5c bc
       0.04959284 0.0026421947 -0.047057703 -0.013486474
000320 59 05 a6 bc e6 47 87 bd c2 3a 00 bd dd 05 01 3c
       -0.020266222 -0.066055104 -0.031306036 0.007874933
000330 5d ac 74 3c 13 2e e4 bc 80 d3 39 3d 85 54 44 3c
       0.014933673 -0.027854001 0.045367718 0.011983042
000340 df 4b 3e bb 60 9b f4 3c 31 12 14 bd c2 01 17 3d
       -0.0029036922 0.029859245 -0.03615016 0.03686691
000350 82 69 2f bd 61 22 ae ba 6c 86 b7 3a 60 fc 80 3d
       -0.04282523 -0.0013285392 0.0014001853 0.06298137
000360 54 a2 3e 3d 3a 58 b8 3c 16 cc aa bb 36 75 1c bd
       0.046541527 0.022503007 -0.005212317 -0.03819772
000370 2d 0c 4e 3c 0d ac 89 3c 39 dd ae 3a e9 4e 01 bd
       0.012576145 0.016805673 0.0013341076 -0.031569395
000380 14 23 2e 3d 32 af 70 3d 85 db 2d 3d d2 31 16 3c
       0.04251392 0.05876083 0.04244568 0.0091671515
000390 05 42 92 3d 6c 6b 86 bb 0f 20 4c 3d ef 24 20 3d
       0.071414985 -0.004102161 0.04983526 0.039097723
0003a0 9b a2 be 3c 66 5c 34 3c 93 c6 f2 3c 70 0a 65 3c
       0.023270896 0.011008358 0.029635703 0.013979539
0003b0 3b 6c e4 bc 0e 5c 3d bc 6c 05 12 3d fd 92 c4 bb
       -0.02788364 -0.011557592 0.035649702 -0.0059989677
0003c0 d5 fc a7 3c 0f 3f e4 bc 47 83 6f 3c 91 78 02 bd
       0.020506302 -0.0278621 0.014618701 -0.031853262
0003d0 21 83 86 bc 4a b0 2a 3d 40 19 12 3c 0c 31 09 3d
       -0.016419949 0.04167203 0.008917153 0.03349404
0003e0 47 f0 38 3c 0a b6 5d 3d c1 e0 d3 bc 3c 4c 1c 3d
       0.011287755 0.054128684 -0.025864007 0.03815864
0003f0 8b a4 83 bd 73 9e c0 3c bc 58 51 3c 1a b4 a4 39
       -0.064278685 0.023513054 0.012777504 0.00031414704

encoder.conv2.bias f4 [24]
000000 95 1f b1 3c 4a b1 46 bb 6b 12 9d 3c ff 8c de 3c
       0.021621505 -0.0030318075 0.019173821 0.027166842
000010 cc 5f 82 3c e8 27 7e bc 96 f6 ae bc f3 85 b2 bc
       0.01591482 -0.015512444 -0.021357816 -0.021792388
000020 b4 62 0c 3b 04 f9 7b bc 7f 9b aa 3c 32 db 9e 3c
       0.0021421136 -0.015379194 0.0208261 0.01939163
000030 a0 1c 74 bc 3d 68 9e bc 38 3f 7b 3c 7d cf 4c 3c
       -0.014899403 -0.019336814 0.015334897 0.012500641
000040 10 02 d9 bc 51 d3 e1 bb f8 37 d0 bc c8 7e 91 3c
       -0.026490241 -0.006891646 -0.025417313 0.01776065
000050 ae b7 bd bc 47 99 4d bc 9a 81 ba 3c ed 9e 89 bc
       -0.023158874 -0.012548751 0.022766877 -0.016799415

encoder.conv2.lin.weight f4 [24, 48]
000000 de fa 16 be 7d 1e 36 3e c8 a9 8e be b2 dd 93 bc
       -0.14744136 0.17785068 -0.27863908 -0.018050049
000010 d4 be 30 3e 4f f1 0e be 82 a4 34 be 17 e6 96 be
       0.17260295 -0.1395924 -0.1764088 -0.2947242
000020 6f 0f e8 bd 97 29 e9 3d ca 78 c4 3d 33 ca 9d bd
       -0.11331069 0.11384886 0.09593351 -0.07704582
000030 df b4 6b be 14 9a fe bd a6 5d 71 3e fc 39 a7 3d
       -0.23018216 -0.12431732 0.2357088 0.081653565
000040 da 9c a2 3e 8a b8 7f 3c e1 78 8a be 51 20 08 be
       0.31760293 0.015607962 -0.27045348 -0.13293578
000050 7b 22 8e be 2c f8 45 bd 72 e6 e7 3d 54 45 e5 bd
       -0.27760682 -0.04833238 0.11323251 -0.11194864
000060 be d0 1a be c4 49 f9 bd 75 2e a4 3d 57 2a 77 3e
       -0.15118691 -0.12172273 0.080166735 0.24137245
000070 ec 4d 12 be 07 3d 0b 3e 08 a6 7b be 09 d1 f2 bd
       -0.14287537 0.13597499 -0.24575055 -0.118562765
000080 16 2b 22 3e 20 e2 8c 3e c1 79 1d be a6 b6 90 be
       0.15836748 0.2751627 -0.15378477 -0.2826435
000090 30 17 82 3e 69 2c 0a be 12 a6 3f 3c 1f 0b 03 3e
       0.25408316 -0.13493504 0.011697309 0.12797211
0000a0 7d 1c 81 be db c5 41 3e 8a c0 ba bd 7e fc 25 be
       -0.25217047 0.18923132 -0.09118755 -0.162096
0000b0 d4 36 33 be b5 24 28 bd 3f 45 94 3e f8 47 31 be
       -0.17501384 -0.04105063 0.2895908 -0.1731261
0000c0 bd 08 46 be 71 19 55 be f4 c0 80 bd eb 64 0b 3b
       -0.19339271 -0.20810486 -0.06286803 0.0021269869
0000d0 aa 84 96 3e b7 3d 68 3e 32 76 81 be 22 20 98 3e
       0.2939809 0.22679792 -0.25285488 0.29712015
0000e0 8c d0 1f 3e 8f 88 51 3e 2c 7e 86 be 3d d0 91 bd
       0.15606898 0.20462249 -0.26268137 -0.071197964
0000f0 7a 95 64 be 3a 6e 83 3e bd b8 f2 bd d0 e4 44 3e
       -0.22322646 0.25670034 -0.11851642 0.1922791
000100 80 2b 4b be ad a1 fa 3d 0c be 32 3e 2a 44 6d 3e
       -0.19840813 0.122378685 0.1745531 0.23170534
000110 8a c7 35 be a5 6c 16 bd 9d 62 94 be 2d 61 7d be
       -0.177519 -0.036724705 -0.28981486 -0.24744101
000120 f5 47 cc 3d d1 19 3d 3e 9c 4d d7 bd 23 2e 79 3d
       0.09974662 0.1846688 -0.1051285 0.060835015
000130 d4 32 17 be 8f b3 f0 3d f2 ea 7a be 9b cd 97 be
       -0.14765483 0.11752998 -0.24503687 -0.29649052
000140 a4 1b b4 3c ba ba a8 3d f8 bd 8a 3e c3 d2 c4 3d
       0.021985836 0.0823874 0.2709806 0.09610512
000150 f2 d9 7f 3e 7c 4b 95 3d 07 e7 95 be 5c bd 10 be
       0.24985483 0.07289788 -0.29277822 -0.14134735
000160 e6 a7 ec bd 34 80 75 3e de c4 0b be 09 3b 83 3e
       -0.115554616 0.23974687 -0.13649318 0.25630978
000170 74 25 ce bd 0e ed 86 be 61 f9 7f 3e 85 01 35 3d
       -0.10065737 -0.26352733 0.24997474 0.044190902
000180 fc 3f a2 3e ae 59 1b 3e 8a ee 64 3e 08 bf 18 3e
       0.3168944 0.15170929 0.2235662 0.14916623
000190 26 da e9 3d fa 3c 8f be a4 68 50 3e 9a 4b 18 be
       0.11418562 -0.2797621 0.20352417 -0.1487259
0001a0 1c fb 43 3e fc bc 12 3e 02 90 3b 3e 65 d7 90 be
       0.1913876 0.14329904 0.18316653 -0.28289333
0001b0 c1 d4 5d 3e 57 85 4e be 8a 54 7a be a4 3e e5 3c
       0.2166319 -0.20168053 -0.24446312 0.027983971
0001c0 66 68 8c be d3 bf c5 3d ec 11 67 3e 83 10 85 3e
       -0.274234 0.09655728 0.2256543 0.2598916
0001d0 37 31 1d be db 1a 47 be e0 3d 9f 3e e8 2b 19 be
       -0.15350805 -0.19443838 0.31101894 -0.14958155
0001e0 f1 c8 74 3e 9c f6 79 be c1 86 2f 3e 3c 07 f2 bc
       0.23904778 -0.2441048 0.17141248 -0.029544465
0001f0 78 3b 71 3e bc b4 1e be 85 d8 4b 3c a4 a6 d2 bd
       0.23557842 -0.15498632 0.012441759 -0.102856904
000200 91 9e 31 be 15 0c 9a bd 82 54 3c 3b c7 c6 48 bd
       -0.17345645 -0.07521836 0.0028736894 -0.049017694
000210 de 3c c1 3c 65 93 3b be d0 31 87 be 8b 03 7a 3e
       0.023588594 -0.18317945 -0.2640519 0.24415414
000220 cd ac c1 bd b4 7d e0 bb 69 18 9e 3e 10 b2 a3 be
       -0.09456787 -0.0068509225 0.30877998 -0.31971788
000230 b5 69 77 be 0d 4b 1a be a6 fe df bc 84 7d d5 3c
       -0.24161418 -0.15067692 -0.027343106 0.026060827
000240 53 91 21 bd a1 86 5c 3e 75 e7 33 3e 81 c6 26 3e
       -0.039445233 0.21535732 0.17568763 0.1628666
000250 20 98 fd 3d 96 93 7a bb 3a 3d 94 3e 9e 72 1e bd
       0.12382531 -0.003823494 0.28952962 -0.038683526
000260 b5 18 09 3e 96 2b 31 3d 1e 16 fc 3c 11 d4 23 be
       0.13388331 0.043254457 0.030772265 -0.15998866
000270 ca fa 43 bc cb dc 83 be 20 e2 dc 3d 41 46 db bd
       -0.011961648 -0.2575439 0.107853174 -0.10706759
000280 a0 c7 41 3e 12 72 3e bd 9b b6 84 be 44 4b 83 be
       0.18923807 -0.046495505 -0.25920567 -0.2564336
000290 ee 83 69 bd 40 1d 5b be 45 28 83 be 3b ee 8e be
       -0.057010584 -0.21397877 -0.2561666 -0.2791613
0002a0 54 25 c0 bd cb 49 72 be a7 b3 22 3d ba 0c 89 3b
       -0.0938212 -0.23660962 0.03972211 0.0041824253
0002b0 94 87 7b be 8b 0b 54 3e aa de 1b 3e b0 8f 14 3c
       -0.24563438 0.20707528 0.15221658 0.009067461
0002c0 6a d1 ac 3d 2f d7 19 be fb e1 c5 3d 55 77 82 3e
       0.0843838 -0.15023492 0.09662243 0.25481668
0002d0 5d 03 73 be cd a0 95 3e 3e 17 89 bd 6d 20 3b be
       -0.23731752 0.29224244 -0.06693886 -0.18274088
0002e0 40 aa 5b 3e dd 54 a2 3d 90 54 e4 bd 5b 78 fc bc
       0.21451664 0.07926343 -0.111489415 -0.030819109
0002f0 e5 c3 0d 3d 92 4c 50 bd 99 f2 17 3e b8 8b d2 bd
       0.034610648 -0.050854273 0.14838637 -0.102805555
000300 59 3c 78 be 18 9f 1d bd 7a eb 3b 3d fc 91 6f bd
       -0.24241771 -0.0384818 0.045878865 -0.05848883
000310 ae 73 2e 3e e5 09 92 3e ce 76 66 3e e0 0d 84 3e
       0.17036316 0.28523174 0.22506258 0.25791836
000320 5c d3 d3 3d dd 7d 71 be c0 67 3e 3e 92 ef ce bd
       0.10343048 -0.2358317 0.18594265 -0.10104288
000330 b2 fa 62 be c0 83 de 3d 17 21 77 be 2d 17 b4 3c
       -0.22165945 0.10864973 -0.24133717 0.021983707
000340 65 74 cb 3d 36 df 75 3e db b8 77 be 18 b0 49 3d
       0.0993431 0.2401093 -0.2419161 0.0492402
000350 69 47 50 3d 12 83 0b be 9e c0 8a 3d fc d6 d7 bd
       0.050849352 -0.13624218 0.0677502 -0.10539052
000360 ec 25 95 3e 89 b1 12 3c 34 0e 67 be a2 41 88 3e
       0.29130495 0.0089534605 -0.22564012 0.26612574
000370 ad a6 ec 3d 12 81 ec bd 5e 89 59 be fa a4 06 be
       0.115552284 -0.11548056 -0.21243808 -0.13148871
000380 74 6a 4a 3e d6 48 7e bd e6 94 0b be 40 d3 06 be
       0.19767171 -0.06208118 -0.13631019 -0.13166523
000390 9e 0d 5c be c8 82 d4 3d ff d0 1d be cc 96 72 3e
       -0.2148957 0.10376507 -0.15411757 0.23690337
0003a0 2d f0 64 be 23 cb 88 be ed 2a e1 3d 8c a8 1d bd
       -0.22357245 -0.2671748 0.109945156 -0.038490817
0003b0 98 d6 27 be 37 05 dc bd e2 f7 ee 3d 25 04 46 bd
       -0.16390455 -0.10743182 0.11668374 -0.048343796
0003c0 0e f1 23 3e 8b 17 8a 3e e1 d0 d7 3d 06 36 01 3e
       0.16009924 0.26971087 0.10537887 0.12618265
0003d0 6c ff a2 bd 06 a0 94 bd 3c aa 84 be 6f 2c 47 be
       -0.07958874 -0.072570845 -0.2591113 -0.19450544
0003e0 32 a1 dc bd d0 11 33 3e ea d2 71 3e 38 a1 9d bd
       -0.10772933 0.17487264 0.23615614 -0.07696766
0003f0 61 22 67 be ba 21 da 3c 1a d3 89 bd 32 00 37 be
       -0.22571708 0.02662741 -0.067297176 -0.17871168
