src/algorithms/deep/pretrained/gae_citeseer.pt (torch, 718200 bytes, 4 tensors)

encoder.conv1.bias f4 [48]
0.0061750123 0.012722854 0.02043773 0.011181408 0.019911652 0.010118685 0.020888722 0.010925014
0.016529972 0.011890052 0.003359209 0.011434078 -0.00014359721 0.014206171 0.018625291 0.010111972
0.017323563 0.018974205 0.009222742 0.0069771754 0.020259045 0.003616312 0.00534497 0.021262193
0.02051079 0.005209312 0.0039189905 0.0051717795 0.014821162 0.016623974 0.011946804 0.006010986
0.018838136 0.017148085 0.013887377 0.011791575 0.018611379 0.010474591 0.016125215 0.019127877
0.018533578 0.016348928 0.008193299 0.011629652 0.021713777 0.01673708 0.015145555 0.027291128
00000000: c257 ca3b 8473 503c 076d a73c 3932 373c
00000010: c31d a33c d7c8 253c d31e ab3c d4fe 323c
00000020: dd69 873c 7ece 423c 2d26 5c3b 0056 3b3c
00000030: 9592 16b9 00c1 683c 1194 983c afac 253c
00000040: 25ea 8d3c cb6f 9b3c fc1a 173c caa0 e43b
00000050: 4cf6 a53c a6ff 6c3b dc24 af3b 0d2e ae3c
00000060: 3f06 a83c e0b2 aa3b e06a 803b 0878 a93b
00000070: 76d4 723c 002f 883c 87bc 433c cef7 c43b
00000080: 6f52 9a3c 247a 8c3c e287 633c 7331 413c
00000090: e476 983c 9e9d 2b3c 0719 843c 11b2 9c3c
000000a0: bbd3 973c 30ee 853c 303d 063c 4c8a 3e3c
000000b0: 17e1 b13c 331c 893c 1025 783c a591 df3c

encoder.conv1.lin.weight f4 [48, 3703]
0.02011182 0.027184198 -0.01162664 0.05774003 0.00734334 -0.00113086 0.05059034 0.012260421
-0.033023108 0.020447966 0.0016134686 0.022511408 -0.036054067 0.016109854 0.0213982 -0.04366327
0.03482746 0.00033561303 -0.023457045 -0.012943615 -0.021438114 -0.004192967 0.02140262 -0.010492983
-0.025319567 -0.012723851 0.055627745 -0.0057120547 0.048242226 0.0283867 0.010544578 -0.0057642926
0.022369346 -0.016960576 0.002069528 0.03697494 -0.015312852 -0.010702166 -0.022802219 -0.01777365
0.014323563 0.016937252 0.02729499 0.047643073 -0.004196696 0.0019594203 0.01204902 -0.020281188
-0.0060602436 -0.05922713 -0.06123718 -0.021817368 0.0003553371 -0.008820121 -0.0068641193 -0.035430934
0.019326469 -0.013602077 -0.040448762 -0.028319431 -0.042147156 0.017111136 -0.018369958 -0.035146244
-0.016164087 0.019959902 0.0028406302 0.021544999 -0.01651896 0.012805736 -0.0571705 0.003475469
-0.006498407 -0.0038075058 0.0255562 0.027513094 0.029953364 0.027927794 -0.013982191 0.038708486
0.038238466 0.018532686 -0.036208447 0.019180192 -0.022918355 0.0049349885 -0.008619334 -0.01765513
-0.014166195 -0.009482795 -0.028721783 0.009111364 -0.01417683 -0.015042937 0.052276257 0.02289788
-0.00886653 -0.00225865 0.0071577863 0.011782809 -0.05947669 -0.044437148 0.006349694 -0.02799905
-0.028364303 0.033793304 0.04684645 0.041100793 0.06255778 -0.009253628 -0.024048876 0.05335944
-0.018685443 -0.033974413 -0.022683272 -0.019703595 -0.03977924 -0.025606621 -0.029525323 -0.01921682
-0.008453505 0.013972954 0.0083199395 0.009309464 -0.011200089 0.021026315 -0.031594116 0.014668426
0.031410813 0.00681166 -0.042955898 -0.023284335 -0.036285814 0.012973555 -0.031015635 0.046106867
0.040996388 0.00110669 0.038041107 0.0056406795 0.023651572 -0.020100629 -0.03939324 -0.035404313
-0.007916815 -0.02357676 0.04018598 0.027747821 -0.006847501 -0.012615492 -0.038084093 -0.019156087
0.017761825 0.01812185 -0.01432813 0.0010245721 -0.030478058 0.005142419 -0.04185151 0.0052736755
-0.014942885 0.0012073267 0.017086595 -0.0008632635 0.0045787916 0.041779686 0.03158898 -0.043132853
0.014185647 -0.014911941 0.019619875 -0.031164713 -0.05367865 0.006412667 -0.0284296 0.012843762
0.0286783 -0.019110095 0.059020434 0.025457395 0.00072599074 -0.025339104 -0.009464359 -0.013858633
0.028390149 -0.03651223 0.060868375 -0.00824331 0.0523325 -0.044821244 0.05060083 -0.012083003
-0.010671465 0.034083452 0.033148885 -0.025564212 0.002676083 -0.05362934 0.020964429 -0.018760191
0.04686123 -0.014810764 -0.035320673 0.0051266444 0.012511854 -0.012625833 -0.01211409 -0.03177332
0.021541554 0.030343067 -0.05430516 0.0020332206 -0.05657783 0.012901539 -0.019536683 -0.0148789575
0.017477613 0.0072514587 -0.004261991 0.009389492 -0.047307514 0.0026554305 0.012150156 -0.01141945
0.03279157 -0.015319333 -0.019607697 0.0056203436 -0.009296308 -0.06010116 -0.011034396 -0.021767536
0.011220312 0.015612151 -0.044419363 -0.024753613 -0.015814014 -0.04251795 0.05841716 0.021274123
0.0010171871 0.062144604 -0.0035175998 -0.007490458 -0.04185118 0.043537404 0.015809735 0.026398055
0.016775649 0.045079805 -0.016506063 -0.010213553 -0.008624802 -0.0118745025 -0.023975229 -0.059609756
00000000: 8bc1 a43c 65b1 de3c aa7d 3ebc cf80 6c3d
00000010: 67a0 f03b 5d39 94ba d137 4f3d efdf 483c
00000020: 3d43 07bd 7e82 a73c 067b d33a d869 b83c
00000030: 6ead 13bd d0f8 833c 474b af3c 42d8 32bd
00000040: 3da7 0e3d 38f5 af39 fd28 c0bc 7511 54bc
00000050: fc9e afbc 2865 89bb 8c54 af3c c3ea 2bbc
00000060: fb6a cfbc b377 50bc ebd9 633d 302c bbbb
00000070: a499 453d 3a8b e83c 2ac3 2c3c 64e2 bcbb
00000080: eb3f b73c e8f0 8abc eba0 073b 0973 173d
00000090: c2e2 7abc 2358 2fbc b8cb babc 0c9a 91bc
000000a0: 61ad 6a3c febf 8a3c be99 df3c 6225 433d
000000b0: 7084 89bb 9e69 003b 4169 453c bc24 a6bc
000000c0: 0295 c6bb 2698 72bd d6d3 7abd 56ba b2bc
000000d0: 8a4c ba39 4582 10bc 68ec e0bb 0720 11bd
000000e0: 8b52 9e3c 3fdb 5ebc 9aad 25bd 27fe e7bc
000000f0: 7fa2 2cbd a72c 8c3c 987c 96bc 82f5 0fbd
00000100: 8c6a 84bc f382 a33c de29 3a3b 237f b03c
00000110: c552 87bc 26cf 513c 9d2b 6abd b2c4 633b
00000120: 97f0 d4bb 5987 79bb 3c5b d13c 2463 e13c
00000130: c260 f53c d4c8 e43c 8f15 65bc ca8c 1e3d
00000140: f09f 1c3d dcd1 973c 4f4f 14bd c71f 9d3c
00000150: 46bf bbbc afb5 a13b 1b38 0dbc 7ea1 90bc
00000160: 5419 68bc ba5d 1bbc f249 ebbc d547 153c
00000170: ef45 68bc a776 76bc a11f 563d 5694 bb3c
00000180: ec44 11bc dc05 14bb dd8b ea3b af0c 413c
00000190: d49d 73bd ba03 36bd 1811 d03b 445e e5bc
000001a0: 415c e8bc d96a 0a3d 10e2 3f3d 4e59 283d
000001b0: 4b1e 803d 879c 17bc 2602 c5bc 6e8f 5a3d
000001c0: 3712 99bc c128 0bbd 45d2 b9bc 6f69 a1bc
000001d0: 8eef 22bd fac4 d1bc 17df f1bc 986c 9dbc
000001e0: 9280 0abc d1ee 643c 5b50 083c b986 183c
000001f0: 9480 37bc 613f ac3c d568 01bd d653 703c
00000200: a0a8 003d 5834 df3b 86f2 2fbd cabe bebc
00000210: 6fa0 14bd 098f 543c 8014 febc 8eda 3c3d
00000220: d4eb 273d 5b0e 913a fed0 1b3d 73d5 b83b
00000230: f1c0 c13c 13aa a4bc ce5a 21bd 1d04 11bd
00000240: 87b5 01bc 0d24 c1bc 0e9a 243d 664f e33c
00000250: 0061 e0bb 35b1 4ebc 11fe 1bbd 3aed 9cbc
00000260: 3f81 913c 4674 943c 88c0 6abc ef4a 863a
00000270: 1fad f9bc bd81 a83b 7d6c 2bbd ccce ac3b
00000280: 01d3 74bc 293f 9e3a 30f9 8b3c a24c 62ba
00000290: b009 963b 2d21 2b3d 7263 013d 13ac 30bd
000002a0: ea6a 683c 3751 74bc dcb9 a03c 244d ffbc
000002b0: 25de 5bbd 5a21 d23b 31e5 e8bc a46e 523c
000002c0: c1ee ea3c c68c 9cbc 69bf 713d 078c d03c
000002d0: 6a50 3e3a f493 cfbc 6610 1bbc 520f 63bc
000002e0: 7592 e83c d98d 15bd 1e51 793d f30e 07bc
000002f0: 9b5a 563d 7b96 37bd d142 4f3d caf7 45bc
00000300: 5ed7 2ebc 179b 0b3d 20c7 073d 0a6c d1bc
00000310: 3961 2f3b 70aa 5bbd 98bd ab3c f9ae 99bc
00000320: 90f1 3f3d d9a8 72bc 69ac 10bd 69fd a73b
00000330: 85fe 4c3c 95dc 4ebc 2d7a 46bc be24 02bd
00000340: ea77 b03c 0692 f83c 166f 5ebd c83f 053b
00000350: 28be 67bd fa60 533c 650b a0bc dfc6 73bc
00000360: 362d 8f3c a59d ed3b 2ca8 8bbb 62d6 193c
00000370: 86c5 41bd bb06 2e3b 7311 473c a518 3bbc
00000380: 7450 063d f1fd 7abc 52a0 a0bc dc2a b83b
00000390: 8b4f 18bc a22c 76bd 9cc9 34bc d551 b2bc
000003a0: 66d5 373c 1bca 7f3c 14f1 35bd 17c8 cabc
000003b0: 648c 81bc 4d27 2ebd d546 6f3d 1247 ae3c
000003c0: 2353 853a 578b 7e3d 8887 66bb 8472 f5bb
000003d0: 256c 2bbd 4754 323d 6b83 813c bc40 d83c
000003e0: 166d 893c 9aa5 383d b937 87bc bf56 27bc
000003f0: 0b4f 0dbc 468d 42bc b367 c4bc 5c29 74bd

encoder.conv2.bias f4 [24]
0.022475164 -0.010497613 0.0019272588 0.008078749 -0.016902795 0.016322065 -0.009380652 -0.015707975
-0.0058452603 -0.015953101 -0.02195553 0.020349769 0.001664629 -0.016606946 0.012433887 -0.0043574967
-0.019493239 -0.0042358916 -0.005341799 -0.012602917 -0.01577869 0.016087964 -0.01260445 -0.0046310625
00000000: d61d b83c 2efe 2bbc 139c fc3a bb5c 043c
00000010: bb77 8abc dab5 853c 4eb1 19bc 03ae 80bc
00000020: 9989 bfbb 14b0 82bc 15dc b3bc 8fb4 a63c
00000030: ae2f da3a 4a0b 88bc 81b7 4b3c 55c9 8ebb
00000040: 49b0 9fbc 3ccd 8abb 420a afbb 777c 4ebc
00000050: 5042 81bc e8ca 833c e582 4ebc 2bc0 97bb

encoder.conv2.lin.weight f4 [24, 48]
0.17707002 -0.2777783 -0.114933096 -0.15032303 0.30709386 0.18273209 -0.1437831 0.029100055
0.08238408 -0.23329782 0.23878074 -0.117311575 -0.30092764 -0.19231813 -0.03406068 0.008892655
-0.0039937883 0.19042674 0.060667973 -0.10103715 0.08209468 -0.0649213 -0.21518394 0.21458438
0.09056475 -0.03209343 -0.0021846015 -0.031177353 0.08846626 -0.057860903 0.024747532 -0.20420879
0.06571273 0.104192056 -0.22974993 0.043862995 -0.006553555 0.31443986 -0.17568108 -0.11970623
0.20793861 -0.10553831 -0.27660474 -0.21046063 -0.020030905 -0.12280065 -0.195556 0.11049755
0.06881795 0.1831576 -0.06388297 -0.17322864 0.06798842 -0.17139429 -0.26650164 0.24668193
0.0530678 0.27518 -0.15867373 0.14474368 0.09237089 0.13019441 -0.2395354 0.15522926
0.015013872 0.08277825 -0.28243017 -0.177881 0.2368109 0.2747205 -0.043719154 0.30869082
-0.16316104 0.25072673 0.10204122 0.18859822 -0.12036512 -0.090087645 -0.27689087 -0.17771493
-0.13639973 -0.0321172 -0.16722222 0.30126214 -0.021475296 0.123978496 0.11419613 -0.20635177
0.08576802 -0.26935694 -0.18073128 0.08444813 0.06421592 0.21015197 0.011052197 -0.015872316
0.1793985 0.23370291 0.15953054 -0.088106625 -0.21789362 0.04824155 0.06309942 -0.22118309
0.11761309 -0.052579075 -0.2516525 -0.21968593 0.02217143 -0.10979082 -0.22755428 0.1762592
-0.15574734 0.14870806 0.04963134 0.1605369 0.011174663 0.033914194 0.16968727 -0.051398735
0.24206656 -0.17156762 0.0049639987 -0.26564667 -0.24090108 -0.23112008 -0.17341 -0.18986005
0.16048747 -0.093416534 0.24880679 0.22076951 -0.26394516 0.26173124 -0.053377684 -0.2417133
0.26082888 0.23347269 -0.17181 -0.23679467 0.14218263 0.17172639 0.1182335 -0.07321613
0.11778417 -0.31050178 -0.144915 0.03876714 -0.21391849 -0.04391279 -0.16676114 -0.23574029
-0.15247606 -0.20616521 -0.062167224 -0.056905862 -0.18769047 -0.15817206 -0.17091915 -0.20024171
0.202953 -0.32441026 -0.20701692 0.051105905 0.12030969 0.13333605 0.06336272 0.14580187
-0.0141883865 0.045592774 0.10109928 0.14462024 -0.16286822 -0.08652672 0.2259064 0.2915703
0.31200737 0.18121585 0.19643228 0.10741711 0.06386415 0.118150964 -0.07730586 0.14290613
0.11127682 -0.24066722 0.05285496 -0.25564107 0.26421225 -0.10519243 -0.09369536 0.072147116
-0.1910284 -0.17163397 0.13688064 -0.27289376 0.25173593 0.15643528 -0.20137069 -0.06154837
0.27770323 -0.13241866 0.033367738 -0.18111588 0.08166079 -0.040189683 0.07626954 0.15135951
0.059334215 -0.13800272 0.27337828 0.2518335 0.1134589 0.08919556 -0.16608144 -0.07184581
-0.2372715 -0.20500593 -0.04172319 -0.097998634 0.21024446 -0.27419436 0.2371537 -0.09251903
0.15659782 -0.1285256 -0.20769776 0.2042665 0.065958135 -0.28813213 0.2889535 -0.030152818
-0.10590117 -0.08921397 0.124148 -0.17638071 -0.13082 0.24097028 -0.1511422 0.14769498
-0.14474292 -0.18147595 0.011667342 -0.08923819 0.2536853 0.0784222 0.14497575 -0.27956015
0.2521862 0.071990825 -0.2656815 0.0015244858 -0.008467515 0.011987054 0.22132412 0.21369535
00000000: d851 353e f538 8ebe 0b62 ebbd 48ee 19be
00000010: 683b 9d3e 1f1e 3b3e e13b 13be 3d63 ee3c
00000020: fcb8 a83d a0e5 6ebe f082 743e 0d41 f0bd
00000030: 3013 9abe 0bef 44be 3683 0bbd 80b2 113c
00000040: 53de 82bb 3aff 423e fb7e 783d 91ec cebd
00000050: 4121 a83d 75f5 84bd 2e59 5cbe 02bc 5b3e
00000060: 037a b93d 6774 03bd 882b 0fbb a667 ffbc
00000070: cc2d b53d 8eff 6cbd 56bb ca3c 1c1c 51be
00000080: 6594 863d a562 d53d 9143 6bbe afa9 333d
00000090: 34bf d6bb 43fe a03e bee5 33be 8a28 f5bd
000000a0: dced 543e 7824 d8bd 239f 8dbe fe82 57be
000000b0: da17 a4bc e87e fbbd d53f 48be 8a4c e23d
000000c0: 6df0 8c3d aa8d 3b3e 13d5 82bd d962 31be
000000d0: 833d 8b3d fc81 2fbe e772 88be 309a 7c3e
000000e0: 9f5d 593d 65e4 8c3e 5e7b 22be b037 143e
000000f0: f32c bd3d af51 053e c548 75be 6bf4 1e3e
00000100: befc 753c a587 a93d b09a 90be 7026 36be
00000110: 8e7e 723e 2aa8 8c3e db12 33bd b90c 9e3e
00000120: b013 27be 415f 803e fdfa d03d e41f 413e
00000130: fd81 f6bd df7f b8bd a4c4 8dbe e7fa 35be
00000140: 5fac 0bbe 538d 03bd 4d3c 2bbe 083f 9a3e
00000150: f6ec afbc 70e8 fd3d a9df e93d e14d 53be
00000160: 25a7 af3d 27e9 89be 9f11 39be 24f3 ac3d
00000170: a383 833d 1432 573e 4614 353c a906 82bc
00000180: 3eb4 373e d14f 6f3e f95b 233e 3f71 b4bd
00000190: 811f 5fbe ee98 453d 453a 813d d27d 62be
000001a0: 22df f03d 285d 57bd 99d8 80be 59f5 60be
000001b0: dca0 b53c 02da e0bd fd03 69be 4b7d 343e
000001c0: 3b7c 1fbe ed46 183e 3b4a 4b3d c963 243e
000001d0: ef15 373c 9ce9 0a3d 80c2 2d3e 7b87 52bd
000001e0: 4ce0 773e 6caf 2fbe 0aa9 a23b d702 88be
000001f0: c6ae 76be beaa 6cbe 6492 31be ac6a 42be
00000200: d456 243e 2b51 bfbd 35c7 7e3e 6711 623e
00000210: d223 87be a301 863e 8fa2 5abd b183 77be
00000220: 5d8b 853e 7713 6f3e f6ee 2fbe 4d7a 72be
00000230: 5398 113e 0bd9 2f3e 6824 f23d 57f2 95bd
00000240: d438 f13d 17fa 9ebe 9964 14be 4bca 1e3d
00000250: 730d 5bbe e6dd 33bd 6fc3 2abe e765 71be
00000260: af22 1cbe f91c 53be 0fa3 7ebd 1f16 69bd
00000270: ee31 40be dbf7 21be 6e05 2fbe 2a0c 4dbe
00000280: e9d2 4f3e 1a19 a6be 3efc 53be 6d54 513d
00000290: ed64 f63d 3f89 083e 50c4 813d 164d 153e
000002a0: 6876 68bc 7dbf 3a3d 240d cf3d 5417 143e
000002b0: edc6 26be ec34 b1bd 0254 673e b448 953e
000002c0: 6ebf 9f3e a690 393e 8b25 493e 80fd db3d
000002d0: 35cb 823d 22f9 f13d 8952 9ebd fc55 123e
000002e0: 1ae5 e33d 7871 76be 717e 583d 63e3 82be
000002f0: d446 873e 216f d7bd 5ae3 bfbd dec1 933d
00000300: f39c 43be d1c0 2fbe 702a 0c3e bbb8 8bbe
00000310: 88e3 803e 9230 203e 1e34 4ebe 251a 7cbd
00000320: 1e2f 8e3e c298 07be 9cac 083d 7176 39be
00000330: c63d a73d f09d 24bd 3433 9c3d fdfd 1a3e
00000340: 6f08 733d 9650 0dbe 3df8 8b3e 52f0 803e
00000350: 245d e83d 29ac b63d 4111 2abe e523 93bd
00000360: 4df7 72be 13ed 51be f0e5 2abd 82b3 c8bd
00000370: 534a 573e 3463 8cbe 6bd8 723e 9e7a bdbd
00000380: 2e5b 203e 379c 03be b9ae 54be 3d2b 513e
00000390: 0f15 873d 0e86 93be b7f1 933e 0b03 f7bc
000003a0: b6e2 d8bd d0b5 b6bd 4e41 fe3d 259d 34be
000003b0: aef5 05be eac0 763e 05c5 1abe 5a3d 173e
000003c0: 7d37 14be d5d4 39be 6128 3f3c 83c2 b6bd
000003d0: 0ae3 813e d29b a03d 8674 143e 8222 8fbe
000003e0: 8d1e 813e ed6f 933d 6807 88be 41d1 c73a
000003f0: 55bb 0abc 5965 443c caa2 623e f4d2 5a3e
