src/algorithms/deep/pretrained/gae_dblp.pt (torch, 71320 bytes, 4 tensors)

encoder.conv1.bias f4 [48]
0	0x3d1072c4	0.0352657
1	0xbaf582ba	-0.0018730976
2	0x3c77f342	0.015133681
3	0x3cb99c34	0.022657491
4	0xbb2627a4	-0.0025353217
5	0xbc3d3841	-0.0115490565
6	0x3ccc5f92	0.024947915
7	0x3cc88d7d	0.02448153
8	0xbba8da2a	-0.0051529603
9	0x3ca58bce	0.020208266
10	0x3cc5859e	0.024111565
11	0x3cc9733b	0.024591079
12	0xbcfd748c	-0.030939363
13	0xbc151ed4	-0.009101588
14	0x3ce2ce0c	0.027686141
15	0x3cf2b68e	0.029628064
16	0xbc962478	-0.018327937
17	0x3d3ca400	0.04605484
18	0x3d2ca689	0.042151008
19	0xbbd884be	-0.006607621
20	0x3c5c42ea	0.013443688
21	0xbab27329	-0.0013614643
22	0xbc93de28	-0.018050268
23	0x3c94a02b	0.01814278
24	0x3c892556	0.016741436
25	0xbc21e270	-0.009880647
26	0x3ccccefc	0.025001042
27	0xbc859f66	-0.016311359
28	0x3d10954a	0.035298623
29	0xbc8446a8	-0.016146973
30	0x3cf18e6b	0.029486855
31	0xba15ecef	-0.0005719205
32	0x3c8879f6	0.016659718
33	0x3d3643df	0.04449832
34	0xbc20bb46	-0.0098102745
35	0x3c174dee	0.0092348885
36	0x3be450e5	0.006967651
37	0xbce092af	-0.027413694
38	0x3ca791e5	0.02045531
39	0xbc500c25	-0.012698208
40	0x3d28481d	0.041084398
41	0x3c1d0c02	0.009585382
42	0x3c06e6a4	0.0082337
43	0x3c67237d	0.014107582
44	0xbcc09609	-0.023509042
45	0xbc1be2ea	-0.00951455
46	0xbc886c06	-0.016653072
47	0xba16e578	-0.00057562394

encoder.conv1.lin.weight f4 [48, 334]
0	0x3d9907f2	0.074722186
1	0xbe11b508	-0.14229214
2	0x3e18c328	0.14918196
3	0xbde378e0	-0.111070395
4	0xbcb51dfe	-0.022109028
5	0x3d63d741	0.055625204
6	0xbdac981e	-0.084274516
7	0x3dcad7fc	0.09904477
8	0xbcd7d101	-0.026344778
9	0xbd52e52f	-0.051488098
10	0x3ddbd0f7	0.10733216
11	0xbd26a348	-0.04068306
12	0xbd62079e	-0.055183046
13	0x3e05e539	0.13075723
14	0xbda8275d	-0.08210633
15	0xbd9c237c	-0.076239556
16	0xbb6ef44b	-0.0036461528
17	0xbd389a9b	-0.04506932
18	0xbdf5294a	-0.11970766
19	0x3d85b518	0.065286815
20	0x3dc41dc9	0.095759936
21	0xbcad93ba	-0.021188606
22	0xbcbc1550	-0.022959381
23	0x3d8d84ba	0.06910081
24	0x3d896e6a	0.06710513
25	0x3c232fd6	0.009960135
26	0xbd6501a0	-0.055909753
27	0x3df088a8	0.11744815
28	0xbca2396e	-0.019802775
29	0x3d185f38	0.037200183
30	0x3df4e1c6	0.11957125
31	0xbd59be47	-0.05315998
32	0x3e0355b6	0.12825665
33	0x3da5483b	0.080704175
34	0xbdc0071c	-0.09376356
35	0xbd950979	-0.072771974
36	0xbd015895	-0.03157862
37	0x3ddeecde	0.108850226
38	0x3dab0465	0.083504476
39	0x3c6aeff8	0.01433944
40	0xbd9f1cab	-0.0776914
41	0x3d1ce62e	0.038305454
42	0x3daf15f0	0.08549106
43	0x3b0a03b0	0.0021059327
44	0xbde0b7fb	-0.109725915
45	0x3dd687c5	0.10475115
46	0xbdd1de28	-0.10247451
47	0x3d2c2e7b	0.042036515
48	0xbdeb1125	-0.114778794
49	0xbce060c0	-0.027389884
50	0x3d27ce07	0.040967967
51	0x3d00e941	0.03147245
52	0x3e147616	0.14498171
53	0x3e042f58	0.12908685
54	0xbca1f898	-0.019771859
55	0xbda786bb	-0.08179995
56	0xbbcb58c6	-0.006205651
57	0x3e228f79	0.15875043
58	0x3de7c31f	0.11316513
59	0xbdc1060c	-0.094249815
60	0x3ddbe721	0.10737444
61	0x3d3f2328	0.046664387
62	0xbda5f159	-0.08102674
63	0xbab29751	-0.0013625418
64	0xbda0e687	-0.078564696
65	0xbe08db16	-0.13364825
66	0xbd46b9b5	-0.048516948
67	0xbbcb18f2	-0.006198042
68	0x3e1b5223	0.15168051
69	0x3db951c3	0.09048798
70	0x3cd4557f	0.025919674
71	0xbcf587a5	-0.029971907
72	0x3d65c29c	0.056093797
73	0x3cb324df	0.021868167
74	0xbd7b5f8f	-0.06137043
75	0x3dcded73	0.100550555
76	0xbd466e83	-0.048445236
77	0xbe137572	-0.1440027
78	0xbdb5862d	-0.088634826
79	0xbd307e54	-0.043089226
80	0x3d062e03	0.032758724
81	0xbdd8c0ab	-0.105836235
82	0x3e0fe67b	0.14052765
83	0x3e05c438	0.13063133
84	0xbdc17e28	-0.094478905
85	0xbd216d69	-0.039410982
86	0x3df1a362	0.11798741
87	0x3d75a878	0.059975117
88	0x3dda4026	0.106567666
89	0x3db85121	0.08999849
90	0x3ce2376d	0.02761432
91	0x3cee13ea	0.02906223
92	0xbd9f9b95	-0.07793347
93	0x3e005c95	0.12535317
94	0x3e05eb8f	0.1307814
95	0x3e2dd8ed	0.16977282
96	0xbcffc8f6	-0.031223755
97	0x3d945432	0.072426215
98	0x3cbc21f6	0.022965413
99	0xbd7b5d61	-0.06136835
100	0xbde935d2	-0.113872185
101	0xbcd6f723	-0.02624089
102	0x3ced10bb	0.028938642
103	0x3ce76d23	0.028250283
104	0x3da79a52	0.08183731
105	0xbd8778f0	-0.06614864
106	0x3c9038bb	0.017605176
107	0x3d34c481	0.044132713
108	0x3d17180e	0.036888175
109	0x3dc2ed93	0.0951797
110	0xbc8f2ce3	-0.017477458
111	0xbd817662	-0.06321408
112	0x3d956d8d	0.07296286
113	0xbd2401a1	-0.040040616
114	0xbe067d1b	-0.13133661
115	0x3d817265	0.06320647
116	0x3d1862f5	0.037203748
117	0xbd1d7d85	-0.038449783
118	0x3d83c615	0.064342655
119	0x3de099c7	0.10966831
120	0x3e0a0b01	0.1348076
121	0x3ca2bd68	0.019865707
122	0xbdaae26f	-0.0834397
123	0xbad4b826	-0.0016229197
124	0xbd96964d	-0.07352886
125	0x3dc8b0e0	0.09799361
126	0xbd1e9094	-0.0387121
127	0xbd1d1ff6	-0.03836056
128	0x3d562219	0.05227861
129	0xbdc39b12	-0.09551062
130	0x3dda9257	0.10672443
131	0x3d355cbe	0.0442779
132	0x3cdc94e0	0.026926458
133	0x3d0d60b6	0.03451606
134	0x3c952546	0.01820625
135	0xbbcc4e3b	-0.0062349117
136	0xbc2d3e49	-0.010573932
137	0xbe2177ba	-0.15768328
138	0x3ce63c5c	0.028104953
139	0x3e1e5446	0.15461835
140	0x3dc555ae	0.09635483
141	0x3d95bfbc	0.07311961
142	0x3d9746f0	0.07386577
143	0xbd8a1526	-0.06742315
144	0xbe042615	-0.12905152
145	0xbded3866	-0.11583023
146	0x3dad0d99	0.08449859
147	0xbd6778a0	-0.05651152
148	0xbd4a56e6	-0.04939928
149	0xbc83450e	-0.016024139
150	0xbdb570dc	-0.08859417
151	0xbd195736	-0.037436686
152	0x3cad96f9	0.021190153
153	0xbe0261b3	-0.12732582
154	0x3d800efe	0.062528595
155	0xbd87a409	-0.06623084
156	0x3dde234a	0.108465746
157	0xbbfd83db	-0.0077366657
158	0x3da5fd72	0.081049815
159	0xbcfca4dd	-0.030840332
160	0xbd2cf96e	-0.042230062
161	0xbb8d5917	-0.004313599
162	0x3d619389	0.05507234
163	0xbb940dbf	-0.00451824
164	0x3d7bef6f	0.06150764
165	0x3b1ebb9a	0.0024220706
166	0x3e2234fa	0.15840521
167	0xbe0f818a	-0.14014259
168	0x3dd22c98	0.10262412
169	0xbddb0781	-0.10694791
170	0xbd8eb1cf	-0.06967508
171	0x3e025b93	0.12730245
172	0x3dc1d896	0.094651386
173	0x3dfd80a0	0.12378049
174	0xbde8c420	-0.11365533
175	0xbdea1cd1	-0.114312775
176	0x3c8ed2d7	0.01743452
177	0xbd8f5fff	-0.07000732
178	0x3d34c952	0.044137307
179	0xbd163e85	-0.036680717
180	0xbd62314f	-0.055222806
181	0x3d20f65c	0.039297447
182	0x3cdb1cb6	0.026747089
183	0xbcfcb38a	-0.03084733
184	0x3b95428e	0.004555053
185	0xbd5e9bfc	-0.054347977
186	0xbc70987f	-0.014684795
187	0xbc14ebcd	-0.009089422
188	0x3d36e250	0.044649422
189	0xbd889ff8	-0.066711366
190	0x3dd22656	0.10261218
191	0xbdd4b066	-0.10385208
192	0xbbc5b4c6	-0.0060335128
193	0x3d0249ae	0.031808548
194	0xbde56ecd	-0.11202774
195	0x3c260df4	0.010135163
196	0x3d9238d1	0.07139743
197	0xbcd85b2a	-0.026410658
198	0x3cb15595	0.021647254
199	0xbce44af5	-0.027867774
200	0xbe00b0ea	-0.12567487
201	0xbc527a47	-0.012846536
202	0xbd0c569d	-0.03426229
203	0x3dea00ab	0.11425909
204	0xbe0f4b89	-0.13993658
205	0xbd195392	-0.037433214
206	0xbd684c00	-0.056713104
207	0xbd4ff4fc	-0.050770745
208	0x3dda1f5f	0.10650515
209	0x3e0674d7	0.13130508
210	0xbe0d33ee	-0.13789341
211	0xbdb28c74	-0.087181956
212	0xb9b2e2fd	-0.00034119925
213	0xbcc6abfb	-0.024251929
214	0xbdca239f	-0.098700754
215	0x3df323c0	0.11872053
216	0x3d59f4c1	0.05321193
217	0x3dd0fdcb	0.10204657
218	0x3d95219a	0.072817996
219	0x3dfacb5f	0.12245821
220	0xbd2ddd1f	-0.042447206
221	0xbd8ee57a	-0.06977363
222	0x3da48f4d	0.08035145
223	0xbe015dbe	-0.12633416
224	0xbdc89bcc	-0.09795341
225	0xbcff9b8a	-0.031202096
226	0xbc96cdea	-0.018408734
227	0x3c533592	0.01289119
228	0x3ae2e738	0.001731134
229	0x3c94b776	0.018153887
230	0x3d327cc1	0.043576006
231	0xbd09f394	-0.03367956
232	0x3c75788f	0.014982357
233	0x3c1f55d8	0.009725057
234	0x3d66a087	0.056305435
235	0x3d66c819	0.05634317
236	0xbc1745a4	-0.009232912
237	0x3c18042a	0.009278337
238	0xbd899efc	-0.06719777
239	0x3c7b3dc6	0.015334552
240	0xbd689a46	-0.05678775
241	0x3e1215a5	0.14266069
242	0x3c54f5a4	0.012998018
243	0x3d8aacc8	0.06771237
244	0x3ce430b5	0.027855257
245	0x3dbf4abe	0.09340428
246	0xbab04a34	-0.0013449849
247	0x3c6e2a57	0.014536462
248	0xbdcb76e7	-0.09934788
249	0xbe009227	-0.12555753
250	0xbe03ef8b	-0.12884347
251	0x3d80acf7	0.062829904
252	0x3dec2b3b	0.11531683
253	0x3d2a2641	0.041540388
254	0x3bec25c1	0.007206649
255	0xbdf27209	-0.11838157

encoder.conv2.bias f4 [24]
0	0x3ca36267	0.019944383
1	0xbaab1cec	-0.0013054884
2	0x3d0a97a0	0.033836007
3	0xbc3596ef	-0.011083349
4	0xbd1107f6	-0.035407983
5	0xbd0b856d	-0.03406279
6	0xbcac76fd	-0.021052832
7	0x3c8b7360	0.017022789
8	0x3d04289a	0.032265283
9	0x3d06bda0	0.032895684
10	0x3cdaffe7	0.026733352
11	0x3cc3279e	0.023822602
12	0x3ce2d140	0.027687669
13	0xbce73479	-0.028223263
14	0xbc9d1193	-0.01917342
15	0xbcb662dd	-0.022263939
16	0x3c4b2344	0.012398545
17	0x3cc57155	0.024101892
18	0xbce398c7	-0.02778281
19	0xbc59d8e8	-0.013296343
20	0xbd3d30d1	-0.046189133
21	0xbab383a5	-0.0013695849
22	0x3cafae26	0.021445345
23	0x3d1fee79	0.039045785

encoder.conv2.lin.weight f4 [24, 48]
0	0x3e955e3f	0.29173467
1	0x3c53db94	0.0129307695
2	0x3e6874c7	0.22700797
3	0xbc60c4f0	-0.013718829
4	0x3e01b4ab	0.12666576
5	0x3e312652	0.17299774
6	0x3e62a614	0.22133666
7	0xbd6d0cee	-0.05787366
8	0x3e9ea1d0	0.30982828
9	0xbdabcb4e	-0.08388387
10	0xbde14410	-0.1099931
11	0x3e80ec0a	0.25180084
12	0xbe58c8ba	-0.21170321
13	0x3df84aff	0.12123679
14	0x3e52f3a4	0.20600754
15	0x3e172f35	0.14764102
16	0x3e422033	0.18957596
17	0xbdc12998	-0.094317615
18	0xbe138bae	-0.14408752
19	0xbd81ef06	-0.06344418
20	0x3e5e8ff1	0.21734597
21	0xbe569834	-0.20956498
22	0xbdee579b	-0.11637803
23	0xbd8df67c	-0.06931779
24	0x3e35ce6b	0.17754523
25	0xbcfcf249	-0.03087725
26	0xbe4ccc5c	-0.19999832
27	0xbe454d39	-0.1926774
28	0xbe5161d1	-0.2044747
29	0x3e716cd9	0.23576678
30	0xbdcccba4	-0.09999779
31	0xbd85cbef	-0.06533038
32	0x3d406a1c	0.046976194
33	0x3cc86850	0.024463803
34	0xbe71aec4	-0.23601824
35	0x3da68b7d	0.08132074
36	0xbeacc0e7	-0.33740923
37	0xbdd8e8fd	-0.10591314
38	0xbe7b47b5	-0.24539073
39	0xbca4ccd7	-0.020117206
40	0x3d95a9f3	0.07307806
41	0x3e0eb16f	0.13934873
42	0x3da9d28c	0.08292112
43	0xbe16af96	-0.14715418
44	0xbea84b4c	-0.32869947
45	0x3e545cf5	0.20738585
46	0xbe4bb7b7	-0.198943
47	0xbe2d89df	-0.16947125
48	0x3e793d60	0.24339819
49	0xbeab3c2b	-0.33444342
50	0x3e67ac48	0.22624314
51	0x3e8fb05a	0.28064233
52	0x3dc26afe	0.094930634
53	0xbe84b01b	-0.25915608
54	0x3e282d21	0.16423465
55	0xbd7b4d9a	-0.061353303
56	0x3e8ccaa0	0.2749834
57	0xbe8a9a6d	-0.27070943
58	0x3e2021eb	0.15637939
59	0x3db77a11	0.08958829
60	0xbe69aee0	-0.22820616
61	0xbe4b6acc	-0.19864959
62	0xbe841aae	-0.25801605
63	0xbe6097fd	-0.21932979
64	0xbe2fa503	-0.1715279
65	0xbe82b0fc	-0.25525653
66	0xbe4671dd	-0.19379373
67	0x3d8df492	0.06931414
68	0x3d3ccef1	0.046095792
69	0x3e8fe148	0.28101563
70	0x3c969a06	0.018383991
71	0xbd758edf	-0.059950706
72	0xbdeea853	-0.11653199
73	0xbe95e1d9	-0.2927387
74	0x3e57fd07	0.21092616
75	0xbdb58549	-0.08863313
76	0x3ccd0c7f	0.025030373
77	0x3e130e81	0.14361002
78	0xbe07c8d3	-0.13260202
79	0xbe9642bb	-0.29347786
80	0x3c85264b	0.016253611
81	0x3ce11373	0.027475094
82	0xbe7878a2	-0.24264768
83	0xbe22e3ab	-0.15907161
84	0x3e8e45a2	0.277875
85	0xbdf84f5b	-0.12124511
86	0x3e7311b3	0.2373722
87	0x3e0000bd	0.12500282
88	0x3e928227	0.28614923
89	0x3e2927d6	0.16519102
90	0x3e36c00e	0.178467
91	0xbcea78c1	-0.028622033
92	0x3e5cf2e2	0.21577027
93	0x3e532c0f	0.20622276
94	0x3dff86c5	0.12476877
95	0xbe1dc553	-0.15407304
96	0x3e0b8899	0.13626327
97	0xbe80eefc	-0.2518233
98	0x3e5baf47	0.21453582
99	0xbe0c7663	-0.13717036
100	0x3d8d4f0c	0.068998426
101	0x3d877f41	0.06616069
102	0x3e9218c0	0.28534508
103	0x3e9a6de3	0.30161962
104	0xbe76f903	-0.24118428
105	0x3e809a15	0.25117555
106	0xbe53c0d8	-0.20679033
107	0xbce0174a	-0.027354855
108	0xbe771c4d	-0.2413189
109	0xbe02c867	-0.1277176
110	0xbe2a1e30	-0.16613078
111	0x3e0bfe7d	0.13671298
112	0xbd718fb7	-0.058974948
113	0x3e0fee07	0.14055644
114	0xbdfb984c	-0.12284908
115	0x3d0cac2d	0.034343887
116	0xbdd3ad94	-0.10335842
117	0x3e86ccdf	0.2632818
118	0x3d7b7503	0.061390888
119	0x3e37c9f6	0.17948136
120	0xbde26348	-0.11054093
121	0xbe3170ff	-0.17328261
122	0xbd060ff6	-0.032730065
123	0xbe4a5b22	-0.19761327
124	0x3e096a60	0.13419485
125	0xbd83110d	-0.063997366
126	0x3e940a22	0.2891398
127	0xbd9ed2ae	-0.07755028
128	0xbd9ee4e2	-0.077585
129	0x3e80007c	0.2500037
130	0x3e10184c	0.14071769
131	0x3e25b92a	0.16183916
132	0x3e1a08fa	0.15042487
133	0xbe6df2f1	-0.23237206
134	0x3e6302b4	0.22169
135	0xbe6e9fa7	-0.2330309
136	0xbc6b6a92	-0.01436867
137	0xbe45d3e3	-0.1931911
138	0xbe3d0deb	-0.1846234
139	0x3e9af5aa	0.30265552
140	0xbe20968e	-0.15682432
141	0xbdffa05a	-0.124817565
142	0xbe5659ac	-0.20932645
143	0x3daed039	0.08535809
144	0xbe68d54a	-0.22737613
145	0xbe22d500	-0.15901566
146	0xbd9f548e	-0.077797994
147	0xbded0200	-0.11572647
148	0xbcd4ae97	-0.025962157
149	0xbdfabcd1	-0.12243045
150	0x3deca9e1	0.11555839
151	0x3e6a2453	0.22865419
152	0x3d53fdc5	0.051755685
153	0xbc0ff1cd	-0.008785677
154	0x3e67d620	0.22640276
155	0x3c6c8125	0.014435087
156	0x3d7ba49d	0.061436284
157	0xbe514a76	-0.20438561
158	0xbe6c5bc5	-0.23081882
159	0x3daa1420	0.0830462
160	0x3dd6f57e	0.10496043
161	0x3e275568	0.16341174
162	0x3e9795a1	0.29606345
163	0x3c89c374	0.016816832
164	0xbe4b25bd	-0.19838615
165	0x3de4cad9	0.111715026
166	0xbe98e85b	-0.29864773
167	0xbdab91c6	-0.083774135
168	0xbbb58d12	-0.0055404985
169	0x3e8efef4	0.2792889
170	0xbe20391f	-0.1564679
171	0x3db11b9a	0.08647843
172	0xbe361eda	-0.17785206
173	0xbd8d351d	-0.06894896
174	0xbe1e6575	-0.1546839
175	0x3e91870b	0.28423342
176	0xbe724a9f	-0.23661278
177	0x3dbe6685	0.09296898
178	0x3e6516ca	0.22371975
179	0x3e527923	0.20554022
180	0x3e5755e0	0.21028852
181	0x3dfb0e75	0.12258617
182	0x3e540c9d	0.20707937
183	0x3d478264	0.048708335
184	0xbdf58610	-0.11988461
185	0xbe3f4b75	-0.18681128
186	0x3e6bc292	0.23023441
187	0xbe218ecb	-0.15777127
188	0xbd132862	-0.035927184
189	0xbc8f2408	-0.017473236
190	0x3e23488d	0.15945645
191	0xbde80b3a	-0.11330266
192	0xbdcf054e	-0.10108434
193	0x3e81ea8b	0.25374255
194	0x3baeb6f7	0.0053318697
195	0x3e333fb8	0.17504776
196	0x3e43482b	0.19070499
197	0xbe73ca75	-0.238077
198	0xbdfdbb7f	-0.12389278
199	0x3d43c38d	0.047793914
200	0xbdd89316	-0.105749294
201	0xbd573c33	-0.052547645
202	0xbd7e4e63	-0.062086474
203	0xbe9c7fa5	-0.30566135
204	0xbe98e872	-0.29864842
205	0xbdc58ac8	-0.09645611
206	0x3e93650c	0.2878803
207	0x3e516939	0.20450296
208	0xbd935e9f	-0.07195782
209	0xbcb63c8b	-0.022245666
210	0xbe7d47ba	-0.24734393
211	0xbde91e75	-0.11382762
212	0x3e4f0b1c	0.20219082
213	0xbe2ed143	-0.17072015
214	0x3e27258b	0.16322915
215	0x3d144e0d	0.036207248
216	0x3d218613	0.039434504
217	0x3e5d57ed	0.21615572
218	0xbc64c501	-0.013962985
219	0x3e8ddeb0	0.2770896
220	0xbe4262cb	-0.18982999
221	0x3eac3964	0.33637536
222	0x3ea21bf7	0.3166196
223	0x3ea7800d	0.32714882
224	0x3d7611de	0.060075633
225	0xbe85a307	-0.26100942
226	0xbea495ae	-0.32145447
227	0xbd4511c9	-0.048112664
228	0xba516a80	-0.0007988587
229	0x3e169844	0.14706522
230	0x3d2537eb	0.04033653
231	0x3e7839ba	0.24240771
232	0xbe84214b	-0.2580665
233	0xbea263c4	-0.3171674
234	0x3d6db8a4	0.058037415
235	0xbd9ba193	-0.07599177
236	0x3d0e650f	0.034764346
237	0x3cb12b28	0.021627024
238	0xbddecea9	-0.10879261
239	0xbe8c460b	-0.2739719
240	0x3e2a03e4	0.16603047
241	0xbdd6f4a7	-0.104958825
242	0x3e8a2bb6	0.26986474
243	0xbe578013	-0.2104495
244	0x3e72d590	0.2371428
245	0xbceaed39	-0.02867757
246	0xbdc98048	-0.09838921
247	0x3c33a995	0.0109657245
248	0xbd0c892f	-0.034310516
249	0xbe1c9d62	-0.15294412
250	0xbe60146b	-0.21882789
251	0x3db0f3fb	0.086402856
252	0xbe458da1	-0.19292308
253	0x3e13c525	0.14430673
254	0xbe2ca239	-0.16858758
255	0xbe3ec56f	-0.18630002
