src/algorithms/deep/pretrained/gae_citeseer.pt (torch, 958904 bytes, 4 tensors)

encoder.conv1.bias f4 [64]
000000 b2 ca ad 3c 55 a8 6c 3c bc cc 82 3c 32 d2 74 3c
       0.021214817 0.01444443 0.015966766 0.014942693
000010 ca 7b 5a 3c 38 28 6a 3a c0 a0 60 3c c0 79 41 3c
       0.013335178 0.00089323847 0.013710201 0.011808813
000020 f4 a4 37 3c 06 74 91 3c f8 3f 63 3c e3 df 8e 3c
       0.0112087615 0.01775552 0.013870232 0.017440742
000030 75 89 e5 39 ee a1 3a 3c 4f 76 17 3c 60 5a 60 3c
       0.00043780697 0.011391146 0.009244516 0.013693422
000040 50 30 eb 3b 9d 2d 74 3c 75 a5 15 3c 2d c4 19 3c
       0.00717739 0.014903453 0.009133686 0.009385151
000050 ea bd 3d 3b a0 80 2c 3c fa a2 8c 3b c1 5f 8b 3c
       0.002895231 0.010528713 0.0042918893 0.017013432
000060 02 ed 81 3c 66 e9 0a 3c c7 3e 26 3c 1d a4 89 3c
       0.015860084 0.008478498 0.010146803 0.016801888
000070 78 72 65 3c 89 46 31 3b 23 86 7c 3b d2 b8 47 ba
       0.014004342 0.00270501 0.00385321 -0.0007618788
000080 6c 9a bf 3b ca e8 88 3c f1 47 e3 3b 86 c6 44 3c
       0.005847266 0.016712565 0.0069360663 0.012010222
000090 d2 aa 63 3c 3e af 72 3b 38 5c 11 3c a5 f9 61 3c
       0.013895707 0.0037030722 0.008872084 0.01379243
0000a0 24 84 01 3c 82 35 85 3c 0e 0b 65 3c 77 46 9d 3c
       0.00790504 0.016260866 0.013979686 0.01919864
0000b0 25 04 78 3c 0b 1b 0e 3c cd 9d f4 3b e1 85 17 3c
       0.015137707 0.00867344 0.0074651004 0.009248228
0000c0 8b 5f 69 3c 18 04 34 3c 22 5b 3c 3b b9 58 9f 3c
       0.014243971 0.010987304 0.0028740843 0.019451486
0000d0 a3 d4 d4 3b 3a 98 bc 3b 71 1f 97 3c e0 73 86 3c
       0.006495075 0.0057554515 0.01844761 0.016412675
0000e0 86 56 0e 3c 17 31 93 3c b1 1f 2b 3c a3 dd 42 3c
       0.008687621 0.017967744 0.010444568 0.011893663
0000f0 66 23 e4 3b fe f5 2d 3c aa db 4d 39 78 08 ac 3b
       0.0069622276 0.010617731 0.00019632155 0.005250033

encoder.conv1.lin.weight f4 [64, 3703]
000000 cf 74 58 bc 8f 60 b2 3c 7c 7c 62 3c cc 88 18 bd
       -0.013211443 0.021774558 0.013823625 -0.037239835
000010 9f 3d c9 3c 01 c1 6f bb 48 01 b5 3b 8d bd 88 bd
       0.024565516 -0.0036583545 0.0055238344 -0.06676779
000020 96 23 9d bc 24 87 41 3d 05 51 a3 3c 0a 20 94 bc
       -0.019182008 0.04724802 0.019936094 -0.018081684
000030 d9 ec 8a 3b f4 15 9c bc e2 32 56 bc 44 80 b7 3c
       0.00423966 -0.019053437 -0.013073655 0.022400029
000040 28 e6 d8 3a e1 95 81 3c 81 42 6f bd 34 c4 63 bb
       0.0016548084 0.015818538 -0.058413032 -0.0034754397
000050 fa 79 67 3c 57 14 62 3d 4f 72 14 bd 58 93 ef ba
       0.014128203 0.05519518 -0.036241826 -0.0018278165
000060 bd ed e5 bc a8 a0 1c 3d 79 d1 24 3d 58 ca 09 bc
       -0.028067464 0.03823915 0.04023883 -0.008410059
000070 54 1f f7 3c 94 03 f5 bc 09 60 9c 3c 44 25 05 bc
       0.030166306 -0.029908933 0.019088762 -0.008126561
000080 3f 91 d2 3c 49 99 ce bb c7 87 b9 3a a7 28 a1 bc
       0.025704024 -0.006304894 0.0014154845 -0.019672705
000090 13 b0 1d 3d d1 69 ec bc bf 4c 0e 3c fb cb 9d bc
       0.038497996 -0.028859051 0.00868529 -0.019262305
0000a0 13 fa ab 3c 64 31 f7 bc 6d d5 83 bd 86 8b 2a bd
       0.020993268 -0.030174918 -0.06437192 -0.041636966
0000b0 50 98 f4 3c a3 24 c8 3c a2 ce f1 3c 45 2d a9 3b
       0.029857785 0.024431532 0.029517476 0.0051628673
0000c0 32 39 84 3d 45 2b c0 3c a5 aa b8 bc 5a 85 34 bc
       0.06456222 0.023458133 -0.022542307 -0.011018122
0000d0 db 89 0e bd f0 d0 63 3d b8 df 68 3c d2 88 23 3d
       -0.034799438 0.05561918 0.014213495 0.039925404
0000e0 f2 c2 db bc 03 e4 b0 3c 1c e4 41 bc fd aa 4b bd
       -0.026826356 0.0215931 -0.011834171 -0.049723614
0000f0 fb c1 20 3c 5b 95 00 3d 4a 05 2f bc ce 4b fe 3b
       0.009811874 0.031392436 -0.010682413 0.0077605015
000100 8e 43 61 3b 4d 88 27 bc 3f 90 ef bb 2f d6 a8 3c
       0.003437254 -0.010225368 -0.0073108966 0.020609943
000110 e9 8d 29 3c 3f 1a 3a bd 0c db cd bc 40 89 a4 3a
       0.010348775 -0.045435186 -0.025128864 0.0012553111
000120 3e ff e0 3b 9a 87 72 3a 97 74 52 3b a9 63 02 3d
       0.0068663647 0.00092517736 0.003211295 0.031833325
000130 75 80 0c bd b3 4b cb 3a 0d 15 8c 3c ff 9b d6 bc
       -0.034302194 0.0015510231 0.017099882 -0.026197432
000140 ea 50 c5 bb 89 b4 32 bc 85 df 76 3d fb 53 47 3d
       -0.0060216086 -0.010907301 0.06027176 0.048664074
000150 89 ec c0 bc 12 3b 60 bc 65 6f 93 bc e3 2a e9 3c
       -0.023550289 -0.013685958 -0.017997453 0.028462833
000160 b7 6a 4f 3d 92 7a 16 bc dd 7c 3c bd c2 46 4e bc
       0.05063888 -0.0091844965 -0.046017516 -0.012590112
000170 d0 49 8d 3d 3b 85 b8 bb bc 47 6c 3b a2 fe d5 bc
       0.06898844 -0.0056311167 0.00360535 -0.026122395
000180 2e 75 0c 3d b3 7f 84 3c 28 4a a9 bc d2 8a 52 3d
       0.03429144 0.016174173 -0.020665243 0.05140192
000190 9a 2d 50 3b 9a 09 03 3d 35 c6 18 3d b1 24 a7 3c
       0.0031765462 0.03199158 0.0372984 0.020403238
0001a0 ea d5 02 3d ae b3 52 3b 16 08 86 3b fd 69 bc 3c
       0.031942286 0.0032150554 0.0040903194 0.022999758
0001b0 65 86 92 3c 1d 08 10 bc 56 f7 3f bd 8c 1b eb bc
       0.01788635 -0.008790997 -0.046866737 -0.028699659
0001c0 8f 53 e3 bc 8a de 84 3d 5e 5d 3f 3d c3 c0 da bc
       -0.027749805 0.064877585 0.0467199 -0.026703244
0001d0 ab ac 52 3d 77 04 22 3d 83 dc 0a bc 8d 4e bb 3c
       0.0514342 0.03955504 -0.008475426 0.022864604
0001e0 f9 39 10 3b d9 b6 58 3d 91 b3 89 3b d4 df a0 3c
       0.002200721 0.052908752 0.004202314 0.01963798
0001f0 a7 c9 34 3c cb a5 be bc 9d dc 17 bd 4f b5 76 3d
       0.011034406 -0.023272416 -0.037075628 0.060231503
000200 98 e7 69 bd 4a aa 9f 3c 35 a8 a1 bc f4 78 66 3c
       -0.05710563 0.01949038 -0.019733528 0.014066923
000210 fa 1d 9b bb a2 da b6 bb 93 32 40 3c 73 8c 09 3d
       -0.004733798 -0.0055802623 0.011730808 0.03358121
000220 50 56 8c 3b 1d 39 42 3d e4 13 7e 3c e0 de ae 3c
       0.00428275 0.04741775 0.015507672 0.02134651
000230 11 ae 26 3d 34 17 cb bc d5 1c dc 3c cc 38 8d 3c
       0.040693346 -0.024791338 0.026869217 0.017238997
000240 c9 32 01 bd a7 99 5d 3c 3a b4 9e 3b ee 92 19 3d
       -0.031542573 0.013525403 0.004843262 0.03749364
000250 b3 dc 01 3d 24 86 f2 3c 93 91 59 3c 63 38 03 3c
       0.031704616 0.029604979 0.0132793365 0.008009049
000260 c8 6b af bc f6 fa 98 3c 1a e4 5c bc a4 e7 e0 3c
       -0.021413699 0.018674355 -0.013482118 0.027454205
000270 fb c5 00 3d 73 fb f8 3c a3 b9 3e bb 2d 39 ae bc
       0.03143881 0.030393338 -0.0029102347 -0.021267498
000280 0f 4c 26 3b b8 ef fb 3b 24 38 1f bd db 90 0b 3d
       0.0025374924 0.007688489 -0.0388719 0.03407369
000290 79 04 35 bc 4c c2 72 3d 7e 3c 68 3c 00 ac ca 3b
       -0.01104843 0.059267327 0.014174579 0.006185055
0002a0 9a 9f 31 bd 17 1c 5c 3d c4 76 3c bc bc 9f fd 3c
       -0.0433651 0.053737726 -0.011502925 0.030959956
0002b0 bc 30 94 bc c2 10 0a bd ef 06 ab 3b 43 9e f9 3b
       -0.018089645 -0.033707388 0.0052193324 0.007617743
0002c0 9e f2 2a bc 1a 5c 2f bd f7 d0 b7 3c 05 32 02 bd
       -0.010433821 -0.042812444 0.02243851 -0.031785984
0002d0 20 31 2d 3d ad ef 31 bc 54 b1 00 3d 77 12 2d bd
       0.042283177 -0.010860366 0.031419113 -0.042253938
0002e0 c9 28 44 bd 6c f7 d8 bb 63 ea 12 3d e9 02 e8 3c
       -0.04789046 -0.006621292 0.03586806 0.0283217
0002f0 5c 93 ce 3c 85 29 38 3d 74 63 4d ba 52 8d 34 bd
       0.02521675 0.04496147 -0.0007834949 -0.044080086
000300 62 74 85 bd ca 0f a2 3c 35 5e 2c b9 a5 7c d3 3c
       -0.06516339 0.01978292 -0.00016438293 0.025816271
000310 fa 0b af bb 41 54 b9 bb b4 84 2d 3d f8 c7 1c bd
       -0.005342004 -0.005655796 0.042362884 -0.038276643
000320 87 a9 12 3d 0b b4 11 3b f3 75 15 3d 1a 0c dd ba
       0.035806205 0.0022232558 0.03648944 -0.0016864568
000330 c8 48 04 3c d7 4f 48 3c 9f b1 82 ba 6a 47 08 3d
       0.008073993 0.012226067 -0.0009971148 0.03327123
000340 28 4e 52 bd 4a 9e a2 3c 0e f6 5f bd 9e 61 1a 3d
       -0.051344067 0.019850869 -0.054678015 0.03769075
000350 f1 1a 87 bc 8e 54 8f 3d 54 d9 95 3c 68 0e 94 b9
       -0.016492339 0.069985494 0.018292107 -0.00028239493
000360 7a 47 0e bc 6a 73 2c bd 3d 80 8a bd ef 4f 16 3d
       -0.0086840335 -0.042102255 -0.06762741 0.036697324
000370 b2 90 20 3d 11 28 22 3d 4f 24 c7 3b 40 f7 9a bc
       0.039200492 0.03958899 0.0060773264 -0.018916726
000380 2a 71 04 bd 33 d2 21 bc 69 01 95 3b e2 33 4a 3d
       -0.032334484 -0.009876776 0.0045472872 0.049365886
000390 13 02 0d 3d 68 db ce bb 49 55 a2 3b 33 4c 29 3d
       0.034425806 -0.0063127764 0.0049540144 0.041332435
0003a0 5b a1 da 3c 80 53 1f bc 22 d7 40 bd 13 32 7e bd
       0.026688268 -0.009724498 -0.047080167 -0.062059473
0003b0 83 00 ed bc 30 f1 a1 bc e8 30 0a bc 11 59 09 3d
       -0.028930908 -0.019768327 -0.008434512 0.033532206
0003c0 1e 7c 88 3c e4 73 02 bd a6 a5 e4 bc 54 69 38 bd
       0.016660746 -0.031848803 -0.027911019 -0.045022324
0003d0 5a 0b 7d 3d 22 0d aa bb e4 d5 90 bb 7b fb 9a bc
       0.061778404 -0.005189554 -0.004420029 -0.018918743
0003e0 6d 1c a0 3c e8 97 a1 3c a8 f5 0e bc e5 ae 96 3c
       0.019544804 0.019725755 -0.008725561 0.018393943
0003f0 2e 99 7f bc 82 6f 4c 3d d1 cb ca bc f8 2f 57 3c
       -0.015600486 0.04991103 -0.02475539 0.013133995

encoder.conv2.bias f4 [32]
000000 35 cd 56 bc 6f 6c 59 bc 39 7b 08 bc 4a 38 67 3c
       -0.013110449 -0.0132704815 -0.00833016 0.014112541
000010 17 37 4b 3c 0c f4 f0 3b 62 72 12 3c 4e db a7 bc
       0.012403271 0.0073533114 0.008938404 -0.020490315
000020 1c 84 8b bc 6b f3 61 3c ac c6 00 bb f7 57 9e bb
       -0.017030768 0.0137909455 -0.0019649668 -0.0048322636
000030 1f 93 71 3c 6b 29 05 3c a7 13 86 3c b4 c6 3a 3c
       0.014744549 0.008127551 0.016366793 0.011399914
000040 c5 6f 38 3c 7b 45 7f 3b 79 dc 94 3c 15 68 2c bc
       0.011257117 0.0038951326 0.018171536 -0.010522862
000050 e6 56 76 3c 8c 52 a7 3c d6 5a 62 bc 0a 75 9c bc
       0.015035367 0.020425104 -0.013815602 -0.019098777
000060 0b ca 98 3c 42 a4 2e 3c a8 5f 88 3c d6 e0 80 bc
       0.01865103 0.010659279 0.016647175 -0.01573221
000070 86 5d 3b 3c 97 87 53 3c c6 2e 89 3c 00 1e 6d bc
       0.011435872 0.012910745 0.016745936 -0.014472485

encoder.conv2.lin.weight f4 [32, 64]
000000 14 39 3f 3e bf 14 74 be 6c 65 2e be 9d 57 85 be
       0.18674117 -0.23836039 -0.17030877 -0.26043406
000010 f8 7b 5a be a9 08 bb 3d db e6 28 be d3 62 13 3e
       -0.21336353 0.09132511 -0.16494314 0.14393167
000020 1b 41 8d 3d 0a 9c b9 3d 81 ec 2d bd 60 4a 73 be
       0.068971835 0.09062965 -0.042461876 -0.2375884
000030 a4 15 02 3e e2 5a 7c bd 01 f3 67 be 12 3f a1 3d
       0.12703568 -0.06161011 -0.22651292 0.07873358
000040 b7 a6 52 3e 27 a0 e3 39 63 b1 6d be c4 4f 3b 3e
       0.20571409 0.00043416137 -0.23212199 0.18292147
000050 3e 45 e1 bb ec 4d 54 bd 68 b9 76 3e 1b b1 18 3e
       -0.0068747094 -0.051832125 0.24094164 0.1491131
000060 42 b8 99 3d d8 9b 4a bb 69 2d c9 3d b8 40 d9 bd
       0.075058475 -0.0030915644 0.098231144 -0.10608047
000070 b9 ba da 3d 62 b7 5a 3e ae ae 51 bd 26 13 2b be
       0.10680146 0.21359017 -0.05119198 -0.16706523
000080 cd 5c 3c 3e 66 41 32 3e 81 f5 75 3e 52 aa 51 bd
       0.18394776 0.1740776 0.24019434 -0.05118782
000090 c3 97 03 3e 0d 97 5c 3e 95 eb a3 bd 24 91 3a 3e
       0.12850861 0.21541996 -0.08003918 0.18219429
0000a0 65 54 72 3e bb c0 b4 3c 46 02 1d be e8 c2 84 be
       0.23665006 0.022064557 -0.15332898 -0.25929952
0000b0 b0 65 51 3e c5 7f 77 3e 3e 22 49 3e 90 6b be 3d
       0.20448947 0.24169834 0.19641969 0.0929786
0000c0 06 17 a2 bd 15 80 0f 3e dc 43 c9 bb a5 27 51 3e
       -0.079145476 0.14013703 -0.0061421227 0.2042528
0000d0 69 e0 16 be 93 be 5b bd 79 05 18 be 25 6b 57 be
       -0.14734043 -0.053648543 -0.14845838 -0.21036966
0000e0 06 06 f0 bd 97 e3 a6 3d 2f 26 5e 3d c2 ea 27 be
       -0.11719899 0.08148878 0.054235633 -0.16398147
0000f0 e9 4a 5e bd 93 ad 1c bd 24 b5 dd bd 24 6c 04 3d
       -0.05427066 -0.03825147 -0.108255655 0.032329693
000100 95 0c 82 3e ae bb 54 3d 09 68 2f be be cf ca bd
       0.25400224 0.051936798 -0.1712953 -0.09902905
000110 cb 92 6c 3e 46 da 77 3e 4d 8d 2f 3e 39 42 16 be
       0.23102872 0.24204358 0.17143746 -0.146737
000120 99 69 3e be 0c af e1 3d 35 8e 4e bc ee ba 2a bd
       -0.1859497 0.11019716 -0.012607147 -0.041682176
000130 da 45 45 3e 86 61 6c bc 20 0e f3 bd be 3f 21 3c
       0.19264928 -0.014427548 -0.118679285 0.0098418575
000140 37 56 7b 3e 5b a9 64 be 04 d7 52 be 3b 33 d0 3d
       0.24544607 -0.22330229 -0.20589834 0.101660214
000150 1f dd a9 bc cd 7b d0 bd 91 1d 42 be e6 8a ba 3d
       -0.020735322 -0.10179863 -0.18956591 0.09108524
000160 40 1e 0f 3e 26 23 56 3e 0d 6e d4 3d e9 47 a4 bb
       0.13976383 0.20911846 0.10372553 -0.005013455
000170 3b 5e cd bd 28 59 73 bc c4 c8 37 bc 26 09 ec 3d
       -0.10027739 -0.0148527995 -0.0112173 0.115251824
000180 71 7b 36 3e 8a 88 af bc 14 23 a6 bc 7b 7f 2e be
       0.17820527 -0.021427412 -0.020280398 -0.17040817
000190 12 49 25 be 6a 79 47 3e 65 68 6f 3e 5e 12 b1 bd
       -0.16141155 0.1947991 0.23379667 -0.086460814
0001a0 e9 fb 46 be d8 2e 91 bd b1 38 56 3d 62 9d 9c 3d
       -0.19432034 -0.07089013 0.05230016 0.07647206
0001b0 f6 21 b1 bd 54 83 5c be db d2 86 3e 66 c5 6a bc
       -0.08649056 -0.21534473 0.26332745 -0.01432929
0001c0 57 a6 19 3e 96 ad 68 bd af 13 16 bd 39 4f 4c 3e
       0.1500486 -0.05680617 -0.036639865 0.19952096
0001d0 6a ee 1d be ed 5d b4 bd 69 76 54 be 82 40 78 3e
       -0.15422979 -0.088069774 -0.20748295 0.24243358
0001e0 85 c1 70 3e 4b ec 0b be 6f 28 d6 3d af 54 b6 bc
       0.23511322 -0.13664357 0.10456931 -0.022257177
0001f0 0b fc 09 be 3a 95 ef 3d 5b fd 43 be 87 42 26 3e
       -0.13475053 0.116983846 -0.19139616 0.16236316
000200 e5 81 40 3e 63 ff 6b 3e f6 68 9c bc 12 9d f4 bd
       0.18799551 0.23046641 -0.019093018 -0.11944021
000210 02 e6 03 3e 54 44 12 be e5 e1 20 3e 9a e5 42 3e
       0.1288071 -0.14283878 0.15711172 0.19032899
000220 9f 71 4f be 02 1d f0 3d 14 9a f5 bd e8 c6 0b be
       -0.20258187 0.11724283 -0.11992279 -0.13650095
000230 34 30 bf bd ca e7 72 3e 12 7d 73 be 23 0d 6a be
       -0.09335366 0.23721233 -0.2377818 -0.22856574
000240 af a3 cf 3d b6 27 84 be 05 a6 4b 3e 77 13 54 3e
       0.10138642 -0.25811547 0.1988755 0.2071055
000250 5d 15 2c 3e 2c 7f 20 be d8 6e be 3d 41 3a b6 3c
       0.16805024 -0.15673512 0.092984855 0.022244575
000260 fd b6 52 3e 3d cc 60 be 0e 47 c7 3d 74 ba c7 bc
       0.20577617 -0.2195291 0.097303495 -0.0243809
000270 0a 8b 77 3e e1 fe 5e bc 10 7f 04 be ac 53 63 3e
       0.24174133 -0.013610573 -0.12939095 0.22199887
000280 29 45 37 bc df 57 32 3e 63 45 d8 bd 6c 7d ec 3d
       -0.011185923 0.17416333 -0.105601095 0.1154736
000290 bb 3f 03 3e 97 bb b9 bd d7 a6 0b bd c8 8e 08 be
       0.1281728 -0.09068983 -0.034094658 -0.13335717
0002a0 ec 37 36 bd 89 ae 9e bd a9 ed ab 3d 08 b3 85 3e
       -0.044486925 -0.07748134 0.083949395 0.26113153
0002b0 8f 2d 97 3d 3b f0 72 be 4d f5 09 be bf 08 b4 3d
       0.073817365 -0.23724453 -0.13472481 0.08790731
0002c0 a0 db 43 3e 80 b6 77 be e8 5f 52 3d b5 2c 14 3e
       0.19126749 -0.24190712 0.051360995 0.1447018
0002d0 b3 c9 55 be 53 cf 21 3d 05 d6 7b be 53 0e 13 3d
       -0.20877723 0.03950436 -0.2459336 0.035902333
0002e0 8f 19 7a be 6c 89 60 be f1 55 0d bd c4 f3 07 be
       -0.24423812 -0.21927422 -0.03450579 -0.13276583
0002f0 b5 69 0a bc d1 aa 32 3e a9 5b 2a be 63 5e 6c be
       -0.008448054 0.17447974 -0.16636528 -0.2308288
000300 95 b6 76 3d b2 50 69 be 5e e1 62 be dc 84 42 be
       0.060232718 -0.22784689 -0.22156283 -0.18995994
000310 5e ae 12 be 40 29 a6 bd a2 be 70 bd e0 ee 84 3e
       -0.14324328 -0.081133366 -0.05877555 0.25963497
000320 4a 4c 6c 3d 4b 9b f4 3c 9b 7f 45 3e c8 8c 40 3d
       0.057689942 0.029859206 0.19286959 0.04700926
000330 d2 4e 4e be a6 d0 ba 3d 50 e0 1a be 63 3f 20 3e
       -0.20147255 0.09121828 -0.15124631 0.1564918
000340 5c c2 38 bd 9c e8 70 bd fd 31 10 3e 5e cc b0 bd
       -0.04510723 -0.058815584 0.14081569 -0.0863273
000350 3d ae 6f be 58 06 37 be 1d c1 12 3d 51 e1 88 bd
       -0.2340631 -0.17873514 0.0358287 -0.06683601
000360 a9 b8 35 bd 69 25 1e 3e 34 7a c4 3d b2 6b f9 bd
       -0.04436556 0.15443958 0.09593621 -0.121787444
000370 c4 cc 1e 3e fb ff 57 be fc 99 4a 3d 85 37 a9 bc
       0.155078 -0.21093743 0.049463257 -0.020656357
000380 32 75 ad 3d f8 73 1b bc d2 c2 7d 3e 8d b8 75 3e
       0.08469619 -0.009488098 0.2478135 0.23996182
000390 5b 13 95 3d 0f 1b e7 bd 8a 2a ea bd 51 6b 3d be
       0.072790824 -0.11284458 -0.11433895 -0.18497969
0003a0 e4 4e 45 be 53 4b 7c 3e e1 c8 a0 bd a3 68 1b 3e
       -0.19268376 0.24638109 -0.078508146 0.15176634
0003b0 85 a6 12 3e 9f 70 89 3d 58 91 88 3e f7 37 1d 3e
       0.14321335 0.06710934 0.26673388 0.1535338
0003c0 f7 e9 08 be b5 18 62 3e f6 af 13 be 53 d5 2e be
       -0.133705 0.22079737 -0.14422593 -0.17073564
0003d0 d5 6e 7a bd e7 43 7c 3e 8f c5 6a be e8 ae 02 be
       -0.061140854 0.24635278 -0.22926925 -0.12762034
0003e0 2b d4 59 3d 21 a3 3e be 78 35 1b 3c 56 7b 1f 3e
       0.053180855 -0.18616916 0.009473197 0.15574393
0003f0 23 40 e4 bd ca 6a a5 bd bd db 52 be 59 43 15 3c
       -0.111450456 -0.08077009 -0.20591636 0.009110295
