src/algorithms/deep/pretrained/gae_uat.pt (torch, 71888 bytes, 4 tensors)

encoder.conv1.bias f4 [64]
0.018686768 0.03959215 0.02573715 0.043391407 0.028583797 0.03408464 -0.016437892 0.010424978
0.031206112 0.027146617 0.028296378 -0.022518728 0.02842838 0.02838848 0.027427364 0.032581024
0.033352945 0.020530596 0.027654931 0.028446117 0.026746994 0.022331914 0.017984044 0.027752105
-0.021257998 0.029139908 0.028777981 0.027006494 0.030739112 0.022392558 0.03592812 0.015043817
0.034460846 -0.012192238 0.010461958 0.031568356 0.027033834 0.035589006 0.03139274 -0.023016363
0.03056962 0.018426882 0.029680047 -0.006145665 0.031102534 0.03391425 0.029269777 0.03691196
0.03340069 0.02039423 0.029665293 0.033643287 0.026233118 0.036934327 0.0021060319 0.032575954
0.039900776 0.030131819 0.01577033 0.01949191 0.029061522 0.027357621 0.007484257 0.046616975
00000000: fe14 993c 612b 223d b7d6 d23c 30bb 313d
00000010: 9128 ea3c 569c 0b3d c2a8 86bc 87cd 2a3c
00000020: f6a3 ff3c 9562 de3c cecd e73c 3279 b8bc
00000030: a2e2 e83c f58e e83c 5aaf e03c ae73 053d
00000040: 199d 083d c82f a83c 988c e23c d507 e93c
00000050: 831c db3c 6bf1 b63c 4653 933c 6258 e33c
00000060: 4125 aebc d1b6 ee3c cdbf eb3c b93c dd3c
00000070: 97d0 fb3c 9970 b73c 5d29 133d 587a 763c
00000080: d126 0d3d f4c1 47bc a268 2b3c d24d 013d
00000090: 0f76 dd3c c7c5 113d ac95 003d d08c bcbc
000000a0: 246d fa3c f9f3 963c 9223 f33c 9361 c9bb
000000b0: beca fe3c abe9 0a3d 2cc7 ef3c ff30 173d
000000c0: 29cf 083d cd11 a73c a104 f33c 8bcd 093d
000000d0: d6e6 d63c 7348 173d 5a05 0a3b 5d6e 053d
000000e0: ff6e 233d 01d7 f63c c730 813c 7fad 9f3c
000000f0: 6e12 ee3c 171d e03c 803e f53b 71f1 3e3d

encoder.conv1.lin.weight f4 [64, 239]
0.12475258 0.11273641 0.0037265066 0.010625328 -0.09530687 0.15230697 0.12628913 0.045013018
0.12903035 -0.10814897 0.020295357 -0.11793018 -0.02051382 0.13068047 0.090842836 0.114782214
0.06271281 -0.061773185 -0.042282987 -0.02016373 0.10795507 0.06821105 0.06563556 -0.091264375
0.008589595 0.027409233 0.09267188 -0.013791215 0.01936343 0.0715753 0.07734058 0.07272129
-0.038955 0.08417769 0.035435878 -0.051392958 -0.04696212 -0.008655928 -0.06941235 -0.024221605
-0.11067124 -0.0012123695 0.086833596 -0.14124164 0.070864685 0.05694709 -0.017646633 -0.023574917
-0.08276582 0.02538159 -0.10708076 0.10997209 0.049267147 -0.11249716 -0.08963686 -0.07948489
0.082120426 -0.054403607 -0.11759844 -0.14842542 -0.039350614 0.003408085 0.10095238 0.095434725
0.08387677 0.08093242 0.103018805 -0.079364695 0.045918666 -0.14940867 0.09649043 -0.09894426
-0.11992261 0.038294762 -0.13187037 -0.08486987 -0.018111711 -0.10708471 -0.034144737 -0.035877824
0.03317231 -0.026482642 0.05705964 -0.054340646 0.04144907 -0.03681341 0.019282281 -0.031764504
-0.041294158 -0.04141701 -0.13158928 0.11842716 -0.080637336 -0.0065464377 -0.05929023 0.09217711
-0.16574615 -0.14627007 -0.132956 -0.1621507 -0.04177133 0.10629238 -0.15975238 -0.1060764
0.09143727 0.009062336 0.042850852 0.021374136 -0.1551625 -0.06461035 -0.112845816 -0.062357977
0.03628908 -0.08292979 0.070684604 0.07239519 -0.012548402 -0.12149722 -0.15097947 -0.13085912
0.031669736 -0.15290715 0.0137336105 -0.0095478315 -0.036602795 -0.043441042 0.030122623 -0.097381726
-0.06671244 0.10062933 -0.09601412 0.036040805 -0.081389226 0.032012388 0.072535194 0.118774116
0.07350995 0.10382214 -0.09241714 0.14674795 0.07742798 0.104634926 -0.09374171 -0.0053263158
-0.11627021 0.0025159866 -0.15430401 -0.13310342 -0.10015339 -0.033458173 -0.17138003 -0.04008209
-0.10304753 -0.05522488 -0.09587133 -0.028636158 -0.09142226 -0.12344141 -0.15590838 -0.008289439
0.057872206 0.07987635 0.08922726 -0.09563825 -0.011071727 -0.036843512 0.08015236 -0.05747069
0.12965468 0.03260715 -0.07871416 -0.14565063 -0.08820732 -0.08387447 0.026794702 0.04772719
-0.004890576 0.007098399 -0.10626099 -0.0802603 -0.08185671 -0.10415859 -0.10422084 0.111546546
-0.09252156 -0.09920576 -0.06718351 -0.018344164 0.05393394 -0.02168522 -0.040109903 -0.013415948
0.020704726 0.001698835 0.08733708 -0.12074212 0.017690938 -0.122371316 -0.119897366 -0.025323689
-0.030764356 -0.02588556 -0.110540025 0.13516656 -0.034167886 -0.18066284 -0.036053024 -0.047544308
0.024300527 -0.12665671 0.04746236 -0.13165566 0.0008295635 0.022275835 0.13672385 -0.05917844
0.13780653 -0.13635029 -0.07448134 -0.008507773 -0.010185465 -0.0929103 0.030608937 0.08979994
-0.10264404 0.02331233 -0.03854333 0.003376618 0.11031082 -0.08249885 0.06797232 0.10963777
0.095939875 -0.0743805 -0.0642593 0.000121980906 -0.08752879 0.056567058 0.05278945 -0.08052187
-0.10978664 -0.124478616 -0.0069521447 0.051305376 0.035322648 0.08582779 -0.11243711 0.04959577
0.07026963 -0.037602548 0.05909509 0.029140666 -0.06426592 0.11339218 0.14960995 7.656003e-05
00000000: 487e ff3d 59e2 e63d 6838 743b db15 2e3c
00000010: 4030 c3bd 5cf6 1b3e f051 013e 925f 383d
00000020: 8820 043e 357d ddbd 7342 a63c 6185 f1bd
00000030: 990c a8bc 1ad1 053e cf0b ba3d f012 eb3d
00000040: 936f 803d e105 7dbd ed30 2dbd 682e a5bc
00000050: 8c17 dd3d 3cb2 8b3d f06b 863d d1e8 babd
00000060: 5fbb 0c3c 5489 e03c c1ca bd3d 8cf4 61bc
00000070: 0ea0 9e3c 1296 923d bd64 9e3d e6ee 943d
00000080: 478f 1fbd 5a65 ac3d 3625 113d 6c81 52bd
00000090: 5a5b 40bd 98d1 0dbc 1028 8ebd 636c c6bc
000000a0: 9aa7 e2bd 5fe8 9eba d0d5 b13d a6a1 10be
000000b0: 8121 913d 5a41 693d ac8f 90bc 2f20 c1bc
000000c0: 2081 a9bd 0ded cf3c 284d dbbd 0c39 e13d
000000d0: 59cc 493d e964 e6bd 8893 b7bd f9c8 a2bd
000000e0: c12e a83d 51d6 5ebd 73d7 f0bd d5fc 17be
000000f0: 1c2e 21bd 2e5a 5f3b 1fc0 ce3d 4873 c33d
00000100: 96c7 ab3d e6bf a53d 86fb d23d f589 a2bd
00000110: 3615 3c3d 96fe 18be c69c c53d 4aa3 cabd
00000120: fc99 f5bd f8da 1c3d 0709 07be 41d0 adbd
00000130: 035f 94bc 3a4f dbbd 5adb 0bbd a0f4 12bd
00000140: b0df 073d 20f2 d8bc 5eb7 693d 4c94 5ebd
00000150: 80c6 293d a9c9 16bd e0f5 9d3c 7f1b 02bd
00000160: 1024 29bd e2a4 29bd 57bf 06be f089 f23d
00000170: 3025 a5bd 8083 d6bb 50da 72bd 5ac7 bc3d
00000180: 5cb9 29be d2c7 15be 9e25 08be d50a 26be
00000190: 6a18 2bbd d2af d93d 2196 23be 953e d9bd
000001a0: 7743 bb3d 317a 143c 6084 2f3d d018 af3c
000001b0: ebe2 1ebe 6e52 84bd b51b e7bd 146b 7fbd
000001c0: dca3 143d 18d7 a9bd 17c3 903d ee43 943d
000001d0: d097 4dbc 89d3 f8bd 5d9a 1abe efff 05be
000001e0: 20b8 013d b193 1cbe f002 613c 826e 1cbc
000001f0: d0ec 15bd 3cef 31bd b8c3 f63c 1270 c7bd
00000200: 88a0 88bd c016 ce3d 0da3 c4bd 869f 133d
00000210: 65af a6bd 6c1f 033d 558d 943d d83f f33d
00000220: 628c 963d b4a0 d43d 3345 bdbd 1845 163e
00000230: 9092 9e3d d64a d63d a7fb bfbd 6088 aebb
00000240: 131f eebd 40e3 243b df01 1ebe 434c 08be
00000250: 381d cdbd 700b 09bd 3f7e 2fbe 1e2d 24bd
00000260: 950a d3bd 7c33 62bd 3058 c4bd 6096 eabc
00000270: 983b bbbd dace fcbd 72a6 1fbe 6dd0 07bc
00000280: 680b 6d3d 3696 a33d c8bc b63d fddd c3bd
00000290: 3066 35bc 39e9 16bd ec26 a43d 6366 6bbd
000002a0: 32c4 043e 138f 053d e434 a1bd 7025 15be
000002b0: 0aa6 b4bd 61c6 abbd 9080 db3c 967d 433d
000002c0: 2041 a0bb b099 e83b 5d9f d9bd 835f a4bd
000002d0: 7ea4 a7bd 1951 d5bd bc71 d5bd 8472 e43d
000002e0: f27b bdbd 642c cbbd 8297 89bd 8046 96bc
000002f0: d6e9 5c3d 34a5 b1bc 484a 24bd 90ce 5bbc
00000300: f59c a93c 72ab de3a c8dd b23d a547 f7bd
00000310: 96ec 903c d09d fabd c08c f5bd a073 cfbc
00000320: 8805 fcbc f40d d4bc cf62 e2bd 1a69 0a3e
00000330: a0f3 0bbd aeff 38be 56ac 13bd d2bd 42bd
00000340: e611 c73c 4cb2 01be e467 423d bed0 06be
00000350: 1077 593a d07b b63c 5601 0c3e 1865 72bd
00000360: 281d 0d3e 699f 0bbe ac89 98bd 3064 0bbc
00000370: f0e0 26bc c147 bebd 98bf fa3c 08e9 b73d
00000380: 0a37 d2bd 80f9 be3c 9cdf 1dbd 404a 5d3b
00000390: a4ea e13d 28f5 a8bd 1235 8b3d c489 e03d
000003a0: 207c c43d ce54 98bd 619a 83bd 00d0 ff38
000003b0: 4b42 b3bd dcb2 673d c039 583d a6e8 a4bd
000003c0: d1d7 e0bd a5ee febd d1ce e3bb 9625 523d
000003d0: 7bae 103d 7bc6 af3d 6d45 e6bd ef24 4b3d
000003e0: 86e9 8f3d 2105 1abd b10d 723d 68b8 ee3c
000003f0: da9d 83bd 293a e83d 5a33 193e da8e a038

encoder.conv2.bias f4 [32]
-0.0019046199 -0.005442098 -0.0011666289 -0.009552409 0.0024792824 -0.0005088168 -0.0012770542 -0.01776577
0.0022048245 0.0022871778 0.001949179 0.01405865 0.006418808 -0.0013370321 0.0018734506 0.0028903855
0.0006608181 -0.0042477064 0.00035593222 0.0008178754 0.005257658 -0.0020728817 -0.0062964917 0.00371064
-0.00069074373 -2.0037987e-05 -0.0008965876 -0.00014208391 -0.0010473193 0.0043771137 0.008142346 -0.0025159302
00000000: 70a4 f9ba a053 b2bb 92e9 98ba b581 1cbc
00000010: 757b 223b 1e62 05ba d462 a7ba 8589 91bc
00000020: d17e 103b 7ae4 153b 987b ff3a 4056 663c
00000030: dd54 d23b 5a3f afba 928e f53a 9f6c 3d3b
00000040: c13a 2d3a 5830 8bbb 6a9c ba39 b066 563a
00000050: 6f48 ac3b 2fd9 07bb cd52 cebb 352e 733b
00000060: 0713 35ba 4017 a8b7 fa08 6bba 5cfc 14b9
00000070: 3446 89ba e46d 8f3b 7967 053c 4ee2 24bb

encoder.conv2.lin.weight f4 [32, 64]
-0.15962537 -0.13360842 0.052290436 -0.06855492 0.052790534 0.21628751 -0.22515826 0.18907304
-0.10889898 0.01049568 0.020225296 0.17135346 0.13617758 0.23334047 0.11722992 0.22225067
-0.04769381 -0.12885298 -0.0031247395 0.24683805 0.18682054 0.08756482 -0.28853893 0.25544548
-0.11762625 -0.033604518 0.18005218 0.1239492 0.02965593 -0.14201042 0.28689447 -0.032639526
-0.07930866 -0.10824237 -0.12693402 0.18690173 0.18718629 0.2114265 -0.039284155 0.10161301
0.24330766 0.06428736 -0.07030021 0.05687569 -0.14353047 0.114869475 -0.056501433 0.13039733
0.2743915 -0.18537553 0.15760483 0.07106715 0.22068116 0.10540974 -0.09144205 -0.059137482
-0.17067266 0.123745464 -0.14536057 0.06308637 0.25191608 0.03220503 -0.19998981 0.23970106
0.19284992 0.2620802 -0.011707294 0.2054275 -0.1997025 0.12599193 -0.1513471 0.03966172
0.2109176 0.1928893 -0.10079723 -0.07361662 -0.07519732 0.15372203 -0.1392065 0.10234402
0.028005064 -0.085177 -0.1595356 0.18059157 0.013762438 0.0032749912 0.1478093 0.19752406
-0.20871526 -0.17813848 0.21838857 0.18296655 -0.13458474 0.14594437 0.072600976 -0.23299533
0.28092426 -0.0699276 0.048201706 -0.15681535 0.029359037 0.015874831 -0.06378541 -0.25309265
0.1277697 -0.0025158036 0.0654598 -0.13506012 0.015858144 0.28069204 -0.028748894 -0.06296713
0.09488417 0.10601989 0.21054392 0.075912386 -0.017010743 -0.15124075 -0.20035052 -0.029403036
-0.077537395 0.2540512 0.15778816 -0.08400001 -0.08771059 0.047049414 -0.23103674 -0.014750632
-0.2786435 0.11786428 -0.23796107 -0.15149695 0.020911135 -0.11068506 0.15880749 0.11354376
0.22870089 0.1334255 0.074297085 0.054430254 -0.18497194 -0.08708162 -0.18172576 0.04634145
0.271179 -0.1780739 0.22389586 0.00840908 -0.23169261 0.0028381704 0.022287382 0.20235106
0.23309205 0.1894167 -0.21270639 -0.036429223 -0.03984047 -0.16591667 -0.20100397 0.20043893
-0.070306696 0.052756447 0.09654763 0.27517265 0.23582566 -0.14940827 -0.13612573 -0.056978766
0.2869725 0.1461346 0.26047644 0.0876662 0.23684894 0.1428451 -0.07924986 -0.17341384
0.27799568 -0.11330518 0.2163716 -0.05402961 -0.15131477 0.274442 0.17948008 0.16668159
0.018892024 0.21908404 -0.22978193 0.13659105 0.2619935 0.1746509 -0.14819695 0.1969787
0.029484546 0.17222247 -0.23789924 0.28505388 0.015404058 -0.09250667 0.008338872 -0.22613902
0.013010004 0.12051499 0.19322304 0.19819349 -0.016051676 0.029275697 -0.106140606 -0.14908421
0.25070193 -0.08772718 -0.16972382 0.033319835 0.06853983 0.09179502 -0.046548672 -0.17049164
0.14608447 0.09672076 0.16415623 0.12873998 0.23910338 -0.10429447 0.14850663 0.097306535
0.043887254 -0.20639242 0.1400387 0.13311525 -0.02260549 -0.03178588 -0.21563104 0.21537201
-0.07009096 0.068141 -0.09136545 0.094608806 -0.12042856 -0.15782888 0.07763732 0.10992853
0.11539729 -0.16052887 0.21069196 -0.1097582 -0.22229731 0.03135111 0.11351096 -0.17801821
0.022229068 0.13811515 0.1836891 -0.10927001 0.115912 -0.21042055 0.060254693 -0.19310851
00000000: d574 23be a5d0 08be 7f2e 563d 8666 8cbd
00000010: e33a 583d 797a 5d3e e38f 66be 5d9c 413e
00000020: 6e06 dfbd 13f6 2b3c 85af a53c 4877 2f3e
00000030: 2372 0b3e cef0 6e3e 3e16 f03d ae95 633e
00000040: 965a 43bd 09f2 03be 6ec8 4cbb 1dc3 7c3e
00000050: e24d 3f3e 2f55 b33d 60bb 93be c0c9 823e
00000060: 08e6 f0bd e4a4 09bd 995f 383e 14d9 fd3d
00000070: fef0 f23c 2e6b 11be d5e3 923e 06b1 05bd
00000080: 946c a2bd 2dae ddbd fefa 01be 2b63 3f3e
00000090: c3ad 3f3e 3080 583e 6ce8 20bd 7b1a d03d
000000a0: a525 793e 17a9 833d 8ef9 8fbd 7cf6 683d
000000b0: a7f9 12be b040 eb3d 0c6e 67bd e186 053e
000000c0: 0b7d 8c3e 15d3 3dbe 2963 213e a78b 913d
000000d0: 3efa 613e 10e1 d73d f845 bbbd 253a 72bd
000000e0: d0c4 2ebe 436e fd3d 67d9 14be 6d33 813d
000000f0: 25fb 803e 6ce9 033d 21ca 4cbe 3274 753e
00000100: 737a 453e 602f 863e f3cf 3fbc 965b 523e
00000110: d07e 4cbe 0704 013e bcfa 1abe 5474 223d
00000120: c9fa 573e c684 453e c76e cebd 4fc4 96bd
00000130: 0d01 9abd 4f69 1d3e 268c 0ebe be99 d13d
00000140: e06a e53c 4771 aebd 4d5d 23be ffec 383e
00000150: d97b 613c 3ca1 563b 525b 173e bf43 4a3e
00000160: 74b9 55be ef69 36be 41a1 5f3e 955b 3b3e
00000170: 95d0 09be 7172 153e d2af 943d 5496 6ebe
00000180: 4ed5 8f3e 3436 8fbd 276f 453d 3494 20be
00000190: 5d82 f03c ef0b 823c eda1 82bd 5c95 81be
000001a0: 0fd6 023e 2ee0 24bb ca0f 863d 334d 0abe
000001b0: f0e8 813c deb6 8f3e cd82 ebbc e9f4 80bd
000001c0: a252 c23d f520 d93d d398 573e f477 9b3d
000001d0: 1d5a 8bbc dbde 1abe b028 4dbe a3de f0bc
000001e0: edcb 9ebd 0013 823e 3893 213e 3208 acbd
000001f0: 9ca1 b3bd e3b6 403d e594 6cbe a3ac 71bc
00000200: 5caa 8ebe d462 f13d 11ac 73be 0422 1bbe
00000210: d44d ab3c d9ae e2bd 6e9e 223e a189 e83d
00000220: 9130 6a3e b2a0 083e 1229 983d 42f2 5e3d
00000230: 4969 3dbe d957 b2bd 5116 3abe 88d0 3d3d
00000240: f9d7 8a3e 0159 36be f544 653e 3dc6 093c
00000250: d440 6dbe 9900 3a3b 0794 b63c 1e35 4f3e
00000260: afaf 6e3e 74f6 413e b4cf 59be cf36 15bd
00000270: c32f 23bd 0fe6 29be fcd3 4dbe dd3f 4d3e
00000280: f5fc 8fbd 2517 583d c4ba c53d 6ee3 8c3e
00000290: 487c 713e 7bfe 18be 8b64 0bbe 9162 69bd
000002a0: 0fee 923e 4fa4 153e 2b5d 853e 568a b33d
000002b0: 8788 723e fc45 123e c04d a2bd 6693 31be
000002c0: 7355 8e3e 8c0c e8bd 8490 5d3e 274e 5dbd
000002d0: 42f2 1abe a983 8c3e a0c9 373e 94ae 2a3e
000002e0: 72c3 9a3c 9157 603e f44b 6bbe 86de 0b3e
000002f0: 0324 863e afd7 323e f1c0 17be c9b4 493e
00000300: 9389 f13c 165b 303e dc9b 73be 95f2 913e
00000310: 4d61 7c3c 2374 bdbd c49f 083c fd90 67be
00000320: e927 553c 90d0 f63d 43dc 453e 3cf3 4a3e
00000330: ce7e 83bc 96d3 ef3c 3f60 d9bd 88a9 18be
00000340: 015c 803e 4faa b3bd 15cc 2dbe 617a 083d
00000350: 9c5e 8c3d 07ff bb3d d2a9 3ebd 5c95 2ebe
00000360: 2b97 153e 8915 c63d 9218 283e 6ad4 033e
00000370: 84d7 743e 5798 d5bd 1f12 183e a648 c73d
00000380: 1fc3 333d 8958 53be 4e66 0f3e 5d4f 083e
00000390: 262f b9bc e931 02bd 62ce 5cbe 7b8a 5c3e
000003a0: d98b 8fbd 828d 8b3d cf1d bbbd 43c2 c13d
000003b0: 40a3 f6bd e59d 21be 5100 9f3d 3622 e13d
000003c0: 6a55 ec3d ae61 24be a2bf 573e e8c8 e0bd
000003d0: e8a1 63be 066a 003d 6f78 e83d 684a 36be
000003e0: bc19 b63c 0f6e 0d3e ff18 3c3e f4c8 dfbd
000003f0: 4563 ed3d 7c78 57be a0cd 763d 3dbe 45be
