src/algorithms/deep/pretrained/gae_dblp.pt (torch, 71320 bytes, 4 tensors)

encoder.conv1.bias f4 [48]
00000000: 5104 2abc 3e3a 29bc 4612 88bc ada8 623c
00000010: 7bb4 e03a 50ed 693c ef83 28bb c14d dfbc
00000020: 88cc 0dbc 4b0b 4f3d a129 243c a1df ad3c
00000030: ea57 153d b34f b33a bfa6 e43b d99f 823c
00000040: ef6d 9d3c f9c7 dd3b 9f7c a53c d3c7 7abc
00000050: af39 84bb f2b0 3a3d 289b 5ebc d38c 56bc
00000060: 965b 073d e35d c3bc 8a63 87bc 725f 6a3d
00000070: 6d16 c0bb 25af 443d 59b8 353c 9af0 0e3c
00000080: 8d41 653c 55d3 103d ee6b 9d3c 8338 42bb
00000090: 2ae3 96bc b7e8 50bc e183 a6bc 6511 213c
000000a0: 0045 dbbb 867f b6bc 2dc1 143c 231f 6e3d
000000b0: d6e3 09bc 472a f63c 291c ad3b 1a40 67bc
-0.010377006 -0.010328827 -0.016610276 0.013834161 0.0017143631 0.014277771 -0.0025713404 -0.027258756
-0.008654721 0.05054788 0.010019691 0.021224799 0.036460795 0.0013680368 0.0069778855 0.015945362
0.01921746 0.0067682234 0.020201026 -0.015306431 -0.0040351967 0.045578904 -0.013586797 -0.013095099
0.033046328 -0.02384848 -0.016526956 0.05721993 -0.0058620484 0.048018593 0.011091315 0.008724356
0.013992679 0.035357792 0.019216504 -0.0029635734 -0.018418867 -0.012750796 -0.020326557 0.009830807
-0.006691575 -0.022277605 0.00907926 0.058135163 -0.008416137 0.030049456 0.005282898 -0.014114404

encoder.conv1.lin.weight f4 [48, 334]
00000000: a5a7 b53d 9a1b 283d 9e18 d03d 752f e23d
00000010: 5f53 eabc fdd6 2f3c 4bc8 a7b9 5d92 c73d
00000020: 00ab 8abd 5fed 6cbb 5485 8dbd 2b87 8ebd
00000030: c5cd b5bd 131f dfbd f5ed 903d 76f3 f13d
00000040: 74c5 ab3d 0761 e23d 93e1 2d3c 833c 9e3b
00000050: 4259 233e 4a1a 293d e5e1 c33d 0137 29bc
00000060: 0af3 2bbc c8e3 0b3e 1003 3ebc 1d97 313e
00000070: b915 b1bb 1107 f83c 5241 1ebd 1880 8c3d
00000080: 8361 cebd 40bd 7b3d e0f4 2a3c 225c d3bd
00000090: 602f 60bd 90d8 1a3e 27c0 e73b fa4d b8bc
000000a0: f3c9 033e 4f6e 7cbd 5071 5d3d 9e1e 8a3d
000000b0: a367 13be b50b ac3d 274f 7c3d 1e24 043d
000000c0: a613 95bd 2f9d f63d 9129 cfbb e0ff 2ebe
000000d0: e65a 08be 0658 083d b52e 72bd ff83 df3d
000000e0: 689c 903c 4be3 6f3d e824 1c3e da73 2ebd
000000f0: 2c14 1a3d c900 123d 657e 9c3d e806 d63d
00000100: 8135 51bd 2182 8a3d e493 bfbd ddf9 e83c
00000110: 8253 d03d 263c d73d d1fa 1f3d c3f4 a5bd
00000120: c61c a53d b29a 0c3e d3ad 143d ffac ed3c
00000130: 20a2 0e3e 1deb 45bd 7178 85bd d441 033e
00000140: 511e 32bd 1fc7 8a3d 3551 fabd 537c 9dbd
00000150: 8852 703d 2c76 333a f7a3 043e 36c5 d73d
00000160: 8453 db3d ec3b 313e b19b 09bd 4d6a c73c
00000170: b665 283e a0e5 d63d 8d6e a6bd 808d 5cbd
00000180: 23d1 5ebc 05c1 92bd 7da2 58bd b8c9 f53d
00000190: e759 13bc 3eb1 b73b 3a37 e03d 1bd6 34bd
000001a0: d9e9 53bd f7a1 7fbd c31e d53c e6e6 e53c
000001b0: 6db1 70bd 02b3 8bbd 1175 c33c d5f7 9fbc
000001c0: 1ba9 343e 4c94 053d c0c1 af3d 2b38 5ebd
000001d0: 8fe5 85bc 333a 2c3e 6de5 b43d bf0d 49bc
000001e0: 34dd f53d 5c88 6c3d 82fb e13d 0f98 0b3e
000001f0: aa53 8dbd a90d a53d de84 4cbd af23 b9bd
00000200: bfcb a73c 0569 c93b 2e03 e2bc bcfb 153e
00000210: 4b52 7dbd 8fdf d8bd dde3 073e 9a5b e13c
00000220: 79f7 053e 7194 bebd 2d5b e93c 115d 283e
00000230: 6706 e2bc 0c8b 053d 1b19 08bd b40f 98bd
00000240: 99c9 863d cbb3 d03d 297d 86bd 4743 9ebd
00000250: 1d57 103e 35c1 b7bd 4505 983d d081 5e3d
00000260: c10d 0a3e 99e1 7eba f395 083e ecc6 e53d
00000270: 6a9e 6cbd e01f 983d 0d82 c5bd 1c8d babd
00000280: 2442 68bd 9b28 b33d 052d 4abd 6e8a b6bd
00000290: 633d 2fbd 1a18 8dbd a349 07be 49d2 ec3d
000002a0: 9a26 fd3b 9a2a 083e 3abb c8bd dd08 d83d
000002b0: 0be5 c03d 83f1 48bd fc1b 4e3d d499 1c3e
000002c0: fef3 a93d 1b65 603d 31a9 663c e40e 2d3e
000002d0: 27e3 0b3e 801e 423c 924c 143e a89c 073e
000002e0: f794 dc3d 9c6c 0c3d 08d7 ad3d 7e5b 89bd
000002f0: 4fda bcbd 0a30 bfbc 8a96 dfbd 3beb 423d
00000300: 7c8e 1e3d 50a6 aabc 2eb3 293d e986 20bd
00000310: 5d0e d2bb f207 e0bd 6892 ca3d 4d84 de3d
00000320: 25a3 95bd c87f c83d 43c8 033d 7811 ab3c
00000330: d143 e3bd a402 b4bd 2836 0c3e f8cd d0bc
00000340: ff1e 8cbc a38c 023e 7fc1 1cbd 8af6 e73d
00000350: 41e0 ed3d 47b8 16bd a845 14bd ad86 493d
00000360: b833 d33d 7c7c bdbd 7ee3 85bd 8785 dabc
00000370: 166e e8bc 2938 e33d bada 313c fbac be3d
00000380: 2739 abbd bd0d 3a3d 90f4 c93c 1e65 48bd
00000390: 38bf cf3c 7a75 e03d 25cb dd3d 8cf2 5c3d
000003a0: 3110 cb3d 6929 7a3d f6f8 6abd 89d5 643d
000003b0: 7d3c 693c bfcd 1a3e f726 013c 97db 963d
000003c0: 6618 293d f442 0b3e 88ab f0bd 05ac 863b
000003d0: da0b fbb9 47bc 08be 7721 8bbd 2eec 073e
000003e0: ad7f f33c 8b3f 22bd ac7d 96b9 936d 3c3b
000003f0: 03e1 9c3d 0f4c b2bb 459b 24bd edbb d9bc
0.08869866 0.041041948 0.10160945 0.11044208 -0.028604208 0.01073241 -0.00032001952 0.097447135
-0.06770897 -0.0036152226 -0.06910196 -0.06959375 -0.08877138 -0.10894599 0.07076637 0.118140146
0.083872706 0.11053663 0.010612863 0.004828991 0.15952018 0.041284837 0.0956457 -0.010328055
-0.010494957 0.1366111 -0.01159741 0.17342801 -0.005404201 0.030276807 -0.038636513 0.068603694
-0.10077193 0.06145978 0.010434359 -0.10320307 -0.05473268 0.15121675 0.007072467 -0.02249812
0.12870006 -0.061628636 0.05406314 0.06744121 -0.14395003 0.084006704 0.061598923 0.032261007
-0.07279138 0.12041699 -0.006322094 -0.17089796 -0.13315925 0.03328707 -0.059126575 0.10913848
0.017652705 0.058566373 0.15248454 -0.042590953 0.037616894 0.03564528 0.07641295 0.10450536
-0.051076416 0.06763101 -0.0935438 0.028439457 0.10172178 0.10509519 0.039057557 -0.08103325
0.08062129 0.13730887 0.036298584 0.029013155 0.13929033 -0.048319925 -0.06517113 0.1281808
-0.043485943 0.067762606 -0.1222252 -0.076897286 0.058672458 0.0006845917 0.12953173 0.10535662
0.10709289 0.17308015 -0.033595745 0.02434268 0.1644505 0.10493016 -0.08126555 -0.053845882
-0.013599667 -0.07165722 -0.052889336 0.120013654 -0.008993602 0.0056058457 0.10948034 -0.0441495
-0.051736686 -0.06241032 0.026015645 0.028064203 -0.058762956 -0.068212524 0.023859533 -0.019527355
0.17642634 0.03261213 0.08581877 -0.054252785 -0.016344814 0.16819076 0.08832822 -0.012271344
0.12005082 0.05774723 0.110342994 0.13632225 -0.06900723 0.08059246 -0.0499314 -0.09040009
0.020482896 0.0061465525 -0.027589407 0.1464681 -0.06184606 -0.105895154 0.13270517 0.0275095
0.13082685 -0.09305657 0.028485859 0.16441752 -0.027590944 0.03260331 -0.033227067 -0.0742487
0.065814205 0.10190543 -0.06566841 -0.07727676 0.14095731 -0.08972398 0.0742288 0.054323018
0.13481809 -0.0009722948 0.13338451 0.11219582 -0.057768263 0.07427955 -0.09643946 -0.09108946
-0.0567037 0.08747979 -0.04935934 -0.08913122 -0.042783152 -0.06889363 -0.13211684 0.11563546
0.007725549 0.13297501 -0.09801336 0.105485655 0.094186865 -0.04905845 0.050319657 0.15293056
0.08298491 0.05478392 0.014078424 0.16900212 0.1366087 0.011848092 0.14482334 0.13243353
0.107706 0.034283265 0.084882796 -0.06706904 -0.092213266 -0.023338336 -0.10917385 0.047587615
0.038710102 -0.020831257 0.041430645 -0.03919116 -0.0064104036 -0.109390154 0.09891206 0.10865078
-0.07306508 0.09789997 0.032173406 0.020882353 -0.11096919 -0.08789566 0.13692534 -0.025488839
-0.017104624 0.12748961 -0.03827047 0.113263205 0.11615039 -0.036796834 -0.036199242 0.049200702
0.10312599 -0.09252259 -0.06537531 -0.026674999 -0.028372806 0.11094696 0.010855371 0.09310337
-0.0836051 0.045423258 0.02465275 -0.048924558 0.025359735 0.10959907 0.10829762 0.05394225
0.09915198 0.061074648 -0.057366334 0.055867705 0.014235613 0.15117548 0.007882825 0.07366102
0.041283034 0.1359976 -0.11751467 0.004109862 -0.0004788328 -0.13353072 -0.06793492 0.13273689
0.029723966 -0.03961138 -0.00028703862 0.0028751835 0.07660105 -0.005441196 -0.04018714 -0.026578868

encoder.conv2.bias f4 [24]
00000000: 2a56 233d 44b6 1fbd d560 253d edcc 98bb
00000010: 2f87 f63c 392a 32bc 5066 0abd fb10 0f3d
00000020: 6080 2a3d 0855 c5bc 14b4 fb3c e8f1 b9bc
00000030: dc47 12bd b364 1c3d d4c3 39bd 3b31 b83c
00000040: 847b b93c b1db 34bb f35a c93c 4179 bebc
00000050: b398 dbbc f370 973c dc61 f6bc 0293 883b
0.039877094 -0.03899218 0.04037555 -0.004663101 0.030093757 -0.0108743245 -0.03378898 0.034928303
0.041626334 -0.024088398 0.030725516 -0.022698358 -0.03571306 0.03818197 -0.045352772 0.022484412
0.022641905 -0.0027596767 0.0245795 -0.023251178 -0.026806211 0.018486476 -0.03007596 0.0041679153

encoder.conv2.lin.weight f4 [24, 48]
00000000: 900e 91bc 5928 88bd ff42 d7bc 9ede 713e
00000010: ac3c 553e de14 1e3e 559d 34be 020b 84be
00000020: c7c8 223c 8f67 3d3e 4f0d 63bd baa1 00bd
00000030: 93af 9f3e 6668 36bd daec 82be d539 86bc
00000040: 755d 5fbe 8567 72be f2cf babd a4fe 223e
00000050: 2930 3a3e 34d1 08bd 2dff a33d 1485 a63e
00000060: f5ca 513c f97e 77be c3e5 7bbe dd49 983e
00000070: 3ee7 243e dad8 a33e 3069 3ebe 1778 d3ba
00000080: 0c16 adbd bb7e 13be 6cb8 4a3e c78a 2fbe
00000090: a69b 7cbe 8567 123e 0e32 81be c3a0 ee3d
000000a0: 47dd 053d 5382 27be d565 c4bd fc5d 953e
000000b0: c9a2 0cbe bab7 c2bd 2bf8 d0bb ec2e 99bd
000000c0: bb48 503e ab53 833e 5b40 003e c2c5 8b3e
000000d0: 6b92 ba3d 5881 7d3e f73c e3bc 1dc1 d7bc
000000e0: 18b4 163e e0ab 09bc e9c3 803e 53f9 f8bd
000000f0: 83fa 36be f911 753d dc6a a93d 47d4 413e
00000100: e13f 8c3e 2e2c 363c 74bb c0bd d9c7 1a3e
00000110: 1892 cc3d a8a6 763e 0f15 87bd 9c02 0abe
00000120: a718 56be 0645 8bbe bd31 8ebe 9e97 0abe
00000130: ac39 3c3e ee0f fcbd 17f7 7bbe 9fbe 98be
00000140: 2266 213d 29c0 343e b95b cebd 6e87 44be
00000150: 707c 64be d914 c4bd d080 8dbe 0191 fcbd
00000160: 260a 66be 5f82 ecbd 5765 2cbd 14be 43bd
00000170: 7893 ebbc b2e4 c1bc a207 8b3c ab4c 863e
00000180: 35b9 40be 96a3 703e 8cb7 cd3d 3852 9f3e
00000190: 571a 75bd afac bbbc 3e40 6a3e ab4f 67be
000001a0: 92d8 103e 7f55 a0be f750 243e 64ff 6d3d
000001b0: 6ab3 efbd 6138 05be e52d 603e 2631 f2bd
000001c0: e5ed e53d 7dd1 c3bb 6e40 68be bf95 47be
000001d0: 1887 823e 343b 193e 12ba 82bd bf08 20be
000001e0: 8438 823e b49e 5bbe b1c5 70be 7bb2 873d
000001f0: b281 8c3c fa26 2ebc b7f6 4f3e b4ca 093e
00000200: a14b 123e 83e6 52be 85b6 f93d cce6 00be
00000210: a524 7bbe 1761 ba3d 670a 8a3e e1b1 603e
00000220: 4414 6cbe 0b89 f63d afd6 09be c6ce 53be
00000230: 1176 383e d551 1dbe ea08 e5bd ac0a 5c3e
00000240: 9c05 063d 3bf2 7dbe 8406 6d3e 5fb3 7fbe
00000250: 508f d53d d988 303e 6afc acbe 0528 323e
00000260: f64c 8bbe 0e9d 053e a257 353d 9f55 093e
00000270: 49c6 32bd 3646 22be 8506 1c3e 6c9f 85be
00000280: 020e 85be 5dbe 193e 5c9b 843d 375c 0b3e
00000290: 5aaa e53d ed08 50be d6b8 87be b70d 7bbe
000002a0: a386 5abd 28d4 923e d37b 02be 0290 5cbe
000002b0: c413 8f3e c7af 9ebd 5c29 fdbc 4513 9a3e
000002c0: 552a 9a3d 1446 333e 0957 453e 0f1a 82be
000002d0: c0dd 093d d74a d23d f774 083e cae9 4dbe
000002e0: 5358 0f3c 3f4c 823e 272a 0abe 4572 9cbe
000002f0: aec7 5cbd 0a20 bfbd c579 903d 3943 25be
00000300: c09a 163e 0a6e 78be 1451 fdbd 4b4a 8b3d
00000310: caaa 993e 143e 23be f3a0 60bc 7554 8d3c
00000320: abe1 873e 06a2 133b 6454 093d 80ba 0dbe
00000330: e277 fabc 752c da3c 0c79 d23d a000 21be
00000340: 8e43 933e 86ce 80be a6b0 e8bd ee2e 28bd
00000350: f094 42be 8e9c c1bd 0523 943e ff2b 0d3d
00000360: 2c77 0ebe 6f0a 043c 5ab2 dabd 22d6 e3bb
00000370: 4fe5 bdbd 82b0 10bc ca1c c2bd 27e8 27be
00000380: 965c 47be 9065 943d 729a d1bc b87c b03d
00000390: e851 0dbe f52d 6b3d 31f7 febd 1eff cfbc
000003a0: c52c a63d 1711 77be cde6 02be 7316 8f3e
000003b0: 1c16 8c39 cc36 fd3d 3108 583d 24b1 b0bd
000003c0: 8718 34be 1842 3b3e a4c0 88be 7ca5 4dbd
000003d0: 6d96 903d a648 a9bd 6ce7 213d 208a 293e
000003e0: 3965 59be bf16 36be 323e 92be 2958 853e
000003f0: 47df 553e e3d4 263e ccd3 7e3e cde3 93be
-0.01770714 -0.06648321 -0.026277063 0.23620078 0.20823926 0.15437648 -0.17638142 -0.25789648
0.009935564 0.18496536 -0.055432614 -0.031404234 0.3118864 -0.044533156 -0.25571328 -0.016384998
-0.21812995 -0.23672302 -0.09121694 0.1591745 0.18182434 -0.033402637 0.08007655 0.32523406
0.012804736 -0.2416953 -0.24599366 0.29743853 0.16103837 0.32001382 -0.18594813 -0.0016133812
-0.08451471 -0.14403813 0.19796914 -0.17142783 -0.2466875 0.14297302 -0.252335 0.116517566
0.03268173 -0.16358308 -0.095897354 0.29173267 -0.13733973 -0.09507699 -0.00637724 -0.07479653
0.20340244 0.2564977 0.1252455 0.27299315 0.09109958 0.24756372 -0.027739031 -0.0263372
0.14717138 -0.008402795 0.25149468 -0.1215693 -0.17869 0.059831593 0.08272335 0.18928634
0.27392486 0.011118932 -0.09410754 0.15115298 0.09988803 0.24087012 -0.065958135 -0.13477558
-0.20907842 -0.27201098 -0.27772322 -0.135344 0.18381375 -0.12307726 -0.24605976 -0.29832932
0.039404042 0.17651428 -0.100760885 -0.19192287 -0.22313094 -0.09574289 -0.2763734 -0.12332345
-0.22464809 -0.11548304 -0.042088833 -0.047788695 -0.028756842 -0.02366862 0.016971413 0.26230368
-0.18820651 0.23499903 0.100447744 0.31117415 -0.059839573 -0.02290949 0.22876069 -0.22588985
0.14145115 -0.31315228 0.1604651 0.058104888 -0.117041424 -0.13009788 0.21892507 -0.118257806
0.112270154 -0.0059759007 -0.22680828 -0.19490717 0.25493693 0.1496399 -0.06383146 -0.15628336
0.25433743 -0.21447259 -0.23512913 0.06625839 0.017151687 -0.01062941 0.20308958 0.13456231
0.14286663 -0.20595746 0.12193016 -0.12588042 -0.24525698 0.0910055 0.2696106 0.21942855
-0.23054606 0.120378576 -0.13460802 -0.20684347 0.18013789 -0.15363248 -0.11183341 0.21488446
0.032720193 -0.24799435 0.23147017 -0.24970768 0.10427725 0.17239703 -0.33786327 0.17398079
-0.27207154 0.13048193 0.044273026 0.13411568 -0.04364613 -0.15847096 0.15236862 -0.26098192
-0.2598725 0.15014024 0.06474945 0.13609396 0.112141326 -0.20315905 -0.26508206 -0.2451695
-0.053351056 0.28677487 -0.12742548 -0.2153931 0.27944767 -0.077483706 -0.03090351 0.30092826
0.075276054 0.17507201 0.19271483 -0.25410506 0.033658743 0.10268181 0.13325869 -0.20108715
0.0087490855 0.25448796 -0.13492642 -0.3055593 -0.053901367 -0.09332283 0.07054476 -0.16138925
0.1470747 -0.24260727 -0.1236898 0.0680128 0.30013114 -0.1594165 -0.013710248 0.017252186
0.26539358 0.0022526993 0.033527747 -0.13840675 -0.030574743 0.026632527 0.10276994 -0.15722895
0.28762478 -0.25157565 -0.11361818 -0.04106038 -0.19002128 -0.094536886 0.28932968 0.034465786
-0.13912648 0.008059128 -0.10678549 -0.006953017 -0.09272253 -0.008831145 -0.09478147 -0.16397153
-0.19468912 0.07245934 -0.02558634 0.08617538 -0.13800776 0.057416875 -0.12449492 -0.025390204
0.08114008 -0.24127613 -0.12783356 0.27946815 0.00026719354 0.12363967 0.052742187 -0.08627537
-0.17587481 0.18286932 -0.26709473 -0.050206646 0.070599414 -0.0826581 0.03952734 0.16556597
-0.2123002 -0.17782114 -0.28563076 0.26043823 0.20885955 0.16292147 0.24885482 -0.28884736
