src/algorithms/deep/pretrained/gae_cora.pt (torch, 377752 bytes, 4 tensors)

encoder.conv1.bias f4 [64]
0	0x3cf102ff	0.029420374
1	0x3ceb8077	0.02874778
2	0x3c25222b	0.010078947
3	0x3ce12a2e	0.027485933
4	0x3cf4fdfe	0.02990627
5	0x3cba36c1	0.022731187
6	0x3cfa7a16	0.030575793
7	0x3cd06250	0.025437504
8	0x3cb023cb	0.021501442
9	0x3d006e94	0.031355456
10	0x3be13647	0.0068729254
11	0x3cf281bb	0.029602876
12	0x3c8fcc3d	0.017553443
13	0x3c6a74bf	0.014310061
14	0x3d0496eb	0.03237049
15	0x3cc6f9e1	0.024289073
16	0x3ccad775	0.024760941
17	0x3d1b7c01	0.037960056
18	0x3d0cc578	0.03436801
19	0x3d127719	0.03575811
20	0x3c1169a8	0.008875288
21	0x3ce8098c	0.028324865
22	0x3d0b3a72	0.033991285
23	0x3c95ffbd	0.018310422
24	0x3ceec540	0.02914679
25	0x3c9fb9d8	0.019497797
26	0x3cb6b265	0.022301862
27	0x3b6121d6	0.0034352443
28	0x3d0b4067	0.033996966
29	0x3ced79a5	0.028988669
30	0x3ca8701c	0.02056127
31	0x3cffb15d	0.031212503
32	0x3cdcfa4d	0.026974821
33	0x3cd734fd	0.026270384
34	0x3cba1bf6	0.022718411
35	0x3c885f3c	0.016646974
36	0x3d08617e	0.0332961
37	0x3cc36076	0.023849707
38	0x3bc7e89c	0.0061007272
39	0x3cb75317	0.022378488
40	0x3cc929b0	0.024556011
41	0x3c590ac4	0.013247196
42	0x3d1f6d98	0.038922876
43	0x3ce6637d	0.028123612
44	0x3cc3adad	0.023886526
45	0x3bd2ffed	0.0064392
46	0x3ce6a4f5	0.02815483
47	0x3cccc184	0.02499462
48	0x3cd46f53	0.02593199
49	0x3ce6d6b0	0.028178543
50	0x3ce7c2cf	0.028291134
51	0x3cd38c59	0.025823759
52	0x3be7e3b5	0.0070767053
53	0x3cc7c438	0.024385557
54	0x3c94dc7a	0.018171538
55	0x3cdc93ae	0.026925888
56	0x3ccbad2c	0.024862848
57	0x3c7775dd	0.015103784
58	0x3c9ac00c	0.018890403
59	0x3c0be7db	0.008539165
60	0x3cba39e3	0.02273268
61	0x3cf97d04	0.03045512
62	0x3c877416	0.016534846
63	0x3cf65496	0.03006963

encoder.conv1.lin.weight f4 [64, 1433]
0	0xbd24c7b8	-0.04022953
1	0x3dc442a3	0.095830224
2	0x3d9e3932	0.07725753
3	0xbd83dff1	-0.06439198
4	0xbd16589c	-0.0367056
5	0xbd40e133	-0.047089767
6	0x3d119ad6	0.035548054
7	0xbd90e056	-0.07074039
8	0xbca0a11b	-0.019608071
9	0x3ca41602	0.020030025
10	0x3bd7d912	0.006587156
11	0xbb010f2a	-0.0019692876
12	0x3db828d6	0.08992164
13	0x3d9850eb	0.07437309
14	0xbd56cff4	-0.052444413
15	0x3df412c8	0.11917645
16	0x3b70bda0	0.003673412
17	0xbd8140b0	-0.06311166
18	0x3ca7c175	0.02047799
19	0x3be607b6	0.007019962
20	0xbcb08e5c	-0.021552257
21	0x3c741b35	0.014899065
22	0x3d8d0cc9	0.06887204
23	0xbc81aec1	-0.0158304
24	0xbca6b1c9	-0.020348446
25	0xbd38c436	-0.045108996
26	0x3c8df5bc	0.01732909
27	0x3d6b7f72	0.05749459
28	0x3d340a80	0.043955326
29	0xbd26b5a6	-0.040700577
30	0x3bb7f44a	0.0056138383
31	0xbc4dd15f	-0.012562125
32	0xba8d0045	-0.0010757527
33	0x3d655c85	0.055996437
34	0x3db7c2a1	0.089726694
35	0xbd0d4b16	-0.034495436
36	0x3d2d10c4	0.042252317
37	0xbcde59a3	-0.027142351
38	0xbdd44d69	-0.10366327
39	0x3d1fa5d9	0.038976524
40	0x3d9311a3	0.07181098
41	0x3d0daf56	0.03459104
42	0xbd61d4cb	-0.055134576
43	0x3cfd1719	0.030894803
44	0xbd893e45	-0.0670133
45	0xbd0be210	-0.034151137
46	0x3d6faafb	0.05851267
47	0xbc66c9b6	-0.014086178
48	0x3bc0eb1a	0.0058874013
49	0xbdb2af65	-0.0872486
50	0xbcd2db16	-0.025739234
51	0x3ccf98b5	0.025341371
52	0xbdb16821	-0.08662439
53	0x3b5bf118	0.003356045
54	0x3cf3ffb3	0.029785013
55	0x3d24268d	0.040075827
56	0x3d8fc180	0.07019329
57	0x3d1c515e	0.038163535
58	0x3d6fc30e	0.058535628
59	0x3ba2f838	0.0049734376
60	0x3de66873	0.11250391
61	0x3d1a4cdf	0.037670966
62	0x3d59ad27	0.053143647
63	0x3c6a9508	0.014317758
64	0x3d9192ce	0.07108079
65	0x3d0dc958	0.034615844
66	0x3da99753	0.08280816
67	0xbd236d81	-0.039899353
68	0xbc5b1115	-0.013370772
69	0xbce42af3	-0.027852511
70	0xbd73834d	-0.05945139
71	0x3cb496c1	0.022044541
72	0x3c6346b4	0.013871837
73	0x3d59993b	0.053124648
74	0xbd30ac6f	-0.043133195
75	0x3cf0d26c	0.029397212
76	0xbd92b248	-0.07162911
77	0x3cb6fc6f	0.022337167
78	0x3d37f030	0.044906795
79	0x3b762b2f	0.003756236
80	0xbbb12195	-0.0054056146
81	0xbd27483e	-0.04084038
82	0x3d696e07	0.056989696
83	0xbd0fd292	-0.035112925
84	0x3d0671c4	0.03282334
85	0x3db0340d	0.08603678
86	0xbd5e3c43	-0.05425669
87	0x3caa9062	0.0208208
88	0xbd45adc1	-0.048261408
89	0x3d159ebc	0.036528334
90	0xbd1c6a41	-0.03818727
91	0xbc487c0b	-0.012236605
92	0x3c6ea2f8	0.014565222
93	0x3d17ab0f	0.03702837
94	0xbc543516	-0.01295211
95	0x3d586785	0.0528331
96	0x3d438994	0.047738627
97	0x3c0f2430	0.008736655
98	0xbbef6fd5	-0.0073070326
99	0x3dabb0cd	0.083833314
100	0xbbd55a9d	-0.006511046
101	0xbc8171a4	-0.015801258
102	0x3d385936	0.045006953
103	0x3bf3e836	0.007443453
104	0x3c5b7068	0.013393499
105	0x3b98da36	0.0046646846
106	0x3b84079f	0.004029229
107	0x3bfb446b	0.007668068
108	0xbc3c6df6	-0.011500826
109	0xbdc87d33	-0.09789505
110	0xbd4c9803	-0.049949657
111	0xbd5da85c	-0.054115638
112	0xbc1fc25b	-0.009750928
113	0xbcd6e288	-0.026231065
114	0x3d84b688	0.064801276
115	0x3d84e998	0.06489867
116	0xbdc1558d	-0.09440146
117	0x3d89d277	0.06729596
118	0x3d072fde	0.033004634
119	0xbd2c7d6d	-0.042111803
120	0xbd4b4d68	-0.049634367
121	0x3d62b7c3	0.05535103
122	0xbd6839d9	-0.056695793
123	0xbcb1d018	-0.021705672
124	0xbd3f168c	-0.04665236
125	0x3cd2f315	0.025750676
126	0x3d849812	0.064743176
127	0xbd01004d	-0.031494427
128	0xb832198e	-4.2462307e-05
129	0x3bc2efea	0.00594901
130	0xbcbaddb3	-0.022810793
131	0xbc2527bf	-0.010080277
132	0xbc960b69	-0.018315988
133	0xbd9754aa	-0.07389195
134	0x3d732a00	0.059366226
135	0xbd57aa08	-0.05265239
136	0x3ceb315f	0.028710065
137	0xbcf639c9	-0.030056851
138	0x3d6043ff	0.054752346
139	0xbc9e9a98	-0.019360825
140	0x3da40587	0.08008867
141	0x3d89200f	0.06695568
142	0xbd9eb050	-0.07748473
143	0xbdba831b	-0.09107038
144	0xbdb9aea1	-0.09066511
145	0xbae10976	-0.0017168957
146	0x3c2cd0bc	0.010547813
147	0x3cacf9ba	0.021115173
148	0x3c1076b7	0.008817366
149	0x3cd9ced1	0.026587876
150	0x3dc97027	0.098358445
151	0xbc06d6f8	-0.0082299635
152	0xbd6dd195	-0.0580612
153	0xbc93aa33	-0.018025493
154	0x3d991679	0.074749894
155	0x3c08e896	0.008356234
156	0xbd2af772	-0.04173989
157	0x3cd3dcfd	0.025862211
158	0xbcaf2862	-0.02138156
159	0x3c2640a5	0.010147248
160	0x3cc88385	0.024476776
161	0x3b62fec9	0.0034636727
162	0xbce426b8	-0.027850494
163	0x3b90faf3	0.0044244467
164	0xbceaf3ff	-0.0286808
165	0x3c2eef59	0.010677182
166	0x3d34f143	0.044175398
167	0xbd347e6b	-0.044065874
168	0x3d31d6e1	0.043417815
169	0x3d28fb85	0.041255493
170	0xbc67e4db	-0.0141536845
171	0xba8e70e3	-0.0010867383
172	0xbcc0a9ba	-0.023518432
173	0x3ce3582d	0.027752006
174	0x3d839f90	0.064269185
175	0xbddfc08a	-0.10925396
176	0x3c729baa	0.014807621
177	0xbd08db3b	-0.0334122
178	0x3d1129ca	0.035440244
179	0xbc547907	-0.012968308
180	0x3cee1010	0.029060394
181	0x3cf71b78	0.030164465
182	0xbbc5e602	-0.006039382
183	0xbdbefbcf	-0.093253724
184	0xbd1180d3	-0.035523247
185	0x3cfe3f9f	0.031036196
186	0xbce4b5c1	-0.027918698
187	0xbc929ead	-0.017897928
188	0x3b797c43	0.003806845
189	0x3cd362bb	0.025803914
190	0x3d52caac	0.051462814
191	0xbd7e278a	-0.062049426
192	0x3dc5a1e2	0.09650017
193	0xbc0d2500	-0.0086147785
194	0x3cd4f800	0.025997162
195	0x3d5b3a16	0.053522192
196	0xbd3bdaed	-0.04586308
197	0x3c9db85e	0.019252952
198	0x3bd5a1ad	0.0065195174
199	0x3d0d632c	0.034518406
200	0xbc4f98d9	-0.012670719
201	0xbcb94475	-0.02261565
202	0x3ce90029	0.02844246
203	0x3c7b3ae9	0.0153338695
204	0x3dade4a9	0.08490879
205	0xbd5c2a22	-0.05375112
206	0xbd1f54e3	-0.038899314
207	0x3d913788	0.0709067
208	0x3d0fdc19	0.03512201
209	0x3d9a9367	0.07547646
210	0x3dd1674d	0.10224781
211	0x3d48c3ca	0.049014844
212	0x3d9e6a95	0.07735173
213	0x3d6fae3b	0.05851577
214	0x3d3a7796	0.045524202
215	0xbcd3465c	-0.025790386
216	0xbadf3c32	-0.0017031489
217	0x3dcf71ab	0.10129102
218	0x3c6361ac	0.013878267
219	0xbd88afc1	-0.066741474
220	0xbd3be6f1	-0.04587454
221	0x3dc2e0a2	0.095155016
222	0x3b4e8e88	0.003151806
223	0x3d7bf916	0.061516844
224	0x3d21ab70	0.039470136
225	0xbca2a031	-0.019851776
226	0xbcbe6042	-0.023239259
227	0x3d023456	0.031788193
228	0x3d1b35b8	0.037893027
229	0xbd2e94f0	-0.042622507
230	0xbc0dc22b	-0.00865225
231	0xbceeefdf	-0.029167114
232	0x3c81ec53	0.015859758
233	0x3c0cff0e	0.008605732
234	0x3b8f34cb	0.004370307
235	0x3dbe634b	0.092962824
236	0x3d6adb98	0.057338327
237	0x3bf7d103	0.007562758
238	0x3dc14bc4	0.09438279
239	0xbd0c663b	-0.034277182
240	0xbd8dea9e	-0.06929515
241	0x3d0c1c1d	0.0342065
242	0xbbff354f	-0.0077883373
243	0x3d462e8f	0.048384245
244	0x3ca93e89	0.020659702
245	0xbd7d885e	-0.061897628
246	0xbc69b6c0	-0.014264762
247	0x3d93803f	0.072021954
248	0xbd80cb0a	-0.06288727
249	0x3c6ef56f	0.014584883
250	0x3cd221eb	0.025650939
251	0x3d9751ea	0.07388671
252	0x3d364336	0.04449769
253	0x3aeb27d7	0.001794095
254	0xbce3894c	-0.02777543
255	0x3b7f25e4	0.0038932497

encoder.conv2.bias f4 [32]
0	0xbc9d4b35	-0.0192009
1	0xbcf82061	-0.030288877
2	0xbcb370aa	-0.021904308
3	0x3ca6aa8c	0.020344995
4	0x3d03138c	0.032001063
5	0xbcb41b07	-0.021985544
6	0xbc68f4ef	-0.014218553
7	0x395dc6a2	0.00021150199
8	0x3cf88ad8	0.030339643
9	0xbcf919f6	-0.030407887
10	0xbc4f7e3a	-0.012664372
11	0xbcff9e3d	-0.031203384
12	0xbd05d8f4	-0.032677606
13	0xbce8a30f	-0.028398065
14	0xbd01d85d	-0.03170048
15	0x3cd5d7f5	0.026103953
16	0xbd0683d2	-0.032840557
17	0xbcb2268e	-0.0217469
18	0xbc8877b5	-0.016658643
19	0x3d04ab6e	0.03239005
20	0xbb8968e4	-0.004193412
21	0xbcf83cc6	-0.030302417
22	0x3d055b1f	0.032557603
23	0x3c816963	0.015797323
24	0xbceda06b	-0.029007157
25	0xbcb9fc1e	-0.022703227
26	0xbcfd14de	-0.03089374
27	0xbc70f5db	-0.014707054
28	0x3cc06c89	0.023489254
29	0xbc843ca4	-0.016142197
30	0x3d1164c3	0.035496484
31	0x3ca482ef	0.020081965

encoder.conv2.lin.weight f4 [32, 64]
0	0x3e065572	0.13118532
1	0xbe49da90	-0.19712281
2	0x3a41d89a	0.0007394642
3	0xbe43a180	-0.19104576
4	0xbe362649	-0.17788042
5	0x3e09ea81	0.13468362
6	0xbe2b4bd5	-0.16728146
7	0xbe68f57d	-0.22749896
8	0xbd930ee0	-0.071805716
9	0x3d51fb5b	0.051265102
10	0x3e03f537	0.12886511
11	0x3d9feda6	0.07809
12	0x3e71ec9e	0.23625419
13	0x3e5de8d6	0.21670851
14	0xbe8d8e6e	-0.27647728
15	0x3e76f3bb	0.24116413
16	0x3e7ead23	0.24870734
17	0xbdad62a2	-0.08466078
18	0xbcbda924	-0.023151942
19	0x3d4feeb3	0.05076475
20	0xbe0dbdb6	-0.138419
21	0x3dfe4eb5	0.12417356
22	0xbddb650d	-0.10712633
23	0x3db073f8	0.08615869
24	0xbe38cc1f	-0.18046616
25	0x3e256efe	0.16155621
26	0xbe86928b	-0.26283678
27	0xbcbada96	-0.022809308
28	0xbe2bd897	-0.16781841
29	0xbe2171e3	-0.157661
30	0xbd622a2e	-0.055216007
31	0x3d9ba23a	0.07599302
32	0x3e011e6d	0.12609263
33	0x3e23df5f	0.16003178
34	0xbd9f234a	-0.07770403
35	0x3e0d0a46	0.1377345
36	0x3da65210	0.08121121
37	0xbe113b9e	-0.14182898
38	0x3e685182	0.22687343
39	0x3e6bb8dd	0.23019738
40	0xbe777670	-0.24166274
41	0x3e3af452	0.18257263
42	0x3d77b557	0.060475674
43	0xbdda65c0	-0.106639385
44	0xbe083e99	-0.13305129
45	0x3e8d3390	0.27578402
46	0x3e4e0652	0.20119599
47	0x3e15a63c	0.14614195
48	0xbda7f0e0	-0.0820024
49	0xbdb9247c	-0.09040162
50	0x3e6dd133	0.23224334
51	0xbdf893e5	-0.12137584
52	0xbd888ae3	-0.066671155
53	0xbe132823	-0.1437078
54	0x3e5f4a22	0.21805623
55	0x3e442ec5	0.19158466
56	0x3e6f8777	0.2339152
57	0x3e87f0ec	0.26550996
58	0xbe611d13	-0.21983747
59	0xbe36405b	-0.17797987
60	0xbe286e15	-0.16448243
61	0x3de38b29	0.11110527
62	0x3d16c5a0	0.036809564
63	0xbd8c61d7	-0.06854599
64	0xbc6c1e78	-0.014411561
65	0xbe7d02d5	-0.24708112
66	0x3e3496a1	0.17635585
67	0xbcf3c467	-0.029756738
68	0xbe49aee6	-0.19695625
69	0x3e4298b3	0.19003563
70	0x3df60768	0.120131314
71	0x3d9dda33	0.07707634
72	0x3b8ecf46	0.004358205
73	0x3dcc09cb	0.09962805
74	0x3e735529	0.23762955
75	0x3d553f86	0.052062534
76	0x3e076314	0.13221389
77	0x3dc70e53	0.09719529
78	0x3e0555ce	0.13021013
79	0x3e6b5403	0.22981267
80	0x3cc08572	0.023501132
81	0x3e419584	0.18904692
82	0xbe4af821	-0.19821216
83	0xbe5d8733	-0.21633606
84	0x3ddb69f3	0.107135676
85	0x3e5b0248	0.21387589
86	0xbd924013	-0.071411274
87	0xbe839f48	-0.2570746
88	0xbe38070b	-0.17971437
89	0xbe3502ff	-0.17676924
90	0x3e641adb	0.2227587
91	0xbd02326e	-0.031786375
92	0xbe88741a	-0.26651078
93	0x3e2b251c	0.16713375
94	0x3e66a508	0.22523892
95	0xbc75d9af	-0.015005513
96	0x3d5340a6	0.051575325
97	0x3e709df9	0.23497762
98	0x3dc576dc	0.09641811
99	0x3da7e929	0.08198769
100	0x3df8f822	0.121567026
101	0x3e80732c	0.2508787
102	0xbe82733a	-0.25478536
103	0x3e748ef8	0.23882663
104	0x3e73f73a	0.23824778
105	0x3dec626d	0.11542211
106	0xbdaa88ad	-0.0832685
107	0xbdc5a69d	-0.096509196
108	0x3dc2e6b7	0.095166616
109	0x3d6733f0	0.056446016
110	0x3cf5a833	0.02998743
111	0xbd054ac4	-0.032542005
112	0xbdeaa648	-0.11457497
113	0xbe1c198b	-0.15244119
114	0xbe0b7526	-0.13618907
115	0xbe2534b7	-0.1613339
116	0xbe113efb	-0.14184181
117	0x3e5ba279	0.21448697
118	0x3d810122	0.06299044
119	0x3da8e580	0.08246899
120	0xbcd7e785	-0.026355514
121	0x3e3780bc	0.17920202
122	0xbe27f686	-0.16402635
123	0x3e5820a1	0.21106197
124	0x3e227158	0.1586355
125	0xbd2ac03a	-0.041687228
126	0x3e314997	0.17313229
127	0xbe893aae	-0.26802582
128	0xbdb630f4	-0.08896056
129	0x3ddea6da	0.10871668
130	0x3e2457d4	0.16049129
131	0x3c0e6ada	0.008692468
132	0xbbb4cc4a	-0.005517517
133	0xbe74290a	-0.2384378
134	0xbe14a529	-0.14516129
135	0x3d4c9d4f	0.04995471
136	0x3e587e9a	0.21142045
137	0x3be77862	0.0070639113
138	0x3e4143ad	0.18873473
139	0x3d23be85	0.039976615
140	0xbddf9ddc	-0.10918781
141	0x3d31bbd7	0.04339203
142	0xbe1feff9	-0.15618886
143	0xbd9a52f9	-0.07535357
144	0xbdfb1699	-0.122601695
145	0x3cbc7830	0.023006529
146	0x3e6cacfa	0.2311286
147	0xbdaaf9c9	-0.08348424
148	0x3df6c297	0.12048834
149	0xbb2dcd0d	-0.0026519925
150	0x3d39175a	0.045188285
151	0x3c55dec9	0.013053604
152	0x3e48150b	0.19539277
153	0x3e570fd6	0.21002135
154	0xbe0feeba	-0.1405591
155	0x3dd6d993	0.10490718
156	0x3e54d284	0.2078343
157	0x3e3d497a	0.1848506
158	0x3e5bd3d7	0.21467529
159	0xbe33944a	-0.17537037
160	0xbe1e5009	-0.15460218
161	0x3e06f714	0.1318019
162	0xbe539345	-0.20661648
163	0x3d1bacf6	0.038006745
164	0x3e4f1720	0.20223665
165	0xbce669c1	-0.0281266
166	0x3e21d1d0	0.15802693
167	0xbdfea7aa	-0.12434323
168	0xbe7649d5	-0.24051602
169	0x3d9c0f65	0.07620124
170	0x3e83c756	0.2573802
171	0x3d33b794	0.043876246
172	0xbea32deb	-0.3187097
173	0x3ca7486c	0.020420276
174	0x3e8419d4	0.25800955
175	0xbd0e7be1	-0.03478611
176	0xbe0008b8	-0.12503326
177	0xbe2cbff1	-0.16870095
178	0xbd052ceb	-0.03251354
179	0xbdb3f98d	-0.087878324
180	0xbd1fa162	-0.038972266
181	0xbda36203	-0.079776786
182	0x3e8918e2	0.26776797
183	0x3e04eba7	0.12980519
184	0xbc920e98	-0.017829224
185	0x3e26e778	0.16299236
186	0xbe6a3ce5	-0.22874792
187	0xbcc67c49	-0.024229186
188	0x3d5cef48	0.053939134
189	0xba8762bb	-0.0010329107
190	0xbe439f22	-0.19103673
191	0xbe387531	-0.18013455
192	0x3ce1ffab	0.027587732
193	0xbd845b4d	-0.06462727
194	0xbe8814ab	-0.26578268
195	0x3d77a17d	0.06045674
196	0xbe06b8c2	-0.13156417
197	0x3cfb16fd	0.03065061
198	0x3c1dc2b7	0.009628943
199	0xbe0f79b2	-0.14011267
200	0xbe49ae19	-0.19695319
201	0x3e8152ab	0.25258383
202	0xbe854e4e	-0.26036304
203	0xbcbae9f2	-0.022816632
204	0x3e4e31da	0.20136204
205	0x3e0c9e24	0.13732201
206	0x3e44b9f2	0.19211558
207	0x3e8548e5	0.26032177
208	0x3e1530ac	0.14569348
209	0xbdcd7076	-0.10031216
210	0x3def7dfe	0.11693953
211	0xbe7527c8	-0.23940957
212	0xbe6fb618	-0.23409307
213	0x3d80385c	0.0626075
214	0x3e130789	0.14358343
215	0xbe4ee61f	-0.20204972
216	0xbe3f2406	-0.18666086
217	0x3e5a3874	0.21310598
218	0x3e418723	0.18899207
219	0x3e924777	0.28570148
220	0x3cabe4ac	0.020983063
221	0xbe240504	-0.16017538
222	0x3da13c95	0.07872883
223	0x3d77dac1	0.060511354
224	0x3e3b8190	0.18311143
225	0xbcd0a133	-0.02546749
226	0xbe6ecb9e	-0.23319861
227	0xbd81a64c	-0.06330547
228	0x3e796c44	0.24357706
229	0xbd86de84	-0.0658541
230	0xbe6c5220	-0.23078203
231	0xbe824205	-0.25440994
232	0x3d19abc2	0.037517317
233	0xbe856fe1	-0.2606192
234	0xbd4e7515	-0.050404627
235	0x3e169485	0.14705093
236	0xbd9a280b	-0.07527169
237	0x3e7b49c6	0.24539861
238	0xbe87bebf	-0.26512715
239	0xbe44f178	-0.19232738
240	0x3d5a510e	0.053299956
241	0xbdf0aeb1	-0.1175207
242	0xbe6628e2	-0.22476533
243	0x3e352b9c	0.17692417
244	0xbe217032	-0.15765455
245	0x3e4d5629	0.20052399
246	0xbd5aa182	-0.053376682
247	0xbe005e86	-0.12536058
248	0xbce33c04	-0.027738579
249	0x3d8b3c11	0.06798566
250	0x3cfb32af	0.030663816
251	0x3e04ebdc	0.12980598
252	0x3e8d6e3c	0.27623165
253	0x3db5f820	0.08885217
254	0xbe8243fd	-0.25442496
255	0x3e4159d0	0.18881917
