src/algorithms/deep/pretrained/mvgrl_dblp.pt (torch, 678370 bytes, 11 tensors)

gcn_real.conv1.bias f4 [128]
00000000: 600a 223c 5371 993c d687 c63b 06b7 4f3d
00000010: 64e7 c03c 1aee 813c 931b 823b d8ee d03b
00000020: 54fd f03b 7d86 0c39 653d 0d3d 19ea babc
00000030: 4f7c 273d f30a a13b 0ec0 c13c ddb8 513c
00000040: 52b8 a1bc c70b 683d ee9a a4b9 fb61 b03c
00000050: 283c d73c e383 b5bc a2e9 bdbc c7ef 053d
00000060: 7fea bdbb 3841 9bba 64e4 8a3a b2a0 9c3c
00000070: d65a 45ba 6030 a4bc c37e 053c 63fa 59bc
00000080: 96b9 5bbc 10ab ba3b 32bf 883c a595 32bd
00000090: c81d 5c3c ac4d 6bbc f014 9c3c dc20 b93c
000000a0: ecac 9939 69a1 f83c 4d7a 883b 312b 043c
000000b0: c681 55bc a468 a1bb 513a 0e3d 8774 ba3c
000000c0: f9b2 1b3d c022 37bc d908 113d 4023 293a
000000d0: 2e5b ab3c 7442 653c 9ba7 9d3a 7a3e 473d
000000e0: ad3e 42bb a8c2 f33c 3b72 433d 7abf b03c
000000f0: 6810 57bb e2b8 c5ba bbb9 7a3c f037 99bb
00000100: 5aa2 683a 5d69 75b8 fa45 ab3b d763 e3bc
00000110: 14db 28bd 09fb 613c 20f2 ec3c 242f 83bc
00000120: e0a4 f2bb f62b a83b 89db 8fbc b3db ab3c
00000130: d58d e3bc 2d94 37bc cf5f 4a3b a7ac 193c
00000140: f8c4 8abc 6343 623c 0364 073d 875a a6bb
00000150: 6f3b 02bc 4e44 bd3c 34ca c13c 25fb 88bc
00000160: ded8 9dbc ec7b 39bc 15eb 21bc 1ba1 a7bb
00000170: 2e26 5dbc ba45 713d 785d 1a3b feb3 793d
00000180: 67c3 043d 7fc9 9c3c 0aa4 163d 8104 b2ba
00000190: de8e d93c fed5 54bc 17f3 243b aa33 cabc
000001a0: 011d 863c 008f c33c 8f4c 34bd 5517 71bc
000001b0: 25a8 d6bb 6d14 bd3c 0ca0 bf3c e293 553c
000001c0: e19d 12bb 06e7 dc3b c74e 27bc cd94 383c
000001d0: ff53 783c dd96 6dbb bc68 363d 87ba 003c
000001e0: 086d c4bc 2afc 6d3c 0b0d e23c 3506 cbbc
000001f0: 2e02 78bc df35 1c3d e1e6 1cbc 6f21 f9bc
0.009890169 0.018730795 0.0060586734 0.050711654 0.023547836 0.015860606 0.0039705723 0.0063761286
0.007354418 0.00013401541 0.03448238 -0.022816705 0.040890034 0.0049146353 0.02365115 0.0128004225
-0.019741211 0.056651857 -0.0003139595 0.021531096 0.026273802 -0.022157615 -0.023182694 0.032699373
-0.0057957764 -0.0011844998 0.001059663 0.019119594 -0.0007528489 -0.020042598 0.008147898 -0.013304326
-0.013410946 0.005696662 0.016692732 -0.043599743 0.013434835 -0.01436178 0.019052953 0.022598676
0.0002931127 0.030350404 0.00416497 0.008066938 -0.013031429 -0.004925804 0.034723584 0.022760643
0.03801248 -0.011177719 0.03540883 0.0006452091 0.020917501 0.013992894 0.00120281 0.048643567
-0.0029639408 0.029755905 0.04771636 0.021575678 -0.0032816175 -0.0015085007 0.015303071 -0.0046758577
0.000887429 -5.851068e-05 0.0052268477 -0.027757568 -0.041224554 0.013792762 0.028924048 -0.01601369
-0.0074049085 0.0051321937 -0.017560737 0.020978784 -0.027777592 -0.011204761 0.003087986 0.009379542
-0.016939625 0.013810012 0.033054363 -0.0050767097 -0.00794874 0.02310386 0.023655988 -0.016721318
-0.01926845 -0.011321049 -0.009882708 -0.005115641 -0.013497872 0.058904387 0.0023554247 0.06096267
0.032412913 0.01913905 0.036777534 -0.0013581665 0.026557382 -0.012990473 0.0025169307 -0.024682838
0.016371252 0.023871899 -0.044018324 -0.014715035 -0.006550806 0.023081029 0.023391746 0.013035746
-0.0022371935 0.0067414073 -0.010211653 0.011265946 0.015156745 -0.0036253252 0.044533476 0.007856972
-0.023977771 0.014525453 0.02759411 -0.024783233 -0.015137238 0.038137313 -0.00957653 -0.03041145

gcn_real.conv1.lin.weight f4 [128, 334]
00000000: 81fe 753c 214a 2cbc be78 1b3d 5153 843d
00000010: 22e4 923d 79b2 31bd 0e20 c8bc da37 443d
00000020: d5cb 243c 9416 c53d 80b1 51bd ae8d 96bd
00000030: 6afd cbbd 3ec4 9c3b d400 8f3c 0157 9b3d
00000040: 27ca f0bd f287 a33d 487d 8bbd 8b46 ac3c
00000050: a010 d23c e332 b43c 86f5 953d 7f53 8e3d
00000060: 93f0 02bd bce5 383d a360 a8bd 6731 ac3c
00000070: f993 053c 523f dfbd e345 033d 514e 163d
00000080: 0491 803c 8abe 253e 9996 ba3d bb4e b1bd
00000090: 170b cd3d c8fc 813d 68dc 923c 7fed cd3d
000000a0: caa2 d73d f64e 96bd 7e43 363d 7ecc a93c
000000b0: 1ec2 373c 2bb9 8abd 3a44 fbbc dc9b 233d
000000c0: c9cc 50bc c478 b2bd 7001 82bd 19f2 cdbb
000000d0: 3c43 80bd 3120 2d3d e479 09be 6b8f aabd
000000e0: a7ce d73c dde3 593d ba94 a0bd 1dfd 973d
000000f0: 742b 6f3d acd9 cabd dc86 b3bd 4043 71bd
00000100: 3f95 d9bd e785 afbd 354b 513d 29bc 943c
00000110: df09 01bd d44e 123e a03a 6d3d 9acf d3bc
00000120: 2ef9 b23d 4bc8 1f3e dcfd eb3a 2d67 143d
00000130: 1a25 803d 2cbb 2c3d acf7 01bc febd a3bc
00000140: c4e3 cd3d e2d3 973d fbfe 4a3d 2495 5fbc
00000150: 82f6 c3bb cc8c f83c b7f4 d3bd e728 fa3d
00000160: 4fec 32bd 400b 543d f86a 823d bc00 ccbd
00000170: 0e06 593d bd2f bd3c d219 81bc 7211 7dbd
00000180: 96ec 13be 3934 c23d bf92 f93d f650 bc3d
00000190: 6bf9 0dbe aec2 3dbd b401 82bd c4fe 5cbd
000001a0: 1714 1b3d 3016 c33d 5a82 a1bd ea4f 053d
000001b0: 8c8d 25bd e701 633c a212 53bb 99e5 8cbd
000001c0: f543 50bd c2d6 4abd 4997 c73d 3f60 4b3d
000001d0: 6479 c0bc d585 7d3d d1d1 1a3d af05 68bd
000001e0: f264 99bd a23d 50bd d49d a23d d5bf 293d
000001f0: d419 3bbd 6e98 023e 54ae 5bbc 6e89 a33c
00000200: 5974 e33d 621c 8dbd c50d 80bd 7fb8 1dbd
00000210: a976 c53d 2aab a53c a336 d13c 0ae8 0d3c
00000220: a415 adbd ed7b 82bd 6bed 47bd 8b21 f2bb
00000230: 2b57 993c 4c4e 04bd 449a 8f3d 5c09 12bd
00000240: 56e8 b2bc 06e2 36bd e305 533d 56b1 8c3c
00000250: 0dc6 96bc 08cd 13bd a950 bc3c 8924 803d
00000260: 1a5e 16bd 47ef 7dbd 363c 443d 6dca 15bd
00000270: c18e 81bd a5c3 8a3b e92d 64bd c1aa c23d
00000280: e519 17be 1010 fdbd a7ab 92bd 6997 363d
00000290: d772 bebd 3f8b e53d b65b 19be 837e b13d
000002a0: 84fa 483c 6b9c 063e 3e17 1bbd a910 5dbc
000002b0: eb48 183d e030 803d cacf 52bd 0f9d 96bc
000002c0: 1672 8f3d d1e3 083d 761b f03d 5148 14bd
000002d0: f634 22bc 3d76 34bd 8dda 373d 3738 7fbd
000002e0: a516 bdbc d7ad 043e 5fc1 153d 15c4 a43c
000002f0: 607c 563d e027 b23c 7a74 d63d 0af3 6d3d
00000300: 268f ad3d d76c 90bd ce1c d4bd 09bc dabc
00000310: 28e4 c33d f674 09bd 5b62 96bd a324 dabc
00000320: 397d 0cbd 677e bebd 2e26 76bd a87a e13d
00000330: baac 8cbd 2de9 82bc ea4f 9c3c 2931 96bd
00000340: 6dac 143c d3ff 2b3d 4869 ed3c dc97 ebbd
00000350: aa35 b83d e3a9 c63c dee8 87bb 0e47 fe3c
00000360: 0770 343d 4b0a ca3d 7daf 3d3d 4fd8 293c
00000370: 3677 aabd b1a7 c43d 0ac9 183d 3c19 a43c
00000380: 264e 953d 45c5 81bc 6a74 583d 4c46 09bd
00000390: 4c98 e53d cfde ae3d 60ad f0bc 4ce4 04bd
000003a0: fbb4 a73d c4df a03c 1281 24bc 70b4 d3bd
000003b0: 5f72 c73d c22c f03c 22f6 0dbe 927b 14be
000003c0: 564c cbbc e010 12bb c9c4 c1bd fae2 89bd
000003d0: 6570 9b3d f93b b53d c3b2 e4bc 971e 34bd
000003e0: 8ed1 a43d 1076 a7bd 1c24 afbd 13fa 33bd
000003f0: 3aa0 ebbd 0395 32bd 77ac 0ebd 29e9 a2bd
0.015014292 -0.010515721 0.037956946 0.06461204 0.07172419 -0.043383095 -0.024429347 0.047904827
0.010058363 0.09623447 -0.051194668 -0.07351242 -0.09960444 0.004784136 0.01745645 0.07584954
-0.117573075 0.07984914 -0.06811005 0.021029731 0.025642693 0.02199692 0.073222205 0.06949519
-0.03196771 0.045140967 -0.08221557 0.02101965 0.008152955 -0.10900749 0.03204907 0.036695782
0.015694149 0.16185966 0.091107555 -0.08657595 0.10011881 0.06347042 0.017927364 0.100550644
0.105290964 -0.07339279 0.04449796 0.020727392 0.011215715 -0.06773599 -0.030672181 0.03994356
-0.012744137 -0.087144405 -0.063479304 -0.006284964 -0.06262824 0.04226703 -0.13425404 -0.08328136
0.026343657 0.053195823 -0.07840867 0.074213244 0.05839105 -0.09904799 -0.08765957 -0.058902025
-0.106241696 -0.08570462 0.051097114 0.018156128 -0.031503554 0.14287883 0.057917237 -0.025855828
0.087389335 0.1560375 0.0018004733 0.03623121 0.062570766 0.04217069 -0.007932585 -0.019988056
0.100532085 0.0741346 0.049559575 -0.013646398 -0.0059803138 0.030340575 -0.1034941 0.12214833
-0.043682393 0.05176854 0.06368059 -0.099610776 0.05298429 0.023094052 -0.015759382 -0.061784215
-0.14445719 0.09482617 0.12186193 0.091951296 -0.13864677 -0.04632824 -0.06347981 -0.0539539
0.037860956 0.09525716 -0.07886191 0.032546915 -0.040418193 0.013855434 -0.003220715 -0.0687973
-0.05084606 -0.049521215 0.09745652 0.049652334 -0.023495384 0.06189521 0.037797753 -0.056646045
-0.07489957 -0.050840028 0.079402596 0.04144271 -0.04567893 0.1275346 -0.013408262 0.019962993
0.11106176 -0.06890179 -0.06252626 -0.038506027 0.09641773 0.020223219 0.025538748 0.008661279
-0.08451393 -0.06371293 -0.048810404 -0.0073892525 0.018718323 -0.032301232 0.07011846 -0.035653457
-0.021839302 -0.044649146 0.051519286 0.017174404 -0.018404985 -0.036084205 0.02298768 0.062569685
-0.036710836 -0.06199577 0.047908984 -0.03657 -0.06326056 0.0042347484 -0.055707846 0.09505225
-0.14755972 -0.12356579 -0.07161646 0.04457799 -0.09299248 0.112082 -0.14976391 0.08666708
0.012266759 0.13145606 -0.037863962 -0.013492742 0.037178915 0.06259322 -0.051467694 -0.018385438
0.07004182 0.033420388 0.11723988 -0.03620178 -0.009900322 -0.044058073 0.04488616 -0.06230947
-0.023082087 0.1295694 0.036561366 0.02011303 0.052364707 0.02174753 0.10471435 0.05809311
0.08474569 -0.070520096 -0.103570566 -0.02670099 0.09565002 -0.03355881 -0.073429786 -0.026628798
-0.03429911 -0.09301453 -0.060095005 0.11009723 -0.068688825 -0.015980328 0.019081075 -0.07333595
0.009074313 0.04199202 0.028980866 -0.11503574 0.089946106 0.02425093 -0.004147633 0.03103974
0.04405215 0.098652445 0.046309937 0.010366513 -0.08323519 0.09602297 0.0373011 0.020031564
0.07290296 -0.015841136 0.052845396 -0.033514306 0.11210689 0.08538591 -0.029379547 -0.032444283
0.08188816 0.01963795 -0.010040538 -0.1033715 0.097386114 0.029318217 -0.13863423 -0.14500263
-0.024816673 -0.002228789 -0.09461362 -0.067327455 0.07589797 0.088493295 -0.027917271 -0.043974485
0.08047782 -0.081768155 -0.08551809 -0.04393966 -0.1150517 -0.04359914 -0.034832444 -0.07954628

gcn_real.conv2.bias f4 [128]
00000000: 51cb f3bb 9e48 c23a a3e3 14bc cdb5 ce3a
00000010: 7510 20bc 746c f6b9 6ac9 703c edae cb3a
00000020: d221 283c 3f8e b03c 2160 2e3c 41d3 ec3c
00000030: e7bb b1bb 8012 a2bb 9ecf 383c 2975 533a
00000040: 97fa 893b d6ac 4c3c b8e4 79bc 0c31 bbbc
00000050: f1e6 29ba 37f4 ed3c dc50 a3bb ee38 513a
00000060: 4b20 0b3c 5adc 633b 98e4 c7bb 5e45 81bc
00000070: 48d0 d93c a9df ea3b 3f7d 073c 35f6 0bbc
00000080: e75d afbb 1d71 fcba 64e9 a0bc 6e81 903c
00000090: 4774 ce3a ae70 663b 1b98 63bc 2310 d7bb
000000a0: bc8a 25bc e529 4c3c 7e67 fe3a a85b 843c
000000b0: edaa 8dba 847c cc3b cda0 08ba 7cd0 e03b
000000c0: 3614 5a3b a3d1 413c 133c a83c 52d2 193c
000000d0: 5404 203c 15e9 843b b79b 333b 984f a7ba
000000e0: 744d 34bb 1be7 2dbc 5134 0d3c 08be d7ba
000000f0: e3fb 383b 37ed 84bc a74d 173c a807 3b3d
00000100: d9c9 a2bc 7521 783b 1008 21bb 8043 4bbb
00000110: a02a 013b 9d8a 4a3c 43ec 903b 2873 693c
00000120: 9ec3 ccba 8563 73bb 492f 133c 5105 1d3c
00000130: 8b69 80bc 3a20 683c 9d48 a63c 0d2a 063c
00000140: ae5b f53c 1995 ddbb 9851 2d3c ec1a 093b
00000150: c07f 173c 0b20 913c 06d8 b5bb d7b7 fbbb
00000160: 86c8 443b b850 09ba e0f4 d63b b1b3 753b
00000170: 4336 65b9 0691 e33c e11f 3dbb 11fd 253c
00000180: 509e 4a38 5220 9c3c 7103 343c c63e c43c
00000190: 1192 abbb 1b7d 9b3b ceb7 243b 0588 f03b
000001a0: c090 9e3c 3fad d13b 0e30 693b 56e9 d13b
000001b0: eff8 133c 3794 ab3c 75c9 483c be6f 933c
000001c0: 773b 133d a606 533c 3ba9 803c 92ba c4ba
000001d0: b990 f63b d4d3 733c 25e4 57bb c2e3 303b
000001e0: af41 8fbb d3c7 cb3c 111f fb3c fca3 8c38
000001f0: 2104 a23c 6589 81ba a59a 813b 670d 1c3b
-0.0074400087 0.0014822667 -0.009087476 0.0015770734 -0.009769549 -0.0004700158 0.014696458 0.0015539803
0.01026197 0.021552203 0.010643036 0.028909327 -0.005424011 -0.004946053 0.011279969 0.00080664695
0.004210781 0.012492379 -0.015252285 -0.022850536 -0.00064812513 0.029047115 -0.0049840044 0.00079812005
0.008491586 0.003476879 -0.0061002485 -0.015780147 0.026588574 0.0071677756 0.008269607 -0.008542587
-0.00535177 -0.0019259785 -0.01964254 0.017639842 0.0015751206 0.0035162377 -0.013891245 -0.006563203
-0.010103878 0.01246116 0.0019409505 0.016156986 -0.0010808386 0.0062404294 -0.00052119495 0.006860791
0.0033276207 0.011829766 0.020536458 0.009388523 0.009766657 0.004056106 0.0027406046 -0.001276481
-0.0027511986 -0.010614182 0.00861843 -0.0016459832 0.0028226308 -0.016226394 0.009234822 0.0456616
-0.01987164 0.0037861739 -0.0024571456 -0.0031015575 0.0019709244 0.01236215 0.004422696 0.014248647
-0.0015622263 -0.0037138176 0.008983442 0.009583787 -0.015675327 0.01416784 0.020298297 0.008188737
0.029950943 -0.0067621586 0.0105785355 0.0020920588 0.009246767 0.017715475 -0.0055494336 -0.0076818275
0.0030026748 -0.0005238163 0.006559953 0.0037491138 -0.00021859356 0.027779114 -0.0028858113 0.0101311365
4.8307993e-05 0.01905838 0.010987149 0.023955714 -0.0052359183 0.0047451383 0.002513397 0.0073404335
0.019356132 0.0063988264 0.0035581621 0.0064059896 0.009031518 0.020944698 0.012255062 0.017997619
0.035945382 0.012880003 0.015705695 -0.0015009216 0.0075245765 0.014882047 -0.0032942381 0.0026991223
-0.0043718438 0.024875557 0.030654462 6.706265e-05 0.01977736 -0.0009882866 0.0039552026 0.00238117

gcn_real.conv2.lin.weight f4 [128, 128]
00000000: 61f5 073e 1022 0abd 5870 7dbc fe8d 413d
00000010: f482 fb3d 8c43 5abc 4dc5 1bbe 1840 ebbd
00000020: f6ed fa3d 872b d5bd 86ae 713d 6b21 a43d
00000030: 9ac9 b53d 5ee2 af3d 2543 a03d 8566 89bc
00000040: ba00 98bc 103b a8bd 7ae9 cabd 3342 b53d
00000050: 6428 18ba b0c6 e6bd 38ec 06be c5df 16bd
00000060: 09a3 343d dbdf 8abd de3b 133e 9618 5bbe
00000070: 9a48 05be e1b2 0a3e 44ec f6bd 9b38 56bd
00000080: 4ca3 76bd 37d5 63bd c151 abba e5e2 cf3d
00000090: d9a4 a93d d8d4 3dbb c437 15be 23c3 223e
000000a0: 8399 1b3e 15aa dcbd f50f a6bc 4449 bd3d
000000b0: 906a a1bc 4e87 073e 2eca 59bd de37 0dbe
000000c0: 4a08 993d e920 e8bc 2b38 1a3d 4f2e 02be
000000d0: af5a 9ebd ad34 283e f1ce e63d a7f9 cbbd
000000e0: 8d27 f3bb 2c5b 09bd 501e 2dbd f55e b3bc
000000f0: 0e69 cbbd 3e34 d73d f812 0abe 2633 7b3d
00000100: 0d31 d2bd 5c4f 8bbd 9a34 393d b7a6 bbbd
00000110: b5df 473d ebd9 de3d c87d 1d3d 3dbd 943d
00000120: 8e87 ffbd 8402 db3d 51bf 7cbd 90eb 033b
00000130: 041e e9bd 498e 02be 3856 dcbd 0ad8 e3bd
00000140: 0b8c f63d 9971 2fbe cdf3 493d 2fe9 9b3d
00000150: 3cac 0e3b bb08 2a3d b951 ed3c 24fc b83c
00000160: d83d fb3d 3b9f 13bd 6fce 31bd 4327 f8ba
00000170: be59 6abc 4906 e33c a805 683c 8a96 933c
00000180: 12ba c63b df92 b73d 991b c1bd 9a43 8f3d
00000190: 2137 ffbd bc9a 143e 989e 3d3e 026a 883b
000001a0: 387c 79bd 7f15 143e 77f6 0fbd b7ca 09be
000001b0: cd4f 12be 2e06 0ebe 1af5 103e da4d 46be
000001c0: 79ae 143e 4dc8 863d ebc2 913d f418 a43d
000001d0: 6083 72bc e828 fb3d f0c2 243d c91d 3c3d
000001e0: ffb6 efbd ee07 b43d d8b6 e6bd ce38 40be
000001f0: 5e13 033e da41 c0bc 1b23 91bd 90b0 983d
00000200: bdd5 4e3d 27eb 90bc 9f88 223c 2f11 6d3d
00000210: 46c3 893d 9564 f63d fbac e43d 6f10 e2bd
00000220: f826 753c a820 c23a e603 a63d 53e7 b53d
00000230: b746 abbb 8e8c f23d cf55 ca3a de6a 713a
00000240: 4395 00bd e89c 983d 9297 febc b137 113e
00000250: 8a0d bc3d 3b86 023e 2205 cfbd ee3b 17bc
00000260: 72ca 92bd bfad f9bd b5ce db3b 0f12 95bc
00000270: 4264 bfbd 7c50 d63d 688d 9dbd 3dc1 923c
00000280: c0e4 ee3c 1696 6a3d 803e f93d 7f0e 47bd
00000290: 425f 973d 992e 203d f38a 4b3d e1ea d73c
000002a0: d51b 603d 28ce c03d 7c7c eebd cea3 263d
000002b0: fc75 8f3c d2c5 463d f4db 063e 6f78 473e
000002c0: 36e7 c73d 0f20 15bc 454f f23c 15d1 12be
000002d0: 35c7 363c 5dd8 dd3c aaee 963d cd81 c33d
000002e0: 9826 75bd e591 273e 26a3 eebd 908e ecbd
000002f0: 52c8 963d 5147 31bd 8053 13be 60d2 a8bd
00000300: bef9 99bd 2b15 2cbe 7046 f7bd cfb1 2cbd
00000310: 4553 98bd ee18 953d 70dd 253e 59a7 5b3c
00000320: 2885 ea3c c126 99bd 173f 0cbe 6547 b03d
00000330: 5ef1 c03c a5a1 e63d 1d83 15be 21fb e2bd
00000340: 4a3d b9bc 31c6 9f3d 5690 533b cd28 193d
00000350: 04e9 833d 6263 14bd ee26 563e 9947 f0bd
00000360: 7069 0dbe 4dba a33d 38f3 203e 9c33 983d
00000370: 42f7 ddbd 7b57 013e 0716 9f3c 1590 84bd
00000380: 6274 4c3e f437 aabd 7233 1cbd 792e 13bd
00000390: 9666 493e 2a47 73bd 0287 1ebd 787d 94bd
000003a0: 4002 b33d b317 af3d 5de9 34be 778e 15bd
000003b0: 0b04 243e 4af6 d3bd 876e 11be dcb4 75bd
000003c0: 0fb2 c1bd 531b 9d3c 1955 103e b760 2a3d
000003d0: 7afa aa3d bb38 c9bd 5be7 083e 015d 043d
000003e0: 4704 dc3d 4062 363d a24b 2b3e e685 1b3d
000003f0: 61e6 25bd 435f 5e3e 8667 00bd 8873 f53d
0.13277198 -0.03372389 -0.015468679 0.047254555 0.12280837 -0.0133217685 -0.15211983 -0.11486834
0.12252419 -0.10408693 0.05900433 0.080141865 0.08876343 0.08588098 0.07825307 -0.016772518
-0.018555034 -0.0821439 -0.09907813 0.08850517 -0.00058043585 -0.112683654 -0.13176048 -0.036834497
0.044100795 -0.06780978 0.14378306 -0.21396098 -0.13015977 0.135448 -0.12056783 -0.052300077
-0.060214326 -0.05562326 -0.0013070629 0.101506986 0.08283395 -0.0028965976 -0.14572054 0.15894751
0.15195279 -0.10774628 -0.02027128 0.0924249 -0.019704133 0.13235208 -0.05317133 -0.13790843
0.07472284 -0.028336005 0.037651222 -0.12712978 -0.0773214 0.16426344 0.1126994 -0.09959727
-0.0074204863 -0.033534214 -0.042265236 -0.021895865 -0.09932147 0.10508011 -0.13483799 0.061328076
-0.10263262 -0.06802246 0.04521618 -0.09162658 0.048797328 0.10881408 0.038450032 0.07262657
-0.12477027 0.10693839 -0.06170589 0.002012942 -0.11382678 -0.1274959 -0.107586324 -0.111251906
0.1203843 -0.17133178 0.049304772 0.076128356 0.002177014 0.041512232 0.028969632 0.022581168
0.12267655 -0.036040526 -0.04340976 -0.0018932599 -0.014303623 0.027712958 0.014161505 0.018016119
0.006064662 0.0896356 -0.09429092 0.06995316 -0.12461687 0.14512151 0.1851753 0.0041630277
-0.06090948 0.14461325 -0.035147157 -0.13456236 -0.14288254 -0.13869545 0.14155999 -0.19365636
0.14519681 0.06581173 0.07117256 0.08012572 -0.01480183 0.122636616 0.04022497 0.045926843
-0.117048256 0.08790575 -0.112653434 -0.1877167 0.12800357 -0.0234689 -0.07086774 0.074555516
0.050496805 -0.017690254 0.009920268 0.057877716 0.067266986 0.12030903 0.11165806 -0.11038291
0.014962904 0.0014810758 0.08106212 0.08882012 -0.0052269357 0.11843215 0.001543695 0.0009209345
-0.031392347 0.074518025 -0.031078134 0.14181401 0.0918227 0.12746517 -0.10108401 -0.009230597
-0.0716752 -0.121913426 0.006707991 -0.018197088 -0.093452945 0.1046457 -0.07692987 0.017914409
0.02916181 0.05727204 0.12170124 -0.04859781 0.07391216 0.03910694 0.04969306 0.026357116
0.054714043 0.09414321 -0.11644837 0.04068356 0.017512314 0.0485285 0.13169843 0.19479536
0.09760897 -0.009101882 0.029578814 -0.14337571 0.011155893 0.02708071 0.0736974 0.09546242
-0.05985126 0.16364248 -0.11652212 -0.11550629 0.07362427 -0.043280903 -0.14387321 -0.08243251
-0.07518338 -0.1680495 -0.12073982 -0.04216176 -0.074377574 0.072801456 0.16197753 0.013406598
0.028627947 -0.07478095 -0.13695942 0.086073674 0.023552593 0.112613 -0.14600797 -0.11083055
-0.022612233 0.07801474 0.0032282076 0.037392426 0.064409286 -0.03622759 0.20913288 -0.11732406
-0.13809752 0.079945184 0.1571778 0.07431719 -0.10838176 0.12631027 0.019419683 -0.06472794
0.19966272 -0.083114535 -0.038135 -0.03593299 0.1966804 -0.05939404 -0.038702972 -0.07250494
0.087406635 0.08549442 -0.17667146 -0.03651282 0.16017167 -0.1034971 -0.14202319 -0.059986934
-0.0945779 0.019178068 0.14094962 0.04159614 0.08348556 -0.098252736 0.13369505 0.032315258
0.10743003 0.044527292 0.1672807 0.037969492 -0.04050291 0.21716027 -0.031348728 0.119849265

gcn_diff.conv1.bias f4 [128]
00000000: e7bf 143c 8a5c 26bc c7c9 9ebc 07b7 133c
00000010: 6d9f ae3c 4e4a 823c 1abe fa3c 1c87 65bc
00000020: d116 cb3c 52d0 5bbb 05c7 f53c 1d1a 21bc
00000030: 94bb 65bd 479f ce3c e148 a23c 78d1 ec3c
00000040: 5fba 55bc 30a6 d0b9 c35c c33b 95f3 83bb
00000050: 8935 2c3c df45 d0bb 444c ff3b 162e a13c
00000060: b5b3 163c 1429 a8bc 8a2b 923c b241 983c
00000070: 7d94 9dbc 069b 74bb c408 cb3c 2e19 293d
00000080: 118b 663c 8518 a13c 9e33 07bc d61e d3bb
00000090: ce2c 0b3d 007b 973c a85c f23c 4bc9 b33b
000000a0: 7f42 be3b 4947 0f3d 324d 8cbd 5f95 dd3b
000000b0: 5b87 293d d208 273d b7e4 443d 341e 693c
000000c0: 7cea 243c c885 2c3d 1780 be3c edd3 d13c
000000d0: 6a44 8b3c 778a 983c ae70 833c 56b5 ac3c
000000e0: f659 1fbd 6b41 9c3c 3a98 423c 2499 e43a
000000f0: b7e5 70bc 7c8f e33c 46e9 633a adcd 073c
00000100: d644 0ebc 000a 1c3d 7d4c 29bc 627a 643b
00000110: 121a 033c 2c9d 92bb 7116 0dbd ab4e 5c3c
00000120: 59ba dd3c 3ef2 2c3c 32f5 403d 7168 9b3c
00000130: a58a b3bc 6487 63ba 79c2 fdbb efdf 983c
00000140: f102 003d 9880 2d3c c1ab 42bc a74c af3c
00000150: ff8c 87bc 03f7 043d e7bb 1fba 1798 ec3c
00000160: 6c1a 0c3d 2199 8c39 c9a0 c63b 38cb f43c
00000170: 8b71 703c 09b6 033c deb6 953c 01ec c6bc
00000180: 58f6 033d 95b9 e83c a96b c73c 6f9f 003c
00000190: 1025 f03b 9f20 f83c b627 323d 14a2 403c
000001a0: 76af 213c 4c93 213b d62c 683d 0e5b 73bc
000001b0: e81b ab3c fab1 8a3c 5333 883c 722e fbb9
000001c0: 71e0 2cbb 49f3 1abc cc8a 053d 7ac0 fcb9
000001d0: 7a27 c93c 7ce5 d2bb 7946 0d3d 7e17 193d
000001e0: 47b3 483d 61e4 63bc 57cf 06bb cdf1 453b
000001f0: 1e54 443b 29da 3dbc e970 82bb cd3a 713b
0.009078956 -0.010153899 -0.019383324 0.009015805 0.021316255 0.015904572 0.030608226 -0.014009263
0.024791153 -0.0033540917 0.030002126 -0.009832886 -0.05608709 0.025222434 0.019810142 0.028908476
-0.013044923 -0.0003979667 0.005961986 -0.00402684 0.010510811 -0.0063559855 0.007791074 0.019675296
0.009198119 -0.0205274 0.017843027 0.018586013 -0.019235844 -0.0037323846 0.024784453 0.04128378
0.014071242 0.019665012 -0.008252053 -0.006442885 0.033978276 0.018491268 0.029585198 0.0054866425
0.005806267 0.034980092 -0.06850661 0.006762191 0.04138885 0.040779896 0.048069682 0.014228392
0.010065671 0.04211977 0.023254437 0.02561375 0.017000396 0.018620713 0.01604494 0.021082561
-0.038904153 0.019074162 0.011877114 0.0017440659 -0.014703206 0.02777838 0.0008694123 0.008288783
-0.008683404 0.038095474 -0.010333178 0.0034862985 0.008001821 -0.0044743028 -0.03444523 0.01344649
0.027066397 0.010555802 0.047108836 0.0189707 -0.021916697 -0.00086795376 -0.00774413 0.018661467
0.031252805 0.010589741 -0.01188177 0.021398855 -0.016546724 0.03246213 -0.0006093368 0.028881116
0.034204885 0.0002681697 0.0060616476 0.029882059 0.014675508 0.008039006 0.018275674 -0.024282457
0.032217354 0.028408805 0.024343329 0.007850512 0.007328637 0.030288992 0.043494903 0.011757392
0.009868493 0.0024654446 0.056683384 -0.014853252 0.02088733 0.016930569 0.016626036 -0.00047909055
-0.0026378895 -0.009457418 0.03260307 -0.00048208592 0.024554957 -0.006436048 0.034491036 0.03737592
0.048999097 -0.01390943 -0.0020570362 0.003020394 0.0029957364 -0.011587658 -0.003980745 0.003680873

gcn_diff.conv1.lin.weight f4 [128, 334]
00000000: 5dda bc3b f537 9e3c dc20 d1bd 3af7 1a3c
00000010: 590d b53d 09c3 b63d 3274 2c3c 1c66 16bd
00000020: 3c19 b1bd 135a 6a3d 95b4 a43c b135 29bd
00000030: 8566 1b3d e5af a03d bbae 5d3d 38a3 0e3d
00000040: 059a ba3d 77fd cebc 9c34 ef3d 3194 b33d
00000050: aa4a 33bd db5a cabd f7f2 463d 5c9d acbd
00000060: 4924 003e 2985 ad3c f034 a33d 4ace 2ebd
00000070: a32a 26bd 35e8 cf3d df0c 803d ba37 e23d
00000080: 1e68 743d bbcf 493d 1d81 12bd c590 aa3c
00000090: d533 083e b826 e9bd 95e7 4e3d e92d fb3d
000000a0: 94d2 dbbb 3b25 1cbd 08fb e8bd 6fe4 863d
000000b0: 867c 50bd 68a7 95bc 48cb 7f3c ae0d 1f3d
000000c0: 6da1 5dbd 1564 973c 525f 17bd cc21 fc3d
000000d0: c1ff 91bd f447 9dbd 12f2 80bd 6a79 95bc
000000e0: 6a73 f5bd 7d56 c13c 553e d2bd 65b8 0abd
000000f0: eabb 283d 3c13 b8bd 14f3 543d e1fe 663d
00000100: 5143 3fbb 623c ac3d f665 b03d 4dfd 763c
00000110: e10b a93c 7830 ab3c 4f87 9cbd 130e 23bd
00000120: 7b5a 44bb 90f5 bb3d 3eea 4a3d f637 acbd
00000130: c9b7 0bbd 8ed6 48bd 09dd aebc 12e6 0abc
00000140: 33e1 06bd d882 b33d 5ee9 8cbd e825 d7bd
00000150: 7b05 ce3d ae0b a2bd a429 c2bd ce95 043e
00000160: 4afb b53d 5479 2a3d 3080 88bd 72ed 213d
00000170: 3cd5 1a3c 86a3 42bd eac1 b3bd 48f7 c23d
00000180: 242b 89bc 1167 133d 100d 7b3d 49e0 45bd
00000190: 1344 023d b403 43bd 6607 4fbc c8c4 f7bd
000001a0: 52e9 3e3d f7ac 0fbd 5ea6 ca3b 4d0c 81bd
000001b0: ec7c 2fbd d209 b9bc e484 c13d af6d 383d
000001c0: b999 b2bd 80aa bfbd 9b1d bfbc a214 163e
000001d0: 50b3 e7bb 886e b83d 0dd8 d7bc 03f9 c8bd
000001e0: 134d 6abc b729 04be 8b5e 18bd de9f afbb
000001f0: 0b0b 99bd 6bbc 47bd a236 cabd bcd0 f23d
00000200: dd9e 97bd f990 5fbc 7af9 a23d b182 a9bd
00000210: 54c5 d13d de6a 80bc 1942 a0bd e342 833d
00000220: ce95 713c fd74 d2bd 724c a43d 79e9 ef3d
00000230: 20cd aabd 8dc5 a83c 6c21 ce3d 7be6 bcbd
00000240: 005e a73d 64b3 d73d a356 ecbc b6a8 a8bd
00000250: 9740 acbc 6f7e 45bd 5c08 a4bd 851f d8bd
00000260: 565a c3bd 329e a03d c63d d23d 4095 58bb
00000270: 4886 22bd b872 48bc 710a 94bd dadb b63c
00000280: edfa a43d e85a f03b 141b f2bd 01a1 853d
00000290: 1dce 5e3c ad14 5d3d 7103 61bc e507 42bd
000002a0: 8a5f fdbb 5042 84bd 92d6 cfbd 63f9 41bd
000002b0: c147 e13d f61e 54bd d059 2cbc cf7f 3f3d
000002c0: 319e 9f3d cca7 4d3b 97dc bb3b a28e 58bd
000002d0: c5d4 df3d 918a adbd 922e 96bb fa12 573d
000002e0: e8df aa3b 4220 d03d 489d 6fbd b8ef ebbd
000002f0: 7ca9 cdbd 47d5 b4bd 3902 ddbd be04 13bd
00000300: 743e 753d daf0 a23d 20c6 c1bd 09fd 1dbd
00000310: 3ad6 cd3d bf91 873d eef9 f2bc 6743 27bd
00000320: 4490 8ebc 5008 cb3d 8cf7 703c 4931 bc3d
00000330: b244 30bd 6929 73bd 8cba 6dbd 661e 9b3d
00000340: f166 733d 25ec a73d 4c1a 2b3b 5e57 a9bd
00000350: 139e d7bd 3f00 383d 6f45 d7bd db82 31bd
00000360: 43fd 00be 46c0 553d 3843 c7bc 8b07 153e
00000370: f6a2 a6bd ff31 8e3d d7a2 a0bd dbe0 84bd
00000380: 7bf3 9a3d 4b20 e0bd 974a 9a3d cf8a e83d
00000390: 98a2 afbd 1d7e e9bd 283f c33d 7d2e 38bd
000003a0: 3e76 89bb aa14 ea3c daf1 7d3d ef8c dd3d
000003b0: 4136 f83d 84bc b9bb 9608 46bd 0d14 56bd
000003c0: 648c 1e3d 23ad 82bd 7d59 2cbd 5ac5 d9bc
000003d0: 84e4 f3bd 5e3e 9d3d 96aa c73b 60b5 a0bd
000003e0: b80f 8dbd d8b2 8cbd 9eeb 2abd f2df 65bc
000003f0: e311 5cba c837 66bc 9c91 ba3c 0963 9bbd
0.0057633356 0.019313792 -0.102113456 0.0094583575 0.088404365 0.08923919 0.01052575 -0.036718473
-0.08647391 0.057214808 0.02010564 -0.04131097 0.037939567 0.07846049 0.054121714 0.034823626
0.09111408 -0.025267346 0.11679956 0.087685 -0.043772377 -0.098806106 0.048571553 -0.084284514
0.12513842 0.02118166 0.079690814 -0.0426772 -0.040568005 0.10151712 0.06252455 0.11045785
0.059669606 0.049270373 -0.035767663 0.020820985 0.13301022 -0.11384338 0.050513823 0.12264616
-0.0067084525 -0.038121443 -0.113760054 0.06586539 -0.050900005 -0.018268302 0.015612431 0.038831405
-0.054109026 0.01848034 -0.03695614 0.12311134 -0.07128859 -0.076797396 -0.06296171 -0.018246371
-0.11984904 0.023600811 -0.10265795 -0.03386726 0.041194834 -0.08988044 0.05198963 0.056395415
-0.002918441 0.084099546 0.086131975 0.01507504 0.020635547 0.020897135 -0.076429956 -0.039808344
-0.0029961157 0.09177697 0.049539797 -0.08409111 -0.034110818 -0.04903274 -0.021345632 -0.008477705
-0.03292961 0.08765191 -0.06880449 -0.10505277 0.10059639 -0.07912384 -0.094805986 0.12947771
0.0888582 0.041619614 -0.06665075 0.039533086 0.009450253 -0.04751923 -0.087772205 0.095198214
-0.016744204 0.035986964 0.061291754 -0.048309598 0.031803202 -0.047610953 -0.012636041 -0.1209808
0.04660923 -0.03507706 0.0061843833 -0.06301174 -0.042843744 -0.02258769 0.09449175 0.045026477
-0.087207265 -0.09358692 -0.023329547 0.14656308 -0.0070709363 0.09005457 -0.026348138 -0.0981312
-0.0143006025 -0.12906538 -0.03719954 -0.005359634 -0.074728094 -0.048763674 -0.09873702 0.11856219
-0.07403348 -0.013645404 0.0795774 -0.082768805 0.102427155 -0.015675958 -0.07825107 0.06409242
0.014745189 -0.1027622 0.08022393 0.11714453 -0.08339906 0.020602012 0.100649685 -0.09223648
0.08172226 0.10532263 -0.028849905 -0.08235304 -0.021026893 -0.04821628 -0.08009407 -0.10552887
-0.095387146 0.07842673 0.102656886 -0.0033047944 -0.03967884 -0.012234382 -0.07228554 0.02232163
0.08055673 0.0073350556 -0.11821571 0.0652485 0.013598946 0.053974796 -0.013733731 -0.04737081
-0.0077323364 -0.064579606 -0.10148348 -0.047356974 0.11000014 -0.05178734 -0.01051946 0.046752747
0.077938445 0.0031380532 0.0057330835 -0.0528704 0.109292544 -0.08473695 -0.0045831883 0.05250833
0.00521468 0.10162403 -0.058499604 -0.11520332 -0.10042092 -0.08829742 -0.107914396 -0.035893194
0.059874013 0.07956095 -0.094616175 -0.03857139 0.10050626 0.06619596 -0.029660191 -0.040835764
-0.017402776 0.09913695 0.014707457 0.09189088 -0.043034263 -0.059365664 -0.058039233 0.075741574
0.059424344 0.08199338 0.0026108203 -0.08268617 -0.10528197 0.04492211 -0.1051129 -0.043337684
-0.12596612 0.05218532 -0.024324045 0.14553659 -0.08136551 0.0694313 -0.07843559 -0.064882
0.075659715 -0.109436594 0.07533758 0.11354601 -0.08575934 -0.11401007 0.095335305 -0.04496621
-0.004195004 0.028574307 0.061998226 0.108178966 0.12119723 -0.0056682248 -0.048348032 -0.052265216
0.038708106 -0.063806795 -0.04207753 -0.026583362 -0.1190882 0.07677911 0.0060933335 -0.078470945
-0.06887764 -0.06870049 -0.04172861 -0.0140304435 -0.00083949993 -0.014051385 0.02277451 -0.07587249

gcn_diff.conv2.bias f4 [128]
00000000: d34d 01bd 4d12 3e3b 67a2 2fbb 88d5 9cbb
00000010: 0eb7 b83b af1e 90bc fe43 35bc a468 e5bb
00000020: b821 41bc 26f2 07bc 4478 3e3c c272 6f3c
00000030: ba25 3ebc 3a24 9f3b 1e6b 2abb bdb6 233c
00000040: 97bb 3cbb 13e1 eb3b e7a0 b0bb a76c d93c
00000050: 9b25 cebb 8585 a53c a9da b1bb d37f 6a3c
00000060: f5f3 80bc 121a 22bc 4f74 783b 40dc 9eba
00000070: f51d acb9 b1eb 89bb 4f5f 483b 1b01 3dbc
00000080: fc22 d83c 8cf7 febb 4371 703c fc05 9d3c
00000090: 6d1e 0abb e3ff a4bb c891 1b3b 745a c83c
000000a0: 5c1b 383b 7e6e 21bb 205b a1bb e37a f63c
000000b0: 8a8c 31bb 2648 17bb 67eb 47bc f1a0 7a3c
000000c0: 451f d03c 3e36 ae3c 8c23 04bc eee0 51bc
000000d0: efb6 f3bb b8b6 9a3b 6dda 2e3b 8bc1 303c
000000e0: 14fc babb ab18 673c 5dfd 18b9 7192 35bc
000000f0: f72d ae3c dfda d5bb 1ad9 05bc f6fb 643c
00000100: 8954 8a3c f05e 70bc 911f ddba c037 d4ba
00000110: b263 9ebb ad68 76bc 2cf4 40bc 7759 33bc
00000120: 7c10 3ebc 7b9d 83bb c4ac 8abc 2d71 ebbb
00000130: 4111 bdbb 3a2b f43c 3ca2 27bc 0d80 8dbc
00000140: 77df b0bb 3d77 9cbb 8276 5cbc ac9f edb7
00000150: 3131 2f3b b216 e13b 3840 c53c d2d0 dfbb
00000160: 56d9 28ba b1d3 063b b9b0 a23b a858 753b
00000170: f286 20bc b140 883c a1e2 b63b 5b5c c43b
00000180: 325c 15bc b921 933c 3d32 9cbb 2c7a 7abb
00000190: c4cc 9bbb b23c 07bc dd72 1a3b e07c e7bb
000001a0: ace5 883c c347 dcbb 5dda 8dbc 34e7 d6bb
000001b0: 467a 19bc 60ca 75bc f839 a6b9 78dc d43b
000001c0: 68dc 8bbc 3975 543a e700 9b3c 57b7 893a
000001d0: 1559 a53c c81b 9f3c 88ec 2f3c 5641 013c
000001e0: 0495 8bba 3e77 8cbc a611 aabc a67b 8a3a
000001f0: 507d 993c 401c 58bc 4d50 2dbc 5cff 07bb
-0.03156836 0.0029002607 -0.002679968 -0.004786197 0.005637056 -0.017592756 -0.011063574 -0.0070009995
-0.011787824 -0.008297479 0.011625353 0.014614763 -0.011605674 0.0048566135 -0.0026003788 0.009992299
-0.0028798336 0.007198462 -0.005390275 0.026541067 -0.006291104 0.020205269 -0.0054276777 0.014312702
-0.015741328 -0.009893911 0.0037911122 -0.0012120083 -0.00032828716 -0.004209005 0.0030574386 -0.011535908
0.02638387 -0.0077809747 0.014675441 0.019167893 -0.0021075264 -0.005035387 0.0023738015 0.024457194
0.002809248 -0.002463251 -0.004924193 0.030087894 -0.0027091824 -0.0023083775 -0.01220212 0.0152971605
0.025405535 0.021266099 -0.008065116 -0.012809975 -0.007437579 0.004721489 0.0026680485 0.010788332
-0.0057063196 0.014105002 -0.00014590235 -0.011082278 0.021262152 -0.0065263356 -0.008169437 0.013976088
0.016886013 -0.014671072 -0.001687037 -0.0016190931 -0.004833662 -0.015039605 -0.011776965 -0.010946623
-0.01160061 -0.004016576 -0.016928084 -0.0071851225 -0.005769879 0.029805768 -0.010231551 -0.017272973
-0.005397733 -0.0047749565 -0.013455989 -2.8326955e-05 0.0026732201 0.0068691606 0.024078473 -0.0068303132
-0.0006441077 0.0020572955 0.0049649146 0.0037436876 -0.0097977985 0.01663241 0.0055812155 0.005992455
-0.009116219 0.017960416 -0.004766731 -0.0038219793 -0.0047546346 -0.008254217 0.0023567 -0.007064447
0.016711079 -0.006722422 -0.017316038 -0.0065583233 -0.009367531 -0.015001863 -0.00031705177 0.0064960085
-0.017072871 0.0008104626 0.018921329 0.001050691 0.02018408 0.019422427 0.010737546 0.007889112
-0.0010649269 -0.017146703 -0.020760369 0.0010565415 0.018736511 -0.013190329 -0.010578227 -0.0020751571

gcn_diff.conv2.lin.weight f4 [128, 128]
00000000: 42d2 1ebe 2c91 473d 4778 6bbd e5ac 04be
00000010: b590 263d e487 00be ac56 1dbe c03b c9bd
00000020: c123 dd3d 071d e8bd c3ee fa3d 9835 e53d
00000030: 285f b8bd 8647 dcbd 2ada f0bd db9a 8d3d
00000040: 8935 76bd 39e6 9f3d 5711 09be 2467 f13d
00000050: ea67 bdbd 185b 10be ffe2 f83d ee11 5b3d
00000060: 82a1 02be 52fe 67bc af9d 30bd 3237 a13d
00000070: 7e81 1cbe 0c11 ebbd 0a2d 803d aeec e6bc
00000080: f6bd d93d 95dc 7d3c 80a4 fdbc c92e 08bd
00000090: fb56 1ebe eb6f 083e 523f 593d 1ea3 98bd
000000a0: 4426 9e38 f801 2f3d 4f12 b03d baed eabd
000000b0: e04f 24be af4f aa3d 1f8c 82bd ab1a 1bbc
000000c0: 792f 453d d97b 0c3c 95f0 a5bd 3645 103d
000000d0: 3fb6 5ebe 7ae5 0a3c a258 05bd 4cf8 7fbd
000000e0: ad36 993d 6ede ce3c a311 03be 1272 0cbe
000000f0: 4a75 153e 8ef5 44bd 8a8d 2dbd 07a0 ff3d
00000100: 43e6 0e3d 7c7c e4bc 29ba 5fbd 1174 7f3d
00000110: 7d7a 123e d1f9 d33d 7e02 aebd 280c 91bc
00000120: c814 8bbd 4793 cd3d b300 00be 5853 3cbd
00000130: 008d 113e 7e35 02be d564 febd 27bc 20bd
00000140: 5a08 813b d62e f939 7199 14be 0a7a f1bc
00000150: d44f 51bd 4c5a 28be 99f1 11bb 7121 cc3d
00000160: 1198 603b b9ec a53d fcdd 11bd bfb6 153d
00000170: 06df 013d 3877 1ebd 1bfc 8fbc 9498 883a
00000180: 1103 f13d c9c0 8dbd 9406 36be 0d97 cf3d
00000190: 430a 5e3e 22f0 25be 490a 053c 0803 ffbd
000001a0: 5bb7 003e 1ba9 1bbc 37f7 80bd 9ee6 373d
000001b0: 66d3 903d ea87 3abd fbf8 20bc c936 743c
000001c0: ea63 2abc 341a b03d f150 0bbe 5284 65bd
000001d0: 7ed7 da3d e3c3 f23d 6f18 e7bd 3b30 9d3d
000001e0: 7bdd 00be cdac ee3c c127 ee3d 9b5c 4bbd
000001f0: 192c 50bd eecf 7abd dfa1 cd3d f013 4ebd
00000200: 0bd1 b73c b016 ab3d 5c22 ca3c 1551 043e
00000210: 7bcc c63d 14ee 713d fd3c f13d 91f2 00be
00000220: 0a00 0abd 31aa 94bd b901 8f3d e4e1 c0bd
00000230: b1bb 243e ec97 81bd ed44 c4bd ba6c 5b3d
00000240: 9953 c7bd 8744 e0bd ba36 1abe eb27 d53d
00000250: ff65 f6bd 2d62 b4bd 6d57 db3c fc0b 3f3e
00000260: 1da2 833c 8e83 853d 9da7 c4bd 0d3f 733a
00000270: f986 99bd b47f 973d 3b16 823d 9c69 a23d
00000280: fa25 dfbd 08a1 9ebd dc26 05bd 6aab 273e
00000290: d76f d63d 8734 fdbc cba6 e8bb 15a1 343e
000002a0: f6b8 6f3d 865e 563b 929c 23bb 6773 20bd
000002b0: 7bf3 043d 0c33 133e d86c ccbd 8401 97bd
000002c0: c7c1 8abc 89e9 2e3e 57f6 1e3e 2d8b 983d
000002d0: 14e4 16bd 2b62 123e a4aa bf3d 88e6 283d
000002e0: 17e9 af3d 4d75 963d 1510 0e3e 5013 63bd
000002f0: 1d99 9e3d 635d 143e 0b07 ebbd b439 7fbd
00000300: f0f3 87bd 4cbb 113e 47b6 c9bb 36d5 a73c
00000310: e008 fa3d 1aeb 053e 70cc c63d da12 d33d
00000320: d4b0 7a3d f74a 86bd 555d 2fbd 67d5 92bd
00000330: f302 10be 6228 99bd 1b97 843c ed01 e03d
00000340: d03d 23bd a457 cbbc ab43 353b 844b d5bd
00000350: ad0d 60bc 0ac8 0dbe 4734 8dbd a77b 59bb
00000360: 94de 60bd 86ef 95bc 4821 a53d 5bbd e4bd
00000370: b68a 34bd b7f2 1e3e a3d6 6cbd d641 adbd
00000380: 6245 c8bd c8bd 773d 60a2 cbbd 0578 01be
00000390: 8672 073e 0c67 bfbc e194 a43d 22d3 d43d
000003a0: 4d24 1cbd a02a 803d bc17 7e3d a122 573d
000003b0: ab20 64bd 5da2 a33d 5690 1cbd 7330 94bd
000003c0: af8a c2bd 2550 fcbd 2046 5f3d d0a6 2dbd
000003d0: 382e ee3d 7168 95bc 7c22 61bd baee 12be
000003e0: d1ac 503d 50fd ff3d 66ef 01be 615f be3d
000003f0: 40d1 12be 8a26 b6bd 5ce6 e73d e36f 19bc
-0.15509894 0.04872243 -0.057487752 -0.12956579 0.040665347 -0.12551838 -0.15365094 -0.098258495
0.10797835 -0.113336615 0.122525714 0.11191863 -0.090025246 -0.107558295 -0.117603615 0.06914302
-0.06010965 0.07807583 -0.13385521 0.11787251 -0.09248336 -0.1409725 0.12152671 0.053483896
-0.12756923 -0.014159756 -0.04311913 0.07871856 -0.15283772 -0.11477861 0.062585905 -0.02818903
0.10631935 0.015494485 -0.030962229 -0.033247743 -0.15462868 0.13323943 0.053038903 -0.07452987
7.5411546e-05 0.042726487 0.08597242 -0.11471124 -0.16046095 0.0831598 -0.06374382 -0.009466807
0.048140977 0.008574449 -0.08102528 0.035222255 -0.21749209 0.008477563 -0.03255523 -0.062492654
0.07481132 0.025252547 -0.12799697 -0.1371539 0.14595523 -0.04808574 -0.04237131 0.12481695
0.034887563 -0.02789139 -0.054620896 0.06236655 0.14304538 0.10350383 -0.08496569 -0.017705992
-0.06791073 0.100378565 -0.12500267 -0.04597792 0.14213943 -0.12715718 -0.12421576 -0.039241936
0.003937763 0.00047527876 -0.14511658 -0.029477138 -0.05110152 -0.16440696 -0.0022269248 0.09967316
0.0034270326 0.08101792 -0.03561209 0.036551233 0.031706832 -0.038687915 -0.017576268 0.0010421448
0.11768163 -0.069215365 -0.17775947 0.101362325 0.21683602 -0.16204885 0.008120128 -0.1245175
0.12569945 -0.009500767 -0.062971525 0.044897668 0.07071571 -0.045539774 -0.009824987 0.01490564
-0.010399798 0.08598748 -0.13605095 -0.056034394 0.10685633 0.11853769 -0.11283957 0.07675215
-0.12584488 0.029135132 0.11628676 -0.049648862 -0.050823305 -0.061233453 0.1004064 -0.050311983
0.022438547 0.08353937 0.024674587 0.12921555 0.0970697 0.05906494 0.11779211 -0.12592532
-0.033691444 -0.07259024 0.069827504 -0.09418085 0.16087224 -0.06327805 -0.09583459 0.053570487
-0.09732742 -0.109505706 -0.15059939 0.104080044 -0.12031173 -0.08807788 0.026775086 0.18656915
0.016068513 0.06519233 -0.09602282 0.00092791097 -0.07496447 0.07397404 0.063518964 0.079303
-0.10895915 -0.07745558 -0.032507762 0.16373983 0.104705505 -0.030908836 -0.0070999614 0.17639573
0.058526002 0.003271015 -0.002496515 -0.039172556 0.032458764 0.14374942 -0.09981698 -0.07373336
-0.016938103 0.17081274 0.15523659 0.07448421 -0.036838606 0.1429526 0.09358719 0.041235477
0.0858938 0.07346592 0.13873322 -0.05543834 0.07744048 0.14488749 -0.11475953 -0.06231089
-0.06638324 0.14231604 -0.0061557624 0.02048741 0.12208724 0.13077965 0.09706962 0.1030633
0.061203793 -0.06557267 -0.042813618 -0.071696095 -0.14063625 -0.074784055 0.016185334 0.10937867
-0.03985387 -0.024822064 0.0027658741 -0.10414794 -0.013675136 -0.1384584 -0.06894737 -0.0033185275
-0.054899767 -0.01830269 0.080629885 -0.11168929 -0.044077598 0.15522276 -0.05782188 -0.08459823
-0.09778859 0.060483724 -0.0994308 -0.1264344 0.13227281 -0.023364566 0.08036209 0.10391833
-0.038120557 0.0625813 0.062034354 0.05252326 -0.055695217 0.07989953 -0.038223587 -0.072358035
-0.09499108 -0.12319974 0.054510236 -0.042395413 0.11629909 -0.018238278 -0.054964527 -0.1434888
0.05094606 0.124994874 -0.1268898 0.09295536 -0.14337635 -0.088940695 0.113232344 -0.009365055

readout.fc.weight f4 [128, 256]
00000000: cc14 58bc faff 693d be87 b93c 61df 303c
00000010: e758 c23d 6389 5f3d 0386 e53c 6c33 223d
00000020: deb9 bd3d ca49 003d 9de3 323d 5f18 073d
00000030: da9c d33d 45fa 83bb e65d 4fbd 1dd1 65bd
00000040: 1422 513d 2306 c83d df41 743c 841a dcba
00000050: e6d8 a83d cccc af3d 67fc fb3c c1c5 91bc
00000060: 2c55 893d 525c c63d 6f85 b53d 8d4f db3c
00000070: af4d 4e3d dbbb ccbc 0289 81bc d5ce df3d
00000080: 5c43 b83d ad64 99bc ef74 debc 114c 493d
00000090: 1952 8b3d 9a16 063c 70eb 0ebc 42bd 393d
000000a0: afe6 f0bb c666 303d 7006 073d 6c76 933d
000000b0: ad90 043d 32ae 09bc 4cea e63d a78e 323d
000000c0: e25e a3b9 9401 61bd da32 943d 93cc a03c
000000d0: 658c 563d b7ac a13d 7ce3 12bc d9e7 283b
000000e0: 6e12 d53d 19b5 843d d095 0c3d 9a87 c33d
000000f0: 50c9 1239 4d14 803c 1b36 453c dc2d 033d
00000100: 83ad 813d 540e 52bc cbda 8b3d 2b52 b03c
00000110: 8727 b53d 8e73 473d a55c ba3d 2bcb 4cbc
00000120: 9917 013d aa17 563d 4d4b e33c 39f4 e03d
00000130: 8207 d63d dd26 4b3d 8b37 6c3b 84c0 e7bc
00000140: e655 9a3d 2887 803d 5e3a bb3d 5198 013c
00000150: bf97 303c 4644 633d 71b5 5b3c 16c2 4c3d
00000160: cc68 863a e638 b33c c0dd c23d 2e50 903d
00000170: 0075 2d3d 0a80 2dbc 0e3a 8a3b 4b93 983d
00000180: e19a 9b3d 2d0a 2a3d 446c de3a 0f89 533d
00000190: 0576 80bc 6c79 9d3c 6cac a33d 7467 a03d
000001a0: 6d04 32bc dca7 b13c ebb0 b33d 6487 c73d
000001b0: 3999 1a3c 2594 d83c a97c b63c 67bd 273c
000001c0: 6159 913d 143d b93d 4137 af3d b3c8 453d
000001d0: f48c b93d 5f96 52ba 48d7 9b3d 5f33 a63d
000001e0: c737 8c3d 56c5 723d 8ba5 643d 4074 283d
000001f0: a102 1f3c cef9 36bc 9cf5 8d3d 0238 a9bb
00000200: 08c7 113b bb40 4b3c 6ff1 013c 6b5f 1c3d
00000210: 191c a0bc e4f3 293d 7672 973d fb3a fa3b
00000220: cf6f ae3d 68ab 313d 8f6f 2abc 6403 7039
00000230: f2d6 833d 2bbc c23d 560f 0fbd 12ce b93b
00000240: 3b3f 8cbc dca2 d03d dc60 333d b5e9 673d
00000250: e61b d23c b4b1 923d b209 d13c dcff 9f3d
00000260: c934 8fbc 84eb 5f3d f176 933d cba1 61bc
00000270: 5e3c a33d df35 3e3c aa78 3c3d a136 473d
00000280: 67e6 bf3d fcc2 1e3d 26a0 833d 0855 4e3d
00000290: f8e5 003c 40ee 3f3d 7d78 2a3c 29b3 953d
000002a0: 14e6 f5ba 59bd a53d c50f a33c 094b cc3c
000002b0: ad47 9b3c 6f0a 2b3d f160 863d c2a3 373d
000002c0: 27f3 d6bb 9a9d 803d 36ed 9fbc e0b2 903d
000002d0: 0bf2 913d 3102 12bc 5c32 e0bc d284 1e3d
000002e0: 45f4 62bc d224 973c 5860 483d e512 0cbc
000002f0: cf8f 3e3d e6a8 f53a 4355 623d 873f 4e3d
00000300: dc68 bb3d 3365 ca3d a70e 9fbd 8955 a83d
00000310: 7db3 f13c 0f91 033d 4758 0a3d 58a6 a53d
00000320: f534 5bbc 1194 ca3c bebc d73c a7d0 5d3d
00000330: 1a1f 9a3d fe47 6bba c7ba 0e3d fdd3 823c
00000340: 472a 0f3c e828 b8b8 7c88 823b 6202 cb3c
00000350: 1fe1 db3c 0414 653c 7b04 7c3d 385d 243d
00000360: 6327 853d 9cc0 b8bc d457 b73d 01bf 0a3c
00000370: c8e2 4a39 0af2 023d 76fb d1ba 9f70 5a3d
00000380: d123 bd3d 1a35 85bc a02a 0c3d 2e64 b13d
00000390: a03c a6bc 24c2 06bd a2ca 023d 0151 b03d
000003a0: b178 17bc 2f83 bf3c 84ae b43d 2ec4 1abb
000003b0: caff 07bd 1016 acbc 490a d73d 63ac 163d
000003c0: b519 b03c 40ea c1bc d6ba 713b 6480 673c
000003d0: 9a9a 2c3d 2a1f 6c3d d95f 993d f4af 95bc
000003e0: cd42 24bc 82d2 2c3c 56b2 92bc 0b4d 423c
000003f0: 2ad5 a83c a032 a73d 35e2 343c 3a66 003c
-0.013188552 0.057128884 0.022647735 0.010795445 0.09489613 0.05457438 0.028018003 0.03959982
0.09263967 0.03132037 0.0436741 0.032982226 0.103326514 -0.004027637 -0.050626658 -0.05610763
0.05105789 0.097667955 0.014908283 -0.001679257 0.08244495 0.08583984 0.030760003 -0.017794492
0.06705698 0.096855775 0.08863341 0.026771331 0.050367054 -0.02499192 -0.0158124 0.10928122
0.08997223 -0.018724764 -0.027155368 0.04914481 0.06802768 0.0081841 -0.008723125 0.045346506
-0.0073517184 0.043066762 0.032965124 0.072003216 0.032364536 -0.008403348 0.11275157 0.043593075
-0.00031160476 -0.054933146 0.07236262 0.019628799 0.052379984 0.07894271 -0.008965369 0.0025772958
0.10403906 0.06479854 0.03432256 0.09547348 0.0001399864 0.01563468 0.0120368255 0.032026157
0.06331923 -0.012820799 0.06828841 0.021523556 0.0884543 0.048694186 0.09099702 -0.012499611
0.031516645 0.05226866 0.027745867 0.10984082 0.10450651 0.04959761 0.0036043848 -0.02829004
0.07535915 0.06275779 0.09141992 0.00790985 0.010778367 0.055485032 0.013409958 0.049989782
0.001025462 0.021877717 0.09514952 0.07046543 0.042347908 -0.010589609 0.0042183464 0.07449969
0.075979 0.04151361 0.0016969522 0.05164438 -0.015681276 0.019222938 0.07991871 0.07832232
-0.010865313 0.021686487 0.08773979 0.097426206 0.009435945 0.026437828 0.02227624 0.010238028
0.07097126 0.09044853 0.08555461 0.048287105 0.09060088 -0.00080332713 0.07609421 0.08115267
0.06846576 0.059270225 0.055821937 0.04112649 0.009705217 -0.0111679565 0.06931612 -0.0051641474
0.0022243876 0.01240557 0.007931097 0.038176935 -0.019544648 0.041492358 0.073948786 0.0076364256
0.085174195 0.043376356 -0.010402574 0.00022889447 0.06437482 0.095085464 -0.034926735 0.0056703174
-0.017119994 0.10187313 0.043793544 0.056619365 0.025648069 0.071628004 0.025517318 0.07812473
-0.017481225 0.054667965 0.07200421 -0.013771485 0.079704985 0.011609524 0.04601351 0.048636083
0.09370118 0.03876017 0.0642703 0.05037406 0.007867329 0.046858072 0.010404703 0.07309563
-0.0018760585 0.08092756 0.01990498 0.024938123 0.018955076 0.041757997 0.06561459 0.044833906
-0.0065597477 0.0628006 -0.01952229 0.07065368 0.07126244 -0.008911655 -0.027367763 0.038700886
-0.013852184 0.018450174 0.048920006 -0.008549427 0.046523865 0.0018742352 0.055257093 0.050353553
0.0915086 0.098825835 -0.077664666 0.082194395 0.029504532 0.03212076 0.033775594 0.08088368
-0.013379325 0.024728807 0.026335116 0.054154065 0.075254634 -0.0008975266 0.034846094 0.015970225
0.008738107 -8.781423e-05 0.0039835554 0.02478141 0.026840745 0.013981823 0.06152771 0.040127963
0.06501653 -0.02255278 0.08952299 0.00846839 0.00019348704 0.031969108 -0.0016020376 0.05333006
0.09235347 -0.016260672 0.034220338 0.08661686 -0.02029258 -0.03289999 0.031931527 0.086092
-0.009245084 0.023377983 0.08822349 -0.0023615467 -0.033202924 -0.021006614 0.105000086 0.036785495
0.021496633 -0.02367127 0.0036885045 0.014129732 0.042139627 0.057646908 0.074889846 -0.018272378
-0.010025692 0.010548236 -0.017907303 0.011859189 0.020609457 0.08163953 0.01104026 0.007836873

readout.fc.bias f4 [128]
00000000: a6e5 fa3c a1a9 cb3d aebf 4a3d eec5 6f3d
00000010: 16cb f93d d6ee 053e adef f03d 4d3d c53d
00000020: fe53 ce3c 3e47 a33c 8595 4d3d c11c 9c3d
00000030: 72f8 d63b aafa 103d b3b0 d53c a650 d53d
00000040: 4f71 043d fe67 bd3b f671 e13a 3e3e 14bc
00000050: 4c9a ae3d 3e6d 5c3c eca3 783c e8b9 c13d
00000060: a740 de3d 7d99 0cba e17a 0abb 2d42 143b
00000070: 495d 9f3d 29cd 043e fd86 c43c b877 dc3d
00000080: 63aa 353d 8f24 363d 3c1d 32bc b8db c7bc
00000090: 0224 e03d daf1 f83c 2d62 ca3d 5171 cc3d
000000a0: 20d6 8f3c 6be5 bf3d 37a9 a03c 2ed9 853c
000000b0: a50c 943d 9c2d 183d 3592 9d3d 786f 993c
000000c0: 88b3 ca3b cbf0 003e 25fb 2bbb 53e8 0b3e
000000d0: 03cc a03c f022 c23c dea4 993d 59f0 df3d
000000e0: 2c57 d73c 9837 b93d 7aa1 753c 5c14 ac3c
000000f0: 3e2b d93d 0895 b43d 338b c73d cac6 283d
00000100: 2eb7 b53d 44d4 033d c060 a63d e147 053d
00000110: da1c e13a 6bee 123d 7d3c 553d 220a fd3c
00000120: 4f69 153c 8210 b03c d74c 883d 0acf 293d
00000130: 274e d13d 072b 993d 0cc0 b6bb 39fb c63d
00000140: 7c01 e03d 0412 d93c c353 593c e289 033d
00000150: 222e 403d fe30 7b3c 176e e93c ecf7 d83d
00000160: 8d16 a53d 38d2 b33d 904d d03d 1b53 bd3d
00000170: d295 003d c40e 513c fcc0 0a3d 28c0 503d
00000180: 71dc 7e3d c7b3 583d 4a67 8d3d c05f 7dbb
00000190: c0b1 0d3d 67d6 0d3d 71f9 d1bb 7670 063e
000001a0: a316 f93c cdfa 9ebb 91eb a03d 5cef a83b
000001b0: b155 0c3e 5a74 443d bb20 b43d 639e cb3d
000001c0: e8ec 923c 0dc4 003d 5856 b63d 46e6 673d
000001d0: a14f 9d3c d0ef 723c 00eb 8e3d b5f9 8e3d
000001e0: ff01 8b3d adf7 c23d bc41 aa3c 2854 bd3c
000001f0: 7ffb b93c 830e 063e 0375 0d3d 552d 003e
0.030627083 0.099444635 0.049499206 0.05853837 0.12196939 0.1307939 0.117644645 0.09630833
0.025186535 0.019931432 0.05019142 0.07622672 0.0065603787 0.035395302 0.026085233 0.10415773
0.032334622 0.005780219 0.0017200101 -0.009048043 0.085255235 0.01345378 0.015175801 0.09459287
0.10852175 -0.00053634477 -0.002113037 0.0022622452 0.077814646 0.12968887 0.023990149 0.10765022
0.044351947 0.04446846 -0.010871228 -0.024396762 0.10944368 0.030388761 0.09882007 0.09982551
0.017558157 0.0936993 0.019611938 0.01633891 0.07228974 0.03715287 0.076939024 0.01872991
0.0061859526 0.12591855 -0.0026242223 0.13662843 0.01962853 0.0236983 0.07502149 0.109345146
0.026286684 0.09043807 0.014992112 0.021005802 0.10603951 0.08817488 0.09743347 0.041205205
0.088728294 0.032184854 0.08123922 0.032539252 0.0017174736 0.035871904 0.05205964 0.03088862
0.009119346 0.021492247 0.06655281 0.041457213 0.102199845 0.0747891 -0.005577093 0.09715886
0.10937783 0.026497848 0.013264599 0.032113917 0.046918996 0.015331505 0.028494878 0.10594162
0.08060942 0.087803304 0.10171044 0.09244367 0.03139288 0.012759868 0.03387545 0.050964504
0.062221948 0.052905824 0.069044665 -0.0038661808 0.034593344 0.034628298 -0.0064079096 0.13128838
0.030406302 -0.004851675 0.07857431 0.005155487 0.13704564 0.047962524 0.08795305 0.09942319
0.017935231 0.03143697 0.089031875 0.05661609 0.01920301 0.014827684 0.069784164 0.069812216
0.0678749 0.09519897 0.020783298 0.023111418 0.02270293 0.13091473 0.03453542 0.12517293
