src/algorithms/deep/pretrained/mvgrl_cora.pt (torch, 292322 bytes, 10 tensors)

gcn_real.conv1.bias f4 [24]
0	0x3cb91eed	0.022597754
1	0xbd2e568a	-0.042563
2	0x3cac34ac	0.02102121
3	0xbca105b9	-0.01965605
4	0xbd34c550	-0.044133484
5	0xbdc4024b	-0.0957075
6	0xbd397134	-0.045273975
7	0xbd4c98ea	-0.049950518
8	0xbd0389bc	-0.032113776
9	0x3c9bc2ec	0.019013844
10	0xbd768a32	-0.060190387
11	0xbd38b3a1	-0.045093182
12	0xbcb76e9e	-0.022391614
13	0xbd6035a7	-0.054738667
14	0xbd4e81c5	-0.050416727
15	0x3d68262b	0.056677025
16	0x3c10b1c1	0.008831442
17	0xbd2164de	-0.039402835
18	0xbd3bf8ca	-0.04589156
19	0xbde4037f	-0.11133479
20	0xbcf9d6b7	-0.030497892
21	0xbd5b943d	-0.053608168
22	0xbce9d513	-0.028543985
23	0x3cb80002	0.022460941

gcn_real.conv1.lin.weight f4 [24, 1433]
0	0xbc7822ba	-0.015144998
1	0x3d8b5521	0.068033464
2	0xbdb0d504	-0.086343795
3	0x3d630a73	0.055429887
4	0x3c877939	0.016537296
5	0xbbd2368a	-0.006415193
6	0x3d2c8a85	0.04212429
7	0x3c60eb28	0.013727941
8	0x3d9d68c3	0.07685997
9	0xbd9198ed	-0.071092464
10	0x3c4c8a31	0.012484119
11	0x3a9a3f0c	0.0011768057
12	0x3cf91fbd	0.030410642
13	0xbc8c0fd8	-0.017097399
14	0xbd41bd03	-0.047299396
15	0xbc1e42ff	-0.009659528
16	0xbd73ba12	-0.059503622
17	0x3baf95ec	0.0053584483
18	0x3d3a5dcc	0.045499608
19	0xbb98b944	-0.0046607573
20	0xbcea1db2	-0.028578613
21	0xbd2fd279	-0.04292533
22	0x3d0094bf	0.031391855
23	0x3cf187f2	0.02948377
24	0x3c93fdea	0.018065412
25	0xbdd269d1	-0.10274089
26	0xbcc67213	-0.024224317
27	0xbca4ccca	-0.020117182
28	0x3d1ea8ea	0.038735308
29	0xbd4c0265	-0.04980697
30	0xbd7ef8c1	-0.06224895
31	0xbcf2e058	-0.029647991
32	0x3d6dce79	0.058058236
33	0x3d7eb8ea	0.062188067
34	0xbd6a3c92	-0.05718667
35	0x3d321dde	0.043485515
36	0x3d87e0de	0.06634687
37	0x3cdce3ef	0.026964156
38	0xbc2c65b9	-0.010522299
39	0xbd01d424	-0.031696454
40	0xbd5ba7e5	-0.053626914
41	0xbd309532	-0.043111034
42	0x3d3420a1	0.04397643
43	0xbd890617	-0.06690615
44	0xbd2875e9	-0.041128073
45	0xbc73d5ab	-0.014882485
46	0xbcb1d6a6	-0.021708798
47	0xbcd3d1ee	-0.025856938
48	0xbb8fbb51	-0.0043863435
49	0x3d9ad011	0.07559217
50	0x3d399075	0.04530378
51	0x3c0b34ac	0.008496445
52	0x3d08a4ae	0.033360176
53	0x3d54587e	0.051842205
54	0xbc502714	-0.012704629
55	0xbd98568e	-0.07438384
56	0xbc5939dd	-0.013258425
57	0xbca9a901	-0.02071047
58	0xbcf179c4	-0.029477008
59	0xbd301e07	-0.042997386
60	0x3cd7b2d8	0.026330397
61	0xbc26e0f0	-0.010185465
62	0x3cd89b43	0.026441222
63	0xbb439c79	-0.0029847904
64	0x3d57fcf0	0.052731454
65	0x3d413c71	0.047176782
66	0xbd0fa68a	-0.035070933
67	0xbd5b6ae3	-0.053568732
68	0x3a7fa1a0	0.0009751562
69	0xbd4401e6	-0.047853373
70	0xb9772824	-0.00023570709
71	0xbd2f4469	-0.04278985
72	0x3d437b26	0.047724865
73	0xb825a9a0	-3.949704e-05
74	0x3da406fa	0.08009143
75	0x3d0b0e80	0.033949375
76	0xbd63d0d7	-0.055619087
77	0xbd646b76	-0.055766545
78	0xbd811aa3	-0.06303909
79	0x3d9319f2	0.07182683
80	0xbdc05f42	-0.09393169
81	0x3da11eda	0.078672126
82	0x3d13038e	0.035892062
83	0xbbbb1936	-0.0057097925
84	0x3d948b18	0.072530925
85	0xbc5d438f	-0.013504877
86	0x3d340314	0.043948248
87	0x3d4225d6	0.047399364
88	0x3d6ee575	0.058324296
89	0x3cd81b61	0.026380243
90	0x3c69adce	0.01426263
91	0x38b8b890	8.808181e-05
92	0x3cd95eac	0.0265344
93	0x3dbe26f9	0.09284777
94	0x3d2dbdda	0.042417385
95	0xbb1281bf	-0.0022355167
96	0xbc67a9d0	-0.014139608
97	0xbcb064ea	-0.021532495
98	0x3d2c73a8	0.042102486
99	0xbb93a75f	-0.004506036
100	0xbd0fb29f	-0.035082456
101	0x3d0dfb72	0.034663625
102	0xbcb4a9f5	-0.022053698
103	0xbd9729f7	-0.07381051
104	0x3d1167fc	0.035499558
105	0xbc195786	-0.009359246
106	0x3d331be4	0.04372777
107	0xbd77b011	-0.060470644
108	0x3d89d50f	0.06730091
109	0x3d00fdea	0.03149215
110	0x3a9fb09e	0.0012183373
111	0xbd2c0522	-0.041997083
112	0x3cb34671	0.021884175
113	0x3d56bdfe	0.052427284
114	0x3bb50dec	0.0055253413
115	0xbd88d42c	-0.066810936
116	0xbd767fe3	-0.060180556
117	0x3d88e51d	0.06684325
118	0xbbd710ce	-0.0065632826
119	0xbd4a920c	-0.049455687
120	0x3db9cb72	0.09072007
121	0x3c68c893	0.014207977
122	0x3d8de65c	0.06928703
123	0xbcd10f06	-0.025519859
124	0x3d07af8d	0.033126403
125	0xbbfbad0b	-0.0076805404
126	0x3d0af16f	0.033921655
127	0x3b55b786	0.003261061
128	0x3ca0d794	0.019634046
129	0x3cc7344c	0.02431693
130	0x3d1f7513	0.03893001
131	0xbc01f366	-0.007931566
132	0xbc18b854	-0.009321291
133	0x3d362a9c	0.04447423
134	0x3caea447	0.021318568
135	0x3bd12c6e	0.0063834703
136	0x3c4e6f60	0.012599796
137	0x3d50517a	0.050858952
138	0xbb2213a9	-0.0024730957
139	0x3d1b6be7	0.0379447
140	0x3d390ae8	0.045176417
141	0xbc1d30e5	-0.009594177
142	0x3da2c261	0.07947231
143	0x3d26d7f0	0.040733278
144	0x3c73fcac	0.014891785
145	0x3d6e995e	0.05825173
146	0x3d19d1ac	0.037553474
147	0xbc09094c	-0.008364033
148	0xbc3168be	-0.010828195
149	0x3ccc632e	0.024949636
150	0xbd166941	-0.03672147
151	0x3b7b61f4	0.0038357945
152	0xbc324880	-0.010881543
153	0xbc6bebab	-0.014399449
154	0x3c698dae	0.0142549705
155	0x3d3b53df	0.045734283
156	0x3d844ba6	0.06459741
157	0xbc796eba	-0.015224153
158	0xbd3b90d1	-0.045792405
159	0x3d308774	0.04309793
160	0xbd01da9d	-0.031702626
161	0x3d86455c	0.06556198
162	0x3ce89566	0.028391551
163	0xbcb15b07	-0.02164985
164	0xbd04ed7d	-0.03245305
165	0xbcf788de	-0.03021663
166	0x3d7dbb9e	0.061946504
167	0x3d162bfd	0.036663044
168	0xba908873	-0.0011026993
169	0x3b6b3308	0.0035888571
170	0x3b172c66	0.0023067235
171	0xbca66646	-0.02031244
172	0xbd1f15f5	-0.0388393
173	0x3c92055f	0.017824827
174	0x3cb907b2	0.022586677
175	0x3dd77f98	0.105223835
176	0xbd844df0	-0.06460178
177	0xbd6f4e7b	-0.058424454
178	0x3cf9ffee	0.030517545
179	0x3d7ae94b	0.06125764
180	0xbd8364d3	-0.06415715
181	0xbd12bfef	-0.035827573
182	0xbd0eebd9	-0.03489289
183	0x3d0122d0	0.03152734
184	0x3d7a9736	0.061179362
185	0xbd0aef58	-0.033919662
186	0x3d369930	0.044579685
187	0xbbfbd98a	-0.007685845
188	0xbca89929	-0.020580845
189	0x3ce0ac39	0.027425872
190	0xbd80f815	-0.06297318
191	0xbd0d669e	-0.03452169
192	0xbcb50e67	-0.022101594
193	0x3bedbecd	0.0072554112
194	0x3c78565a	0.015157307
195	0xbca54ac7	-0.020177258
196	0xbc992804	-0.018695839
197	0x3c80db10	0.015729457
198	0x3c941fd6	0.018081587
199	0x3d23be48	0.03997639
200	0xbc24e6f3	-0.010064828
201	0xbda3f0d7	-0.08004921
202	0xbc0397f6	-0.008031836
203	0x3c185431	0.009297417
204	0x3cfe2e28	0.031027868
205	0xbd26cf62	-0.04072512
206	0x3cb5e820	0.022205412
207	0xbbdabd84	-0.006675424
208	0x3cc328b2	0.023823116
209	0xbc446a08	-0.01198817
210	0x3db1e4ff	0.08686256
211	0xb9c6c302	-0.00037910795
212	0xbda7bedd	-0.08190701
213	0x3cc62ff5	0.02419279
214	0xbdae0403	-0.08496859
215	0x3d866d47	0.06563812
216	0x3c31eb37	0.010859302
217	0xbd2ef0f3	-0.042710256
218	0xbcf4d553	-0.029886877
219	0x3c5184ee	0.012788041
220	0xbce55355	-0.027993837
221	0x3cbb128b	0.02283599
222	0x3b2b52c2	0.0026141857
223	0x3c864d5b	0.016394308
224	0x3d2aa96e	0.041665487
225	0xbd7822e4	-0.06058015
226	0x3da66c22	0.081260934
227	0x3cfd727d	0.030938381
228	0x3d3a1da6	0.04543843
229	0xbba230c5	-0.0049496614
230	0x3d1a58a6	0.037682198
231	0x3c4ce29c	0.0125052
232	0x3c88d88e	0.016704824
233	0xbd290ef4	-0.041274026
234	0x3ca1b058	0.019737408
235	0x3cdf8656	0.027285736
236	0xbc67aff0	-0.014141068
237	0x3cf04525	0.029329846
238	0xbd07b349	-0.033129964
239	0xbd51c4b2	-0.051212974
240	0xbcac0e36	-0.02100287
241	0xbc935616	-0.017985385
242	0x3d195c85	0.03744175
243	0x3c268548	0.010163613
244	0x3d35526f	0.044268068
245	0x3d8416a5	0.064496316
246	0xbcd04e07	-0.025427831
247	0xbc940dbd	-0.018072957
248	0x3d83bc3d	0.06432388
249	0xbd9aa160	-0.07550311
250	0xbd2a5c66	-0.041592024
251	0xbc0ee4d4	-0.008721549
252	0x3da2e0a1	0.07953001
253	0x3d4d134c	0.05006723
254	0x3d8b91d1	0.06814922
255	0x3c642aca	0.013926217

gcn_real.conv2.bias f4 [24]
0	0x3c9be0e6	0.019028138
1	0xbc2abc4d	-0.010420871
2	0xbc08a26e	-0.0083395075
3	0xbc6a1411	-0.014287011
4	0x3b3ca174	0.0028782757
5	0x3cab08ee	0.020878281
6	0x3c1ed4bf	0.009694277
7	0x3c902487	0.017595543
8	0xbd481741	-0.0488503
9	0x3d34e454	0.044163063
10	0xbc616f34	-0.013759423
11	0x3b9b1e76	0.004733856
12	0xbbc7c841	-0.00609687
13	0x3be79751	0.007067599
14	0x39d0d8b0	0.00039834296
15	0xbb9996a3	-0.0046871467
16	0xbcf35206	-0.029702198
17	0xbcd4ff65	-0.026000688
18	0xbc0d7244	-0.0086332
19	0xbce52a36	-0.02797423
20	0xbbaebaaf	-0.005332313
21	0x3c076547	0.0082638925
22	0xbd8b7373	-0.068091296
23	0xba318e40	-0.0006773211

gcn_real.conv2.lin.weight f4 [24, 24]
0	0xbe8f69fc	-0.28010547
1	0x3e6dc669	0.23220219
2	0x3e91f43d	0.28506652
3	0xbeb0ca0b	-0.34529147
4	0xbed13776	-0.40862626
5	0xbdf2a488	-0.11847788
6	0xbe9db8dc	-0.308051
7	0x3c8fbd65	0.017546365
8	0xbe02c950	-0.12772107
9	0xbe6de49c	-0.23231739
10	0xbec0cc21	-0.37655738
11	0x3e89d5e5	0.26921
12	0x3e1fb11b	0.15594904
13	0xbd18f68a	-0.037344493
14	0x3df72825	0.12068204
15	0x3e096c52	0.13420227
16	0xbcfd47e9	-0.030918078
17	0xbe1e93ee	-0.15486118
18	0x3cd59911	0.026073964
19	0xbe8a0352	-0.26955658
20	0x3e83e45d	0.25760165
21	0x3e4f6763	0.20254283
22	0x3e984ca7	0.2974598
23	0x3c8a2087	0.016861213
24	0x3e84c787	0.25933477
25	0xbe840b60	-0.25789928
26	0xbe83fd11	-0.25779012
27	0xbdb648ae	-0.08900581
28	0x3ebe13ad	0.37124386
29	0x3e93888c	0.28815114
30	0xbe3fc16c	-0.18726128
31	0x3e9e3cd6	0.3090579
32	0x3ed842f4	0.4223858
33	0x3e947324	0.28994095
34	0xbe5c9ffd	-0.21545406
35	0x3eb6af92	0.35680825
36	0x3ed455c8	0.41471696
37	0x3e3f304b	0.18670766
38	0x3e52443d	0.20533843
39	0x3e20fdea	0.1572186
40	0xbeae05a5	-0.3398868
41	0x3d0a4270	0.033754766
42	0x3edcc3e8	0.43118215
43	0xbdc802c6	-0.09766154
44	0x3ebeb3a5	0.37246433
45	0x3ed00a40	0.4063282
46	0xbe24699f	-0.16055916
47	0xbd1d1249	-0.038347516
48	0xbe25641b	-0.16151468
49	0x3d52d03d	0.051468123
50	0x3e3d2fe9	0.18475308
51	0x3e2ec6ef	0.17068075
52	0x3e927c9f	0.28610703
53	0xbe74ee80	-0.23919106
54	0x3ea617e7	0.3244011
55	0x3da9fc8f	0.08300125
56	0xbe825ef2	-0.25463063
57	0xbe845d25	-0.25852314
58	0xbe7091dc	-0.23493141
59	0xbd0ca5d7	-0.034337845
60	0xbdba2521	-0.09089113
61	0x3e7c25d0	0.246238
62	0x3d3d6c5a	0.04624591
63	0x3db87888	0.090073645
64	0x3dda7fce	0.10668908
65	0x3e0edbb7	0.13951002
66	0x3e2a6682	0.16640666
67	0x3cf407ee	0.029788937
68	0xbd82c20b	-0.06384667
69	0x3e89e964	0.26935875
70	0xbdb2d0f1	-0.08731259
71	0xbe0454bb	-0.12922947
72	0x3ddd4fad	0.108062126
73	0x3e2ab8c5	0.16672046
74	0x3d1310a3	0.035904538
75	0x3e91f9df	0.2851095
76	0x3d42b4e3	0.04753579
77	0xbe4c393c	-0.19943708
78	0x3eabbd27	0.3354275
79	0x3e9717a0	0.29510212
80	0x3e3da865	0.18521269
81	0xbe6cd872	-0.23129442
82	0x3e991088	0.29895425
83	0x3dc3da2d	0.09563098
84	0x3eb2105a	0.347781
85	0x3eaa7200	0.332901
86	0x3d72a078	0.059235066
87	0xbe9323cf	-0.28738257
88	0xbe32425e	-0.1740813
89	0xbddf1dbc	-0.10894343
90	0xbccfd693	-0.025370872
91	0xbc844fab	-0.01615127
92	0x3d8bb71f	0.06822037
93	0xbe16907e	-0.14703557
94	0xbe82127c	-0.25404727
95	0xbeb43cd8	-0.3520267
96	0xbea8f2c5	-0.32997718
97	0x3ea6dfb8	0.3259256
98	0x3e034948	0.12820923
99	0x3cd4f8f9	0.025997626
100	0xbd4875b2	-0.048940368
101	0x3e927be4	0.28610146
102	0x3e35e923	0.17764716
103	0xbda186bf	-0.07887029
104	0x3ced3dee	0.028960194
105	0x3e75358d	0.23946209
106	0x3de6a30d	0.11261568
107	0x3b243305	0.0025054824
108	0x3e622087	0.2208272
109	0x3e9ea3a8	0.30984235
110	0xbe7b1789	-0.24520697
111	0x3ddd2994	0.10798946
112	0xbda57df5	-0.08080665
113	0x3e5131f5	0.20429213
114	0xbd2362b4	-0.039889053
115	0xbd52295f	-0.051308986
116	0x3e25a972	0.1617792
117	0xbe172646	-0.14760694
118	0x3ab3f441	0.001372941
119	0x3c1998d4	0.009374816
120	0xbe027e59	-0.1274351
121	0x3eb69e9f	0.35667893
122	0xbe0e5f1c	-0.13903469
123	0xbe16727d	-0.14692111
124	0xbdeda6e0	-0.116040945
125	0x3e8f96fd	0.28044882
126	0xbdcc800c	-0.099853605
127	0x3e72945f	0.23689412
128	0xbd7fc97e	-0.062448017
129	0xbe37d5c6	-0.17952642
130	0x3da0d8e2	0.07853867
131	0x3ecb0bd2	0.39657456
132	0xbe883329	-0.26601532
133	0xbe96cc59	-0.2945278
134	0x3eb1f349	0.34755924
135	0x3e5976ac	0.21236676
136	0xbe3f5b06	-0.18687066
137	0x3ede18c4	0.4337827
138	0xbe86b36c	-0.26308763
139	0xbea08968	-0.31354833
140	0x3eaaafc0	0.33337212
141	0x3e866fd5	0.26257196
142	0xbda9f73a	-0.08299108
143	0xbe5b64e5	-0.21425207
144	0x3eb1d2ec	0.34731233
145	0xbea8da84	-0.32979214
146	0x3e5f17ea	0.21786466
147	0x3dde050d	0.10840807
148	0x3de311e6	0.11087398
149	0x3e97d19c	0.29652107
150	0x3e332c11	0.17497279
151	0xbe90f1ef	-0.2830958
152	0xbe38b68a	-0.18038383
153	0xbe8f1698	-0.27946925
154	0xbe835193	-0.25648174
155	0x3e6ee8a1	0.23330928
156	0xbda13cb0	-0.07872903
157	0x3db33437	0.087501936
158	0xbe85d4ae	-0.26138824
159	0x3e8c831f	0.27443787
160	0x3ec2451d	0.37943354
161	0xbe3c97ba	-0.18417254
162	0xbe70850c	-0.23488253
163	0xbe490f43	-0.19634728
164	0xbe52a83e	-0.20571992
165	0x3de1387d	0.109971024
166	0x3e4f1f0b	0.20226686
167	0x3e518078	0.20459163
168	0x3e90aa4a	0.2825492
169	0x3bcb2d37	0.0062004584
170	0xbc0d1e38	-0.008613162
171	0xbe35b2cf	-0.17743991
172	0x3e37862b	0.17922275
173	0x3de73a2d	0.11290393
174	0x3d64bc0e	0.055843405
175	0xbecd687c	-0.40118778
176	0xbebe9e80	-0.372303
177	0x3df0d69b	0.11759683
178	0x3d7d1ee2	0.06179703
179	0xbe8ca1c9	-0.27467182
180	0xbe95ed2e	-0.29282516
181	0xbd06f06b	-0.032944124
182	0xbe3746e1	-0.17898132
183	0xbe97d04b	-0.29651102
184	0x3e338cb0	0.17534137
185	0xbdc4776f	-0.09593093
186	0x3e470748	0.19436371
187	0xbd0bd929	-0.034142647
188	0x3cdf4645	0.027255187
189	0xbea4ad2a	-0.32163364
190	0xbe9d8c5d	-0.3077115
191	0xbcb56f47	-0.022147788
192	0x3e95e250	0.29274225
193	0x3eba66d9	0.36406592
194	0xbdc6ff31	-0.09716643
195	0x3dd22329	0.102606125
196	0xbd8400a6	-0.06445436
197	0x3e9ac3db	0.3022755
198	0x3d193255	0.037401516
199	0x3e3dc9da	0.18534032
200	0x3ead198d	0.33808556
201	0x3e42720c	0.18988818
202	0x3e078457	0.13234077
203	0xbdc642fc	-0.09680745
204	0xbdfd210a	-0.12359817
205	0x3e869cc6	0.26291484
206	0xbeab321a	-0.33436662
207	0xbe99edaf	-0.3006415
208	0x3e80b939	0.25141314
209	0x3eb56eeb	0.35436186
210	0xbe35dbd0	-0.17759633
211	0xbe92c7a2	-0.28667933
212	0x3ec464b4	0.3835808
213	0xbe7319fb	-0.2374038
214	0x3d3472c9	0.04405478
215	0xbdb896e1	-0.09013153
216	0xbe9719d4	-0.29511893
217	0xbc8a2096	-0.016861241
218	0x3eb07ef2	0.34471852
219	0xbe8ceb2d	-0.27523175
220	0xbe9c5306	-0.30532092
221	0xbe7ebfe6	-0.24877891
222	0xbc320812	-0.010866182
223	0x3e5774c1	0.21040632
224	0xbd84e07c	-0.064881295
225	0xbe9f8de4	-0.3116294
226	0x3e3e7f1e	0.18603179
227	0xbd25e966	-0.04050579
228	0xbd9e4c17	-0.07729357
229	0xbea9a39d	-0.3313264
230	0xbdf52c1b	-0.11971303
231	0x3e92febd	0.28709975
232	0x3e7a0cae	0.244189
233	0xbd649a2a	-0.055811085
234	0x3d899944	0.06718686
235	0x3e38a36d	0.18031092
236	0x3d98039d	0.07422564
237	0x3dfd7274	0.12375346
238	0x3d786dd0	0.0606516
239	0xbdc91775	-0.09818927
240	0xbe906165	-0.28199306
241	0x3e54ec53	0.20793276
242	0xbd82071d	-0.06349013
243	0xbe4faed1	-0.20281531
244	0x3e459e1e	0.19298598
245	0x3ec12507	0.37723562
246	0x3d24151f	0.040059205
247	0x3e02e30a	0.12781921
248	0x3e175fae	0.14782593
249	0x3e8a7f0b	0.2705005
250	0x3eabc70b	0.33550295
251	0x3e7936ae	0.24337265
252	0xbd2c50fa	-0.042069413
253	0x3ecc396b	0.39887556
254	0x3eb67218	0.35633922
255	0xbd6c75ae	-0.057729416

gcn_diff.conv1.bias f4 [24]
0	0xbaf86488	-0.0018950859
1	0x3d0382d1	0.032107178
2	0x3d610d99	0.05494461
3	0x3cd6c181	0.026215317
4	0x3cb74bba	0.022374976
5	0xbd92b68e	-0.07163726
6	0xbd9a828d	-0.07544432
7	0xbd9352cc	-0.071935266
8	0x3d9dfb10	0.07713902
9	0x3c4e1bf6	0.012579909
10	0x3d9cfd58	0.07665509
11	0x3c23f0a5	0.010006105
12	0x3d927f05	0.07153133
13	0xbd908069	-0.07055742
14	0x3cecedd3	0.028921997
15	0xbd83bc8b	-0.06432446
16	0xbd6af5f0	-0.05736345
17	0x3d9db52d	0.07700572
18	0xbd956b2c	-0.07295832
19	0xbd9d7b48	-0.0768953
20	0xbd903a42	-0.07042362
21	0x3d5313fd	0.051532734
22	0x3d995999	0.074877925
23	0x3d8fc0ab	0.070191704

gcn_diff.conv1.lin.weight f4 [24, 1433]
0	0xbd82f59a	-0.06394501
1	0x3d66a1b6	0.056306563
2	0xbd553bbe	-0.052058928
3	0xbcb023fa	-0.02150153
4	0x3c55f810	0.013059631
5	0xbc96f87f	-0.018429039
6	0xbd8959ed	-0.06706605
7	0x3d9c2aa8	0.076253235
8	0xbd319695	-0.043356497
9	0xbdbaff73	-0.09130754
10	0xbd4b5c5f	-0.04964864
11	0x3beeb420	0.007284656
12	0xbccc71b1	-0.024956556
13	0x3a643dac	0.00087066996
14	0xbcea6609	-0.028613107
15	0xbbeda8fb	-0.00725281
16	0x3dec7179	0.11545081
17	0xbd95938a	-0.073035315
18	0xbcc7a879	-0.024372326
19	0x3d2667c9	0.04062632
20	0xbcacd5ca	-0.021098036
21	0xbcf72a33	-0.03017149
22	0xbd1a9e16	-0.03774842
23	0xbccb1c64	-0.024793811
24	0x3df6a8a9	0.12043888
25	0x3d1aaa21	0.037759904
26	0xbc48761a	-0.012235189
27	0xbd95391d	-0.07286284
28	0x3c490713	0.012269753
29	0x3df34cbf	0.118798725
30	0xbd88f9bc	-0.06688258
31	0xbd6c49d5	-0.0576876
32	0x3c41587e	0.011800883
33	0xbc6703fa	-0.014100069
34	0xbb112f74	-0.0022153528
35	0xbccd0150	-0.02502504
36	0x3a1714a6	0.000576327
37	0xbd598efe	-0.053114884
38	0xbd00c0d6	-0.031433903
39	0x3d3edae1	0.046595458
40	0x3d4361bd	0.047700632
41	0xbc9c9cb3	-0.019117689
42	0x3c7cf4db	0.0154392375
43	0xbdaddbc3	-0.08489182
44	0x3ae1838c	0.0017205342
45	0xbd19bd5a	-0.037534095
46	0xbd69b9ae	-0.057061844
47	0x3cb59371	0.022165032
48	0x3cfc9188	0.030831113
49	0xbd76b520	-0.060231328
50	0xbdc479ec	-0.09593567
51	0xbe0a272f	-0.1349151
52	0x3d1f2d47	0.03886154
53	0xbd8b78b4	-0.06810132
54	0xbd9d5d49	-0.07683808
55	0xbbca0810	-0.006165512
56	0x3d51d6dd	0.0512303
57	0xbcab5882	-0.020916227
58	0xbc244fe9	-0.010028818
59	0x3d150ea7	0.036390927
60	0xbd936ef6	-0.071988985
61	0xbb0552ec	-0.0020343615
62	0x3d0dda4f	0.034632023
63	0xbe0f5b6f	-0.13999723
64	0xbc192aa4	-0.009348545
65	0x3d971893	0.07377734
66	0xbcf39de7	-0.02973838
67	0x3e1134ed	0.14180346
68	0x3c66117b	0.014042254
69	0x3c6a8a38	0.0143151805
70	0x3e00427f	0.12525366
71	0x3ca1821a	0.019715358
72	0x3d99c437	0.07508128
73	0xbbbcd3f8	-0.0057625733
74	0xbd36a411	-0.04459006
75	0xbcc44c1e	-0.023962077
76	0xbd8f6e4f	-0.070034616
77	0x3d80c64f	0.06287824
78	0x3d7270e5	0.059189696
79	0xbdb48e13	-0.08816161
80	0x3e32dbbf	0.17466639
81	0x3d2babd9	0.041911934
82	0x3e19cf59	0.15020503
83	0xbd92a75d	-0.07160828
84	0xbdf46e70	-0.11935127
85	0x3e169c5f	0.14708088
86	0xbd71233e	-0.0588715
87	0xbbceff96	-0.0063170893
88	0xbba51cab	-0.005038818
89	0xb66b4020	-3.5055054e-06
90	0xbd79ad14	-0.060956076
91	0x3c7258c2	0.014791669
92	0xbc9fae8a	-0.019492406
93	0x3d985cde	0.07439588
94	0xbd0f5d31	-0.035000984
95	0x3da77091	0.08175767
96	0x3cf032f4	0.029321171
97	0xbd82ae61	-0.063809164
98	0xbd351b24	-0.044215336
99	0xbdcdbe14	-0.1004602
100	0xbd6c6224	-0.05771078
101	0xbd0ff3c4	-0.035144582
102	0x3cee3fa4	0.02908308
103	0x3da8d1a2	0.08243109
104	0x3bed50d6	0.0072423024
105	0xbdbbc95a	-0.09169264
106	0x3d2fe6be	0.042944662
107	0xbcb49a51	-0.02204624
108	0xbd94ae25	-0.07259778
109	0x3dd0ed51	0.102015145
110	0x3d4fc32a	0.050723232
111	0xbd4548f4	-0.048165277
112	0x3d58a078	0.05288741
113	0x3c6f0607	0.014588839
114	0xbd2b4959	-0.041817997
115	0x3d815f3f	0.06316995
116	0xbd1dbf3e	-0.03851246
117	0xbd8585df	-0.065196745
118	0xbe28cc18	-0.16484106
119	0x3df3aa7f	0.11897754
120	0xbcb311cd	-0.021859074
121	0xbca2a4ba	-0.019853938
122	0xbd1fbdd2	-0.038999386
123	0xbdf078f7	-0.11741822
124	0xbcfcfc83	-0.030882126
125	0xbdc7335e	-0.097265944
126	0x3d80bd1d	0.062860705
127	0xbd057a0d	-0.0325871
128	0x3d57528c	0.052568957
129	0xbd1fb9cc	-0.03899555
130	0x3cc8f4ec	0.02453085
131	0x3dd0363e	0.10166596
132	0x3d2d18dc	0.042260036
133	0x3d18b920	0.037285924
134	0xbe022695	-0.1271003
135	0xbd7bd2f6	-0.061480485
136	0x3db05ef4	0.08611861
137	0xbca9c0b0	-0.020721763
138	0xbd466deb	-0.04844467
139	0x3ceba19f	0.02876359
140	0xbe11a836	-0.14224324
141	0xb8363b30	-4.3447304e-05
142	0xbcf07e46	-0.029357087
143	0x3cd199b5	0.025585989
144	0xbd9bec3e	-0.07613419
145	0xbe16652a	-0.14687029
146	0x3ddde579	0.10834784
147	0xbd00aec6	-0.031416677
148	0xbd5f3b77	-0.05450007
149	0xbdd2a596	-0.10285489
150	0xbcb9d7b2	-0.02268586
151	0x3ce2dc8a	0.027693052
152	0x3dd795bd	0.10526607
153	0x3d488d90	0.04896313
154	0xbd16f5a2	-0.036855347
155	0x3d8b64d5	0.068063416
156	0x3de94a35	0.11391107
157	0x3c8aaac2	0.016927127
158	0x3c9d44b6	0.019197803
159	0x3d6372f6	0.055529557
160	0xbcaa4be2	-0.020788137
161	0x3c2118af	0.009832545
162	0x3bc4e66e	0.0060089147
163	0xbdf09c2f	-0.1174854
164	0xbd0b3c40	-0.033993006
165	0xbc89483b	-0.016758075
166	0xbcd612e4	-0.026132055
167	0xbe0a1174	-0.1348322
168	0x3d8be228	0.06830245
169	0x3ddf37fd	0.10899351
170	0xbd600a92	-0.05469758
171	0x3d22a49c	0.039707765
172	0xbcfa80b2	-0.030578945
173	0xbc2947dd	-0.010332075
174	0xbd2bfcd3	-0.04198916
175	0x3d009855	0.031395275
176	0xbc04577e	-0.0080775
177	0x3da04006	0.078247115
178	0xbce6defc	-0.0281825
179	0x3cdaab8f	0.026693134
180	0x3d4f2c92	0.050579615
181	0x3b046b46	0.0020205542
182	0x3c22f588	0.0099462345
183	0xbd80d6ef	-0.06290995
184	0xbb612de2	-0.0034359624
185	0xbaf1066a	-0.0018388752
186	0x3d9a69ea	0.07539733
187	0x3c3a4020	0.011367828
188	0x3d4dc373	0.050235223
189	0x3c58fe38	0.013244204
190	0xbdd7f754	-0.10545221
191	0x3db43740	0.087996006
192	0xbde0149a	-0.109414294
193	0xbc0d7e1d	-0.008636025
194	0xbdd7e9ef	-0.10542666
195	0x3d0a55a0	0.033773065
196	0xbcd8fed0	-0.026488692
197	0x3b2eae61	0.002665423
198	0x3dd43b85	0.10362915
199	0xbd7cc40e	-0.06171041
200	0xbc8c9e3d	-0.017165298
201	0x3d922c6b	0.07137378
202	0xbd51cc91	-0.05122048
203	0xbd356b9c	-0.044292077
204	0xbd8487d9	-0.064712234
205	0xbc199618	-0.009374164
206	0xbc48bccf	-0.012252047
207	0xbd206469	-0.03915826
208	0xbde07746	-0.109602496
209	0xbd5a9ec9	-0.053374086
210	0x3c1d299a	0.009592438
211	0x3d9a7402	0.07541658
212	0x3d03e7c4	0.03220345
213	0xbdaafd9d	-0.08349154
214	0x3ccefe6c	0.025267802
215	0xbcd4d096	-0.025978368
216	0xbcc92935	-0.024555782
217	0x3c9d486c	0.019199573
218	0x3dcb79a2	0.09935309
219	0xbd797a8c	-0.060907885
220	0x3d034b6e	0.032054357
221	0xbd6f024d	-0.058351804
222	0xb945f008	-0.00018876803
223	0x3c840a96	0.016118329
224	0xbd811aa2	-0.06303908
225	0xbdb63deb	-0.08898529
226	0x3d36c118	0.044617742
227	0xbcb83add	-0.022489006
228	0x3cd73e96	0.02627496
229	0xbda5e79a	-0.08100815
230	0x3dbb41eb	0.09143432
231	0x3d0843b0	0.033267677
232	0xbca47890	-0.02007702
233	0xbd1a8afb	-0.0377302
234	0x3d0cdd20	0.03439057
235	0xbc8cfbad	-0.017209852
236	0x3dd59f09	0.10430724
237	0x3e078729	0.13235153
238	0x3d8812ef	0.06644236
239	0xbbb2a354	-0.005451599
240	0x39cdabf8	0.00039228774
241	0xbde9cbc8	-0.11415821
242	0xbdcc937f	-0.0998907
243	0xbd379164	-0.04481639
244	0xbd85f341	-0.065405376
245	0xbd10e0f4	-0.035370782
246	0xbda5c40c	-0.080940336
247	0x3d39743b	0.04527686
248	0xbbc5352a	-0.0060183005
249	0xbd5c7964	-0.053826705
250	0x3d5b0efb	0.053481083
251	0xbdaf9038	-0.085724294
252	0x3d00b813	0.031425547
253	0xbd5aa937	-0.053384032
254	0x3d824055	0.063599266
255	0xbc240410	-0.010010734

gcn_diff.conv2.bias f4 [24]
0	0xbd92dc08	-0.07170874
1	0xbda4ac12	-0.08040632
2	0x3d8aa90a	0.06770523
3	0xbd97c6a9	-0.07410938
4	0x3d836417	0.06415575
5	0x3d5816e7	0.052756216
6	0xbd37e28e	-0.044893794
7	0x3da2480b	0.07923897
8	0xbda7b3ea	-0.08188613
9	0x3d9a9f99	0.07549972
10	0xbd945d47	-0.07244354
11	0xbd5985e4	-0.053106204
12	0x3d8109d5	0.063007034
13	0x3d60c8e9	0.054879103
14	0x3d88ab05	0.066732444
15	0x3c7860b0	0.015159771
16	0xbd93b351	-0.07211936
17	0xbd8284d5	-0.06372992
18	0xbd8bae64	-0.06820372
19	0xbd6bebae	-0.05759781
20	0x3d0bb651	0.034109417
21	0x3cfd838b	0.030946514
22	0xbd69dcc6	-0.05709531
23	0x3d708a11	0.05872542

gcn_diff.conv2.lin.weight f4 [24, 24]
0	0x3e9b88a9	0.303777
1	0xbe378e90	-0.17925477
2	0x3e264dfa	0.16240683
3	0xbe0526d4	-0.13003093
4	0x3e6b3785	0.22970398
5	0x3d64e7a7	0.055884983
6	0xbcf41d4e	-0.02979913
7	0x3e246626	0.16054592
8	0xbdde36ba	-0.10850282
9	0x3efa68ab	0.4890798
10	0x3e9da9b5	0.3079354
11	0xbe4a5ced	-0.19762011
12	0x3e95ac32	0.29232937
13	0xbd52da14	-0.051477507
14	0xbe2240ca	-0.15845028
15	0x3e5789ed	0.21048708
16	0xbe428f55	-0.1899999
17	0xbec2b8eb	-0.38031706
18	0x3ea761c3	0.32691774
19	0xbdfdf8ba	-0.124009565
20	0x3e5366c4	0.2064467
21	0xbe994231	-0.29933313
22	0xbde785bf	-0.11304807
23	0xbeb76688	-0.35820413
24	0xbe376352	-0.17908981
25	0x3e55288e	0.20816252
26	0x3dd6dbe4	0.104911596
27	0x3c011524	0.0078785755
28	0x3e814567	0.25248262
29	0xbccec48d	-0.025240207
30	0xbe860b82	-0.26180655
31	0x3e8e1c91	0.2775617
32	0x3e4b4a19	0.19852485
33	0x3dac5060	0.08413768
34	0x3d17a08c	0.037018344
35	0x3e5859f9	0.21128072
36	0x3e9befbc	0.3045634
37	0xbdb6fe55	-0.08935229
38	0xbe0f46a8	-0.13991797
39	0xbd51b4a2	-0.051197655
40	0xbe6430e5	-0.22284277
41	0xbc743e90	-0.014907494
42	0xbc29174e	-0.010320498
43	0xbd9393ae	-0.07205902
44	0x3eb3cd9d	0.35117808
45	0xbe3509d1	-0.17679526
46	0xbe9c0d53	-0.30478916
47	0x3da6aa64	0.08137968
48	0xbda56b30	-0.08077085
49	0x3e9dc88e	0.30817074
50	0x3eb08d2d	0.3448271
51	0x3e442678	0.191553
52	0x3ca7efc3	0.02050007
53	0x3cab7e41	0.020934226
54	0xbe67a20a	-0.22620407
55	0xbebc281f	-0.3674936
56	0x3ed74c70	0.42050505
57	0x3ec9ff4a	0.39452583
58	0x3cf5cb3b	0.030004134
59	0xbe529448	-0.20564377
60	0x3eabb97b	0.33539948
61	0xbe6cc0d2	-0.2312043
62	0xbd3f7f19	-0.04675207
63	0x3bc8860e	0.006119496
64	0xbe89e27a	-0.269306
65	0xbd6bab4d	-0.057536412
66	0xbdb57246	-0.088596866
67	0x3e416cc3	0.18889146
68	0xbec88a0d	-0.39167824
69	0x3e70f602	0.23531345
70	0x3e989e09	0.2980807
71	0x3e67ae88	0.22625172
72	0x3ee461c4	0.4460584
73	0xbe40ba51	-0.18821074
74	0x3d63ea8a	0.055643596
75	0xbddddefd	-0.10833547
76	0x3ed4811d	0.41504756
77	0x3e9014d4	0.2814089
78	0xbe314791	-0.17312457
79	0xbd629260	-0.055315375
80	0x3d458410	0.048221648
81	0x3e2ac88b	0.16678064
82	0xbe789407	-0.24275218
83	0x3e60bbac	0.21946591
84	0x3d91391a	0.070909694
85	0x3e6f2988	0.23355687
86	0xbe258bb7	-0.16166578
87	0x3eb9b0b7	0.36267635
88	0x3eb43590	0.35197115
89	0xbe914ab4	-0.28377306
90	0x3da9406c	0.082642406
91	0x3e4bb76a	0.19894186
92	0x3d2cbf9c	0.04217492
93	0xbe67f4b9	-0.22651948
94	0xbca5279a	-0.020160485
95	0xbea025bf	-0.31278798
96	0x3dfa5778	0.122237146
97	0x3ecee952	0.40412384
98	0x3e5c37e5	0.21505697
99	0x3e0f344a	0.1398479
100	0x3bb3d48c	0.005487984
101	0x3e83a6b1	0.25713113
102	0xbea89937	-0.32929394
103	0xbeb5e831	-0.3552871
104	0xbd92faa5	-0.07176713
105	0x3cd91132	0.026497457
106	0xbcf4c8e6	-0.029880952
107	0xbe4b0dd4	-0.19829494
108	0x3ea9a1e3	0.33131322
109	0x3e219593	0.15779714
110	0xbe1f5d93	-0.1556304
111	0xbe3521f3	-0.17688732
112	0xbe6222ee	-0.22083637
113	0x3ed425b6	0.4143502
114	0xbd283930	-0.041070163
115	0x3e87d2be	0.2652797
116	0xbd296c84	-0.041363254
117	0x3d9c47c1	0.076308735
118	0x3e742629	0.23842682
119	0xbdd845a7	-0.1056016
120	0x3d548733	0.05188675
121	0x3e63aff5	0.22235091
122	0x3e54bf8e	0.20776197
123	0x3e2c0e89	0.1680242
124	0x3e451608	0.19246686
125	0xbd870bc9	-0.06594045
126	0x3e108bc8	0.14115822
127	0x3e81f6c6	0.25383586
128	0x3df6f11e	0.12057708
129	0xbd845df3	-0.06463232
130	0x3e917986	0.28413028
131	0x3eada45e	0.33914465
132	0xbdc7a913	-0.09749045
133	0xbe55085b	-0.20803969
134	0xbec80d1a	-0.39072496
135	0x3d7ba88e	0.061440043
136	0xbca632e4	-0.020287938
137	0xbe910666	-0.28325194
138	0xbe98c827	-0.29840204
139	0xbe83376c	-0.2562822
140	0xbe50d814	-0.20394927
141	0xbcbaac52	-0.022787247
142	0x3e40e44e	0.18837091
143	0x3ea0c7f7	0.3140256
144	0x3ea0351d	0.31290522
145	0xbe8fc5f6	-0.2808072
146	0xbecc50fa	-0.3990553
147	0x3e72d17b	0.23712723
148	0xbd765a58	-0.060144752
149	0xbddd1371	-0.10794724
150	0x3cb0169c	0.021495156
151	0x3e79ae02	0.24382785
152	0xbe95e2ef	-0.292747
153	0x3e9ae2da	0.302512
154	0xbe8abd16	-0.27097386
155	0xbda7eb39	-0.08199162
156	0x3e0f9d74	0.14024907
157	0xbe19a56e	-0.15004513
158	0xbebd4350	-0.36965418
159	0xbe9056fd	-0.28191367
160	0xbe427173	-0.1898859
161	0xbea01d58	-0.31272388
162	0xbe6d515a	-0.23175564
163	0xbe2c29ad	-0.16812773
164	0x3ded83b4	0.11597386
165	0xbd272dc5	-0.040815134
166	0x3dc91894	0.09819141
167	0xbeaf3532	-0.34220272
168	0x3dac00d5	0.08398596
169	0x3e6efb93	0.23338155
170	0xbe26f2b4	-0.16303521
171	0x3e843873	0.25824317
172	0x3e80cf75	0.25158277
173	0xbdc65997	-0.09685057
174	0x3e8c0ea9	0.27354935
175	0xbe082127	-0.13293897
176	0x3e9a8df0	0.30186415
177	0x3e381597	0.17976986
178	0x3d67aadc	0.05655943
179	0x3e9635a7	0.29337808
180	0x3e774ea8	0.24151099
181	0x3cdd5028	0.02701576
182	0x3ca252d0	0.019814879
183	0x3e1a24b7	0.15053068
184	0xbe7100fe	-0.23535535
185	0x3de6360e	0.11240779
186	0xbe0a0459	-0.13478221
187	0xbe91afc4	-0.2845441
188	0xbec96c8c	-0.39340627
189	0xbde2aaad	-0.1106771
190	0x3e51002f	0.20410226
191	0x3e45f6b3	0.1933239
192	0x3ceae7c8	0.028674975
193	0xbdd554ea	-0.10416587
194	0xbed529d6	-0.4163348
195	0xbed73931	-0.4203582
196	0xbe8a11d2	-0.2696672
197	0x3e0ea37a	0.13929549
198	0x3d5092b1	0.050921146
199	0xbdb974ec	-0.09055504
200	0xbdd1a299	-0.10236091
201	0x3dee4f71	0.11636246
202	0xbe5e2066	-0.21692047
203	0x3e049b61	0.12949897
204	0xbd812ea6	-0.063077256
205	0xbe388284	-0.18018538
206	0x3e3d7d1b	0.18504755
207	0x3e972a81	0.29524615
208	0xbc2fbe86	-0.010726577
209	0xbe56132d	-0.20905752
210	0x3e10a0e2	0.14123872
211	0xbca73596	-0.020411294
212	0xbe2784c3	-0.16359238
213	0x3e900baa	0.281339
214	0x3d13c304	0.036074653
215	0x3d4fcf5f	0.050734874
216	0xbed3f2fe	-0.41396326
217	0x3e516fa5	0.20452745
218	0x3e7154b3	0.23567466
219	0x3c22d1d1	0.009937719
220	0x3e968e46	0.2940542
221	0x3d91ee61	0.07125545
222	0x3d9e7a45	0.07738165
223	0x3e14d6b7	0.14535032
224	0x3e9eb7f6	0.30999726
225	0x3c9230fa	0.01784562
226	0xbd7bfb0d	-0.061518718
227	0xbe549bbb	-0.20762531
228	0x3e9c9eaa	0.305898
229	0x3c8a62de	0.016892847
230	0x3e057a7e	0.13035008
231	0xbd9c6294	-0.0763599
232	0x3d34fac2	0.044184454
233	0x3eae9b59	0.34102896
234	0xbe8fa221	-0.28053382
235	0xbd82154d	-0.06351719
236	0xbe75f93e	-0.2402086
237	0x3e811431	0.25210717
238	0x3c7c4f16	0.015399715
239	0x3ed5d32b	0.4176267
240	0x3edc91db	0.4308003
241	0x3e9ed418	0.3102119
242	0x3d0669c0	0.032815695
243	0x3e94baea	0.29048854
244	0x3d44d9a4	0.04805912
245	0xbd8449c7	-0.064593844
246	0x3dfef384	0.12448791
247	0x3e305591	0.17220141
248	0xbe0e203d	-0.13879485
249	0x3d0df45f	0.03465688
250	0xbbda73c2	-0.0066666314
251	0xbec1c05f	-0.3784208
252	0xbe99623c	-0.2995776
253	0xbe1c1932	-0.15243986
254	0xbe954c02	-0.29159552
255	0x3eb34853	0.35016116

readout.linear.weight f4 [24, 48]
0	0xbd605fc3	-0.054778825
1	0xbdbb83b4	-0.0915598
2	0xbe02c232	-0.12769392
3	0xbc42b202	-0.011883261
4	0xbe3e1a79	-0.18564786
5	0x3cde04ec	0.027101956
6	0xbd227151	-0.03965885
7	0x3dae7046	0.08517508
8	0xbe10d82e	-0.14144966
9	0xbcdb60db	-0.026779583
10	0xbb7784ec	-0.0037768437
11	0xbd7c7a94	-0.061640337
12	0xbda7226d	-0.08160863
13	0x3e2984f4	0.16554624
14	0xbdcbf511	-0.09958852
15	0xbc98f67c	-0.01867222
16	0x3db7ac64	0.08968428
17	0xbdee535e	-0.11636995
18	0x3e3403e7	0.17579614
19	0xbc5ad5f2	-0.013356673
20	0x3e3314c0	0.17488384
21	0x3d5c93fa	0.05385206
22	0xbde27c5d	-0.11058877
23	0xbd8ffc82	-0.07030584
24	0xbc9c086f	-0.01904699
25	0xbd3b783b	-0.045768958
26	0xbdcb7fdc	-0.099364966
27	0x3db7ddf0	0.08977878
28	0xbe295e3f	-0.16539858
29	0xbd9f9aaf	-0.077931754
30	0x3e056ebf	0.13030528
31	0xbde1ace0	-0.110193014
32	0x3e167408	0.146927
33	0x3d8613d7	0.06546753
34	0xbc634b29	-0.0138729
35	0xbd965309	-0.073400564
36	0x3cf46b05	0.029836187
37	0x3d56c5ae	0.052434616
38	0xbc9bfec4	-0.01904238
39	0xbe242235	-0.16028674
40	0x3cc91f08	0.02455093
41	0x3d440a79	0.04786155
42	0xbd09b043	-0.033615362
43	0x3d84d84e	0.06486569
44	0x3d3c1f77	0.045928445
45	0xbe47d88a	-0.19516197
46	0x3c7e0781	0.015504719
47	0xbdc69787	-0.0969687
48	0x3d6bed70	0.057599485
49	0x3cefdc75	0.029279927
50	0x3da5002c	0.080566734
51	0x3e0b0953	0.13577776
52	0x3de3e321	0.11127306
53	0x3d740178	0.059571713
54	0xbb03e413	-0.0020124956
55	0xbd9f8c71	-0.07790459
56	0xbb5555e7	-0.0032552422
57	0xbdf77ccc	-0.1208435
58	0x3de2336a	0.11044963
59	0x3dc97a18	0.09837741
60	0x3e2c64c3	0.16835313
61	0xbe363fdb	-0.17797796
62	0x3d3505c4	0.04419495
63	0xbe131532	-0.14363554
64	0x3b7174f6	0.0036843396
65	0x3e47195f	0.19443272
66	0xbe040f15	-0.12896378
67	0xba8fb3ce	-0.001096362
68	0xbddd7e6f	-0.10815131
69	0x3da967f7	0.08271783
70	0xbcab4866	-0.020908546
71	0xbda70e51	-0.081570275
72	0xbdd3a849	-0.10334832
73	0x3e3de04e	0.18542597
74	0x3df21e27	0.11822157
75	0x3d8ba719	0.06818981
76	0xbd9f5dfd	-0.07781599
77	0xbd9b60cb	-0.07586821
78	0x3ce941c4	0.028473742
79	0xbd05b903	-0.032647144
80	0xbc956eb0	-0.018241256
81	0xbd50b586	-0.050954364
82	0x3d999692	0.07499422
83	0xbd0b13a5	-0.03395428
84	0x3c154c1f	0.009112387
85	0xbda08984	-0.07838729
86	0x3e1f0589	0.15529455
87	0xbd55444d	-0.05206709
88	0xbe310204	-0.17285925
89	0x3d57dd76	0.052701436
90	0xbdb7c0e7	-0.0897234
91	0xbc93446c	-0.017976962
92	0x3e02688f	0.12735198
93	0x3e32bab1	0.1745403
94	0xbe00a926	-0.12564525
95	0x3b011b1a	0.0019699992
96	0xbdcf6578	-0.101267755
97	0x3bef34e5	0.0073000067
98	0x3e2c8e65	0.16851194
99	0x3d41ebaa	0.047343887
100	0x3dceffb4	0.10107365
101	0xbdeaafcd	-0.114593126
102	0xbc71fdf6	-0.014770022
103	0xbd08879f	-0.033332463
104	0x3dd387e3	0.10328653
105	0xbe230348	-0.1591922
106	0x3d86020f	0.065433614
107	0x3d7a1e25	0.061063904
108	0x3e2da7af	0.16958497
109	0xbe046b83	-0.12931637
110	0x3db98680	0.09058857
111	0xbd087615	-0.033315737
112	0xbe272bb9	-0.16325273
113	0x3d8a063c	0.0673947
114	0xbe37b08e	-0.17938444
115	0xbe26ecf1	-0.16301323
116	0x3cf53fa3	0.02993757
117	0xbda770b5	-0.08175794
118	0xbd33f932	-0.043938823
119	0xbd496eed	-0.049178053
120	0xbd185f1c	-0.03720008
121	0x3e575feb	0.21032684
122	0xbac8be0e	-0.001531543
123	0x3d4b9431	0.049701873
124	0x3e01f82e	0.1269233
125	0x3e67ac2b	0.2262427
126	0xbd68f8e1	-0.056877974
127	0x3da6aedb	0.0813882
128	0xbe27c3b3	-0.16383247
129	0x3e62cc88	0.22148335
130	0xbe1e99f0	-0.1548841
131	0xbd92cb99	-0.071677394
132	0x3daa116f	0.083041064
133	0xbd440fe2	-0.04786671
134	0x3e2204f3	0.158222
135	0xbcda9311	-0.026681455
136	0xbe082672	-0.13295916
137	0xbcc0dac1	-0.02354181
138	0xbde7e59f	-0.113230936
139	0xbd25ede8	-0.04051009
140	0x3e0d720c	0.13813037
141	0x3e0e43c0	0.13893032
142	0x3d850597	0.06495207
143	0x3e1266b4	0.1429699
144	0x3e152c45	0.14567669
145	0x3ba85eb0	0.0051382408
146	0xbe3bd04e	-0.1834118
147	0xbd867bd7	-0.06566589
148	0x3c82aef6	0.015952569
149	0x3e139689	0.14412893
150	0x3d9b5c99	0.07586021
151	0xbc4fd513	-0.012685078
152	0xbc1c1344	-0.009526078
153	0x3d4fb125	0.050706048
154	0xbd898f75	-0.067168154
155	0x3d931c26	0.07183103
156	0xbe0538ad	-0.13009901
157	0x3c9ac525	0.018892834
158	0xbd31f824	-0.043449536
159	0x3d082211	0.033235613
160	0x3e0ece3e	0.13945863
161	0xbccf4f7e	-0.02530646
162	0x3e450850	0.19241452
163	0x3e3c4172	0.1838434
164	0x3de9e2b6	0.11420195
165	0xbe2ee9f1	-0.17081429
166	0x3d94a60b	0.07258233
167	0xbe32efa2	-0.17474225
168	0xbdcd626c	-0.10028538
169	0xbde60c3c	-0.11232802
170	0xbe2730a3	-0.16327147
171	0x3db26233	0.08710136
172	0xbe47419f	-0.19458626
173	0xbe2e89b9	-0.17044725
174	0x3e17b3b0	0.14814639
175	0xbdd54581	-0.104136474
176	0x3d022168	0.03177014
177	0xbddd8f28	-0.108183205
178	0x3d8d81a9	0.06909496
179	0x3bbc2e0f	0.0057427953
180	0xbd984e34	-0.07436791
181	0x3d5650ee	0.052323274
182	0xbdc4cf40	-0.09609842
183	0xbd86e1a6	-0.06586008
184	0x3dde8720	0.10865617
185	0x3e3722d5	0.17884381
186	0xbca676c0	-0.020320296
187	0x3e2e584d	0.17025872
188	0xbe4da1dd	-0.20081277
189	0x3c986bba	0.018606056
190	0x3dbc0296	0.09180181
191	0xbe0c258f	-0.13686202
192	0xbde2601b	-0.11053487
193	0x3e0e8a7e	0.13920018
194	0xbd37ad4a	-0.044842996
195	0x3de15856	0.11003177
196	0xbe154935	-0.14578708
197	0xbe5d2fac	-0.21600217
198	0x3c6d2b9c	0.014475729
199	0x3c7d3dc6	0.0154566225
200	0xbd8f10ce	-0.06985627
201	0xbdcbebe4	-0.09957102
202	0xbd14728b	-0.03624205
203	0xbd232d08	-0.039837867
204	0x3da895e5	0.08231715
205	0x3c3842a8	0.011246361
206	0xbe0ad66a	-0.13558355
207	0xbd20ef15	-0.039290506
208	0xbe2cb262	-0.16864923
209	0x3d05b491	0.032642905
210	0x3ccfb940	0.025356889
211	0xbe5c6782	-0.2152386
212	0xbe1c0550	-0.15236402
213	0x3e366b27	0.17814313
214	0xbdef1fb9	-0.116759725
215	0x3e2578a0	0.16159296
216	0xbdfee045	-0.1244512
217	0xbd014b24	-0.0315658
218	0x3dc5bdf8	0.09655374
219	0xbe63bfc2	-0.22241119
220	0xbcd9ed55	-0.026602427
221	0x3e2ae8be	0.16690347
222	0x3d52bbbf	0.05144858
223	0x3d8af2b6	0.06784575
224	0x3d03ba3c	0.03216003
225	0x3dddffdf	0.10839819
226	0xbe10f1ca	-0.14154735
227	0x3d062849	0.032753263
228	0x3d5d64e0	0.05405128
229	0x3cf05649	0.029338019
230	0x3e197dd6	0.14989409
231	0x3e66bf75	0.22533973
232	0xbe3515fb	-0.17684166
233	0xbd690786	-0.05689194
234	0xbd93198e	-0.071826085
235	0xbe5e0038	-0.21679771
236	0x3e34ac2e	0.17643806
237	0xbdee4eed	-0.11636148
238	0xbd0889af	-0.03333443
239	0x3e0815fd	0.13289638
240	0x3da5cf69	0.08096201
241	0x3dce057b	0.10059639
242	0x3e07ba84	0.13254744
243	0xbdf73c77	-0.1207208
244	0xbb5815b2	-0.0032971916
245	0xbe1e8b4a	-0.15482822
246	0xbcde2caa	-0.027120907
247	0xbda6bdc7	-0.08141666
248	0xbe01033d	-0.12598892
249	0xbc011715	-0.007879038
250	0xba036059	-0.00050116103
251	0xbdd0a9fa	-0.101886705
252	0xbe0ad765	-0.13558729
253	0xbe14ad66	-0.14519271
254	0xbd790b49	-0.060801778
255	0x3d8025e6	0.062572286

discriminator.bilinear.weight f4 [1, 24, 24]
0	0xbc00165e	-0.007817833
1	0xbda6be72	-0.08141793
2	0x3d91207b	0.07086273
3	0x3debf54f	0.11521398
4	0x3cc1d16f	0.023659436
5	0xbd0b5043	-0.03401209
6	0xbd8fb7a6	-0.0701745
7	0x3e738900	0.2378273
8	0x3e1d89e6	0.15384635
9	0xbdc00b7f	-0.09377193
10	0x3d7a54af	0.061115917
11	0xbdcd2474	-0.100167185
12	0xbe1199d9	-0.14218844
13	0xbcd54fde	-0.02603906
14	0x3e29c72b	0.16579883
15	0xbdc5a36a	-0.096503094
16	0xbdc3e64b	-0.09565409
17	0xbe17c0ee	-0.1481969
18	0xbca145a8	-0.019686535
19	0xbe2bfcce	-0.16795656
20	0xbdb47b42	-0.08812572
21	0xbe0e3977	-0.13889109
22	0xbd83ae5a	-0.06429739
23	0xbd565ea1	-0.05233634
24	0xbe07bac4	-0.13254839
25	0x3dfd6230	0.123722434
26	0xbdad8dd4	-0.08474317
27	0xbe17c0fc	-0.14819711
28	0xbc88f308	-0.016717449
29	0x3d6e6968	0.058205992
30	0xbe320a62	-0.17386773
31	0x3d904eb9	0.07046265
32	0xbda30ece	-0.07961808
33	0x3e84160f	0.2579808
34	0x3e4cc815	0.199982
35	0xbe36b8b8	-0.17843902
36	0xbe188fad	-0.14898558
37	0xbe0b6ff9	-0.13616933
38	0x3e093deb	0.13402526
39	0x3db70c0d	0.089378454
40	0x3a744e86	0.0009319562
41	0x3debf389	0.1152106
42	0xbdb05c0a	-0.08611305
43	0xbe276fd2	-0.1635125
44	0xbe4a6319	-0.19764365
45	0xbe2bebe1	-0.167892
46	0x3e3b3f7d	0.18285938
47	0x3e7d472c	0.24734181
48	0xbe193acd	-0.14963837
49	0x3d2a4368	0.04156819
50	0x3e476d7f	0.19475363
51	0xbe2856e4	-0.16439396
52	0xbdaef326	-0.08542471
53	0x3cddc688	0.027072206
54	0x3e14f59f	0.14546822
55	0xbda80545	-0.0820413
56	0x3d883bb4	0.066520125
57	0x3e54203c	0.20715421
58	0x3e6539e3	0.22385363
59	0x3d346f94	0.04405172
60	0x3e035b9a	0.12827912
61	0x3e117e58	0.14208353
62	0x3d5ef3f5	0.054431874
63	0xbdcb1e8b	-0.09917935
64	0x3da008c2	0.078141704
65	0x3d325c22	0.043544896
66	0x3ce823e8	0.028337434
67	0xbd6004e7	-0.054692175
68	0x3d1d5945	0.038415212
69	0xbd3dac2f	-0.046306785
70	0xbe3d17d9	-0.18466128
71	0x3e6b973d	0.23006912
72	0xbe39aa55	-0.18131383
73	0x3de154a7	0.11002474
74	0x3e666107	0.2249795
75	0xbe46099f	-0.19339608
76	0x3d5c0ec9	0.053725038
77	0xbdaff422	-0.085914865
78	0xbe1ab837	-0.15109335
79	0x3e69a651	0.22817351
80	0xbdc99599	-0.098429866
81	0x3e4aa11b	0.1978802
82	0xbd82a5e9	-0.06379301
83	0xbdb83f09	-0.08996398
84	0xbe3d79d0	-0.18503499
85	0xbaa7ac76	-0.0012792486
86	0x3e87cafa	0.26522046
87	0x3e73f251	0.23822905
88	0xbdea4e4c	-0.11440715
89	0x3d959c50	0.07305205
90	0x3e682ebb	0.22674076
91	0xbe8991bd	-0.26869002
92	0x3d931952	0.07182564
93	0x3dbdc508	0.09266096
94	0x3e818808	0.25299096
95	0x3e66534a	0.2249271
96	0xbd611f55	-0.05496152
97	0xbdcca5d8	-0.0999257
98	0x3e375b3f	0.17905901
99	0xbd0e59ae	-0.034753494
100	0xbd90a735	-0.07063142
101	0xbd1a6687	-0.037695434
102	0xbe4636aa	-0.1935679
103	0x3e5c7197	0.21527706
104	0xbe489793	-0.19589071
105	0x3e868ac1	0.26277736
106	0xbddad110	-0.10684407
107	0xbdfa962b	-0.122356735
108	0xbe55fbc8	-0.20896828
109	0xbb05507f	-0.002034217
110	0x3d198a72	0.037485547
111	0x3c3809ed	0.011232835
112	0xbe65e6d5	-0.22451337
113	0x3b657f8c	0.003501865
114	0x3e2b1998	0.16708982
115	0xbd9fa258	-0.077946365
116	0xbdf27dff	-0.11840438
117	0x3dd5dd05	0.10442547
118	0xbe321cce	-0.173938
119	0x3d62db67	0.05538502
120	0x3d658aca	0.056040563
121	0xbc93bd8c	-0.018034719
122	0x3e7c284e	0.2462475
123	0xbe296a7f	-0.16544531
124	0x3e2af8f2	0.16696528
125	0x3e2646bf	0.16237925
126	0xbceae826	-0.02867515
127	0x3d9fc5b9	0.078013845
128	0xbb4c7660	-0.0031198487
129	0x3d9dc5a8	0.077037156
130	0x3c97f0b2	0.01854739
131	0x3dde93aa	0.108680084
132	0xbd5fe2e8	-0.054659754
133	0xbc881dc3	-0.016615754
134	0x3e5ff3af	0.21870302
135	0xbc42fa99	-0.011900567
136	0xbe24f726	-0.16109905
137	0x3e605acc	0.21909636
138	0xbb4a3bb4	-0.003085834
139	0x3d04b472	0.03239865
140	0x3be42d4e	0.0069634086
141	0x3da51b08	0.080617964
142	0x3e23623a	0.15955439
143	0xbdd329b2	-0.10310687
144	0x3e5f8597	0.21828304
145	0xbd8676d3	-0.06565633
146	0x3dbf062c	0.09327349
147	0xbd2b6eeb	-0.041853826
148	0x3d850d35	0.0649666
149	0x3daf4da0	0.08559728
150	0xbb72358f	-0.0036958193
151	0xbd4f3ed7	-0.050597038
152	0x3d376d29	0.044781838
153	0xbda9f313	-0.08298316
154	0xbe37a78a	-0.17935005
155	0xbd4904eb	-0.049076956
156	0x3db965a5	0.0905259
157	0xbe1dfa73	-0.1542757
158	0x3d57cad0	0.05268365
159	0xbde34ba4	-0.11098412
160	0x3e29f4b6	0.16597256
161	0xbe2e864d	-0.17043419
162	0xbc8177ce	-0.015804198
163	0xbd85fb42	-0.06542064
164	0x3c6a7083	0.014309051
165	0x3df0fa8b	0.11766537
166	0x3e4e217e	0.20129964
167	0xbdb674e2	-0.089090124
168	0x3e2a62c9	0.16639246
169	0xbdcb981f	-0.09941124
170	0xbe1bc516	-0.15211901
171	0xbe07ec18	-0.13273656
172	0xbd7ce763	-0.061744105
173	0x3e011f59	0.12609614
174	0xbc89873f	-0.016788123
175	0xbdb12141	-0.08648921
176	0x3e7061a8	0.23474753
177	0xbe65b580	-0.22432518
178	0xbd5f2996	-0.05448302
179	0xbdaec073	-0.085328005
180	0x3e05eccd	0.13078614
181	0x3e10ee18	0.14153326
182	0xbc72f99e	-0.014830021
183	0x3cd13832	0.025539491
184	0xbdf41bff	-0.11919402
185	0xbe5cfbf4	-0.21580487
186	0xbe1c1dce	-0.15245745
187	0xbe11b44a	-0.14228931
188	0x3c94f886	0.018184911
189	0x3dcce418	0.10004443
190	0x3da62411	0.08112348
191	0xbd8ab7d9	-0.067733474
192	0x3db292ce	0.08719407
193	0xbd491bdd	-0.049098838
194	0x3db1379a	0.08653183
195	0xbd1fd394	-0.039020136
196	0x3e1cf2e5	0.15327032
197	0xbe1a586c	-0.15072793
198	0x3e222ed7	0.1583818
199	0xbd3c24d8	-0.045933574
200	0xbd1b9737	-0.037986007
201	0xbd97a101	-0.07403756
202	0x3e18a9eb	0.14908569
203	0x3d6799e4	0.056543246
204	0xbd60f76d	-0.054923464
205	0xbe36624e	-0.17810938
206	0xbd090111	-0.033448283
207	0x3e2d0ea3	0.16900115
208	0x3e10467f	0.14089392
209	0x3e510bbf	0.20414637
210	0xbe175766	-0.14779434
211	0xbe142b63	-0.14469676
212	0xbe020913	-0.12698774
213	0x3d331a28	0.043726116
214	0x3d5a0f69	0.053237353
215	0x3df63263	0.12021329
216	0x3da3680f	0.07978832
217	0xbcb82a7f	-0.022481201
218	0xbe17a0eb	-0.14807479
219	0x3d9e3601	0.07725144
220	0x3dd77616	0.1052057
221	0xbe168801	-0.14700319
222	0xbc147e9b	-0.009063388
223	0xbe0d90ad	-0.1382472
224	0x3dfe66e8	0.124219716
225	0xbd7fa2cb	-0.06241111
226	0xbd654a0f	-0.05597883
227	0x3e58fef8	0.21191013
228	0xbd3e7185	-0.04649498
229	0x3dbbd2b7	0.0917105
230	0x3df005bb	0.11719843
231	0x3e41a845	0.18911846
232	0xbdb02de9	-0.08602507
233	0xbe1a81c3	-0.15088563
234	0x3e412c12	0.18864468
235	0xbdd396dc	-0.103315085
236	0xbdd5ecc3	-0.10445549
237	0x3e48af29	0.19598068
238	0x3dc2cb05	0.09511379
239	0xbd3cf13c	-0.046128497
240	0x3c83808d	0.016052509
241	0xbe17efd2	-0.14837578
242	0x3e035a09	0.12827314
243	0xbce7759b	-0.02825432
244	0x3d8b68e8	0.06807119
245	0xbdb5b783	-0.08872893
246	0xbe64dd1e	-0.22349975
247	0xbdbc189c	-0.09184381
248	0xbe25dd7d	-0.16197772
249	0x3c23a789	0.009988674
250	0x3e69b2af	0.22822069
251	0xbe357465	-0.17720182
252	0x3da7a8dc	0.08186504
253	0x3cca063e	0.02466118
254	0x3e349871	0.17636277
255	0x3e208939	0.15677346
