src/algorithms/deep/pretrained/mvgrl_uat.pt (torch, 581070 bytes, 11 tensors)

gcn_real.conv1.bias f4 [128]
000000 74 c7 40 bc 19 00 06 3b 71 54 8b bc 3d 91 96 bb
       -0.011766303 0.0020446836 -0.017008038 -0.0045949505
000010 39 a6 6a 3c 88 2c ba 3c 33 54 b4 3b d5 dc 02 3c
       0.014321857 0.022726312 0.0055032014 0.007987221
000020 d2 71 c1 bb c8 32 25 3c 8b 97 e7 3b a5 42 78 3c
       -0.005903461 0.010082908 0.007067626 0.015152608
000030 99 fb b7 3c e7 13 a8 3c 83 c0 34 ba 80 4f a0 bb
       0.022458838 0.020517303 -0.00068951416 -0.0048922896
000040 08 24 ca 3b 78 b6 46 3c e7 a7 0b 3c 73 0d 7e 3c
       0.006168846 0.012128465 0.008523918 0.015506136
000050 07 ed 44 3c 40 4e 86 37 28 52 a8 3c 62 67 b0 3c
       0.012019402 1.6010483e-05 0.020546988 0.021533672
000060 d0 4c b6 3b ba 3e 72 bc a1 d4 a7 3a 5d cc 93 bb
       0.005563356 -0.014785463 0.0012804457 -0.004510446
000070 29 31 f1 3b f0 69 fe 3a 81 fa 58 3c 5e e8 16 bc
       0.0073605967 0.0019410234 0.013243319 -0.009210674
000080 d4 96 b1 3c 12 d5 f8 3b 92 df ed bb 0e ed 83 ba
       0.021678366 0.0075937593 -0.0072593177 -0.0010065155
000090 9c 0e bf bc 6d 53 18 3c 3e 3b c8 3c 86 60 8c 3b
       -0.023322396 0.009297234 0.024442311 0.0042839674
0000a0 05 b3 21 3c 77 1f 21 3c e6 ac b6 bb 2b 20 0a 3c
       0.009869342 0.009834162 -0.0055748103 0.008430521
0000b0 3f b8 74 3b c5 bf b3 3c 51 af f2 3b cc cd 07 3b
       0.0037341265 0.021942029 0.0074061533 0.002072203
0000c0 fc 2b 54 3b b2 4a 1f 3c 20 96 da b8 3a 1b f1 bb
       0.003237485 0.009722399 -0.00010423013 -0.007357982
0000d0 5c 2a 99 3b 32 c4 76 3b fb 4c 94 3a d7 7b 90 3c
       0.004674239 0.0037653563 0.0011314446 0.017637176
0000e0 7d 8f 99 bc cc 74 b4 3b f3 65 e4 3c 40 67 62 3c
       -0.018745178 0.0055070873 0.027880644 0.013818562
0000f0 6b aa ba 3c a4 58 98 3c 41 a8 0c 3d af 19 ba 3b
       0.02278634 0.018596955 0.034340147 0.0056793313
000100 82 f4 89 3c ed d1 d4 3c 48 6c 98 bb 98 f2 af bb
       0.016840223 0.025979007 -0.00465158 -0.0053694956
000110 4a c5 4a 3c 19 37 59 bc a7 e1 8e 3c 85 1c 41 3c
       0.012376139 -0.013257765 0.017441584 0.011786585
000120 ed 45 2e 3c 66 6f 1a 3c b9 3f f3 bb 6d 6b 8c bb
       0.010636789 0.0094259735 -0.007423368 -0.004285267
000130 fd 18 99 bc 24 97 c7 3b f4 b4 6b 3c d8 b5 8c bc
       -0.018688673 0.0060910154 0.014386404 -0.017176554
000140 c0 a8 b4 3a ef 5c 53 3b 55 7e 77 3c f4 c6 25 bc
       0.0013783202 0.0032251438 0.0151058035 -0.010118235
000150 a0 50 aa 3c 8f 2a 9d 3b 6c 36 9f 3c 80 c4 26 bc
       0.020790398 0.004796333 0.01943513 -0.010178685
000160 73 ce e4 3a e9 aa 70 ba 1e f8 37 3c 4e d4 80 3c
       0.0017456546 -0.0009180741 0.011228589 0.015726235
000170 b4 7d 44 bb da 9c 09 3d 50 2c bd b8 45 01 5f 3b
       -0.0029982151 0.03359685 -9.020476e-05 0.0034027856
000180 53 20 4a 3c aa 37 1a 3c 0e 3b a0 3a 3e 38 28 3c
       0.012336808 0.009412685 0.0012224631 0.010267315
000190 0a 1d 8c 3c 92 c2 1a bb d4 d1 50 3a f7 0b 53 bb
       0.01710369 -0.0023614508 0.0007965837 -0.0032203177
0001a0 ce 19 65 3c 3a 4d 18 3c a5 b4 86 3b df 34 43 3c
       0.013983203 0.009295756 0.00411089 0.011914461
0001b0 08 c3 75 3c 97 b2 12 bd b2 d1 1f bb 7b 18 f3 3b
       0.015000112 -0.035814848 -0.0024386463 0.00741869
0001c0 46 19 e7 ba 36 12 77 3c b2 8e 01 3c 82 57 bc b8
       -0.0017631433 0.015080025 0.007907556 -8.980838e-05
0001d0 63 3d 67 3c 83 1f 12 3c ec 2e 63 3b 31 b1 bf 3a
       0.014113757 0.008918646 0.0034665419 0.0014624951
0001e0 ac 2a 2d 3b 84 cf 85 bb 96 81 31 3a e3 f5 4e 3c
       0.002642314 -0.0040835757 0.0006771324 0.012631866
0001f0 66 58 aa 3c b9 b1 96 3b af d5 9a 3c 34 4d 2d 3c
       0.020794105 0.004598823 0.01890072 0.010577489

gcn_real.conv1.lin.weight f4 [128, 239]
000000 f0 6c be 3d 59 7d 1e 3e b8 26 2e bb 84 9e 7a 3c
       0.09298122 0.15477504 -0.002657337 0.015296582
000010 45 ae ae bd dc 59 15 bd 3f 9e ae bd 6a 57 89 3d
       -0.08529333 -0.03646265 -0.08526277 0.06706126
000020 bd 67 9a bd 43 ee ee bc 63 5f 5b bd 8b ef 0e 3c
       -0.07539318 -0.029166346 -0.053557765 0.008724104
000030 c5 b4 a1 bc d9 f3 35 3c a5 01 12 bc f0 a0 2b bd
       -0.019739518 0.011105501 -0.008911525 -0.04190153
000040 75 e0 a0 bc b2 28 fd 3b 24 d9 95 bd 15 3c 44 bc
       -0.01963828 0.0077257985 -0.07316807 -0.011977215
000050 f6 4d e6 bd 47 9a bd bc 44 8e 7b bd 7f a5 05 be
       -0.112453386 -0.023144854 -0.061414972 -0.13051413
000060 76 d4 47 bd 07 b2 2b 3c b8 72 c2 bc 02 a5 7a bd
       -0.048786603 0.010479457 -0.023736343 -0.06119252
000070 17 29 10 3d 77 ae d1 bd aa 33 0c be 11 48 4c 3d
       0.035195436 -0.10238355 -0.13691583 0.049873415
000080 02 9d ed bd 19 be b1 bd 36 74 4c bc 79 33 2e be
       -0.116022125 -0.086788364 -0.012478879 -0.17011823
000090 cb 47 6a bc b6 e7 02 3d 96 4a 3c 3d 31 9d b5 3c
       -0.014299343 0.031959258 0.04596957 0.022169681
0000a0 b8 78 b5 bd c3 4a 18 bc 0c 2d 44 bd 15 00 ff 3c
       -0.08860916 -0.009295168 -0.047894523 0.031127969
0000b0 82 05 ce bd 9b 70 bc bd d7 90 7e bd 89 0d 12 bc
       -0.10059644 -0.09201165 -0.06214985 -0.00891436
0000c0 ab df 9a bd af b8 cf bc 8c 7d e5 bc fa 16 18 bc
       -0.075621925 -0.025356619 -0.028013967 -0.009282822
0000d0 1e 44 35 be 8f ce d0 3c 38 1b fb bd 9b 79 dd bd
       -0.17701766 0.02548912 -0.12261051 -0.1081421
0000e0 67 c5 3c bd 30 06 b3 bd 55 b7 91 3c 38 7b 4f 3d
       -0.046086695 -0.087414145 0.017787615 0.05065462
0000f0 e6 d5 b5 3d ce 08 b6 bd 4a 57 c3 bd 5b 2d 08 be
       0.088786885 -0.08888398 -0.095381334 -0.13298552
000100 92 47 67 bd 33 6e 32 3d 02 98 80 3d e2 af 1c 3d
       -0.05646474 0.043562125 0.06278993 0.038253672
000110 e0 25 89 bc 60 db db bd c8 64 00 bd 25 29 95 3d
       -0.016741693 -0.10735202 -0.031346112 0.07283238
000120 ad fb d8 bd f0 d4 0e 3c c2 12 fd bd bd a9 47 bc
       -0.10594878 0.00871776 -0.123570934 -0.012186465
000130 97 dc 2b 3d 5b 76 39 bd 4e 95 97 bd b0 f6 00 be
       0.041958418 -0.04527889 -0.074015245 -0.12594104
000140 c6 b5 ea 3d 9c 22 de bc af 1a 42 3d 82 07 9f bd
       0.11460452 -0.027116112 0.04738873 -0.07765104
000150 10 8f ad 3c ef 74 8b bb f0 a2 6c bc d8 c6 06 be
       0.021186382 -0.004255883 -0.014443144 -0.1316179
000160 a0 79 23 bc 84 16 82 bd 19 43 b7 ba 60 b0 6c 3c
       -0.009977728 -0.06351951 -0.0013981789 0.014446348
000170 00 d8 81 3d 28 3e 83 3c c9 92 4e 3d 92 a0 fc bd
       0.06340027 0.01602085 0.050432954 -0.12335314
000180 20 62 8f bd 7a da a8 3c 22 84 fb bd fa 86 06 be
       -0.07001138 0.02061199 -0.12281062 -0.13137427
000190 7b e2 75 bd d1 49 d4 bd dc ae 81 bd e0 80 d9 3c
       -0.06003044 -0.10365642 -0.0633218 0.02655071
0001a0 ea dd c8 bc 75 a1 95 bd a0 d0 60 3d 5c b0 ed bd
       -0.02451988 -0.07306186 0.05488646 -0.116059035
0001b0 92 6f 97 bd 7a 89 bd 3d a3 08 21 be 08 64 8a 3d
       -0.07394327 0.09254737 -0.15725951 0.06757361
0001c0 80 03 c5 bd 76 52 b7 3c 74 41 ea bd ca f4 ff 3d
       -0.09619808 0.022378188 -0.114382654 0.12497862
0001d0 c5 a2 02 be 2a 93 08 3d d1 3d 89 bd b8 4f 8f 3c
       -0.12757404 0.03334347 -0.06701244 0.017494068
0001e0 c9 1a 43 3d b5 a8 3c bc a0 a8 80 bc f0 c1 af 3c
       0.047632966 -0.011514832 -0.015705407 0.021454781
0001f0 cd 24 4b bc ac 88 89 3d f4 52 1c 3d a2 b7 86 bd
       -0.012398911 0.06715521 0.038165048 -0.06577994
000200 8f a3 3a bd db a6 ff bd 85 af ef bd ea 1f 49 3c
       -0.045566138 -0.12482997 -0.117033996 0.012275675
000210 d0 08 82 bd 3c bb e9 3d 33 6d 72 3d e0 05 7c bd
       -0.06349337 0.11412665 0.05918617 -0.06152904
000220 6d e6 a3 bd 26 03 e9 3d 00 6b a7 3d a3 dc b5 bc
       -0.080029346 0.11377554 0.081747055 -0.022199934
000230 5a 39 fe 3b 50 b7 6c bc 3e ef c4 bc a4 a9 10 bd
       0.0077583017 -0.014448002 -0.02403986 -0.035318032
000240 58 fb d9 3d 7f 50 dd bd 7e f2 25 3d 01 09 bf bd
       0.10643643 -0.10806369 0.04051446 -0.09327889
000250 42 34 f5 3c 07 51 0b 3d 0b a7 7f ba bc a9 58 3d
       0.029932145 0.03401282 -0.00097523694 0.052896246
000260 47 4c a0 bd 8a fd 56 bd 01 5b 98 bd ad c0 13 be
       -0.07827049 -0.052487887 -0.074392326 -0.14428969
000270 80 f1 be bd d6 d3 ab bd 0f b2 61 bd e7 20 09 3d
       -0.09323406 -0.08390014 -0.05510145 0.033478644
000280 7c 0b ed 3d 7c f0 64 3d f0 2a 71 3c 28 33 e0 3d
       0.11574456 0.055893406 0.01471971 0.10947257
000290 8c de c8 bd 12 04 07 bd 04 49 90 3d b7 13 bb bd
       -0.098080724 -0.032962866 0.070451766 -0.0913462
0002a0 24 58 35 bd 8e 50 ce 3c 50 9b e2 3d c7 6a 85 bd
       -0.04427351 0.025184896 0.1106478 -0.06514507
0002b0 c4 2d 9b bd ed 26 ca bc 4c 7e 21 3d 23 dd bb bd
       -0.075770885 -0.024676764 0.039427087 -0.09173038
0002c0 f2 ea e4 3d 04 25 28 bc 18 23 60 bd 18 61 88 3d
       0.11177625 -0.010262731 -0.054720968 0.06659144
0002d0 22 53 e2 bd 2e e3 b6 3d 2c 14 e9 bd b1 27 f8 bd
       -0.110510126 0.0893005 -0.113808006 -0.121169455
0002e0 b4 5f 9d 3d 4e 89 77 3d 6f 4a 1d 3d 40 3c b8 3b
       0.076842695 0.06043368 0.038401064 0.0056224167
0002f0 86 31 77 bc 38 d8 ea 3d 1d bd f4 bd 0a 9e 5b bd
       -0.015087491 0.11467022 -0.11950133 -0.053617515
000300 30 21 fb bc f2 3f e4 3b ca 51 63 bd 00 32 d1 b9
       -0.030655473 0.0069656307 -0.055497922 -0.0003990084
000310 d4 71 79 3b 44 67 ed bc 00 10 81 ba c3 d8 cf 3b
       0.0038062232 -0.028979905 -0.0009846687 0.0063429787
000320 ad b2 00 be 6c 0f 8f 3d bc 7b a3 3d 60 98 69 3d
       -0.1256816 0.06985363 0.07982585 0.05703008
000330 e0 cb 64 3c de 59 2e 3d 1f 6d ab bd 70 9d da bb
       0.013964623 0.042566173 -0.083704226 -0.0066716
000340 d3 13 e0 bd b8 c7 ed 3d 8c 7e b3 bc ac d8 0b 3d
       -0.10941281 0.11610359 -0.021910928 0.03414218
000350 fb e2 f2 bd 8c e0 a9 3d 80 58 91 bd b4 56 a9 3d
       -0.11859699 0.08294782 -0.07096958 0.082684904
000360 08 eb 0b 3d 04 f5 e7 bc 18 6f 5b bc 00 51 87 3b
       0.03415969 -0.028315075 -0.013393186 0.004129529
000370 a2 46 80 3d 00 92 cb 3d e0 98 67 bc 48 e0 f9 3c
       0.06263472 0.09939957 -0.014135569 0.030502453
000380 97 c5 5f 3d 3e 8d bc 3d be 1c eb 3d 60 dd d9 3d
       0.054631796 0.09206627 0.114800915 0.10637927
000390 78 c1 a6 3d de 47 ec 3d 3f ce de bc bc 17 be 3d
       0.0814237 0.11537145 -0.027197955 0.09281871
0003a0 e8 9c bd bd 52 55 c1 3d 00 b8 ca 39 00 0d 97 bd
       -0.09258443 0.09440102 0.00038665533 -0.073755264
0003b0 f0 9e 8e bb 3a ea c9 3d 97 5c 7d 3d a0 8e 91 3b
       -0.004352443 0.09859128 0.06185588 0.004442051
0003c0 c5 98 be 3b f1 44 11 3d 92 0d 74 3b c3 a7 03 bd
       0.0058165514 0.03546614 0.0037239534 -0.032142412
0003d0 eb 60 42 bb 9f 41 87 bc 20 c8 da 3d 96 eb 8b 3d
       -0.0029659818 -0.016510783 0.10682702 0.06832044
0003e0 94 d0 97 3d 52 ce 22 bd e5 6c e8 bd f7 ed 8e 3d
       0.0741283 -0.039747544 -0.11348895 0.06978982
0003f0 6e e8 ca 3d 6f 8f 19 3e 9c e0 35 bd 8f 57 d8 bd
       0.09907614 0.14996122 -0.044403657 -0.105635755

gcn_real.conv2.bias f4 [128]
000000 e4 b0 02 3d 30 1b db 3c 1a 33 3e bb 4e bd ab 3c
       0.031906977 0.026746362 -0.0029022158 0.020964291
000010 a6 85 b1 3c b9 2b 17 3c 4c e6 31 3c 2d 49 84 3c
       0.021670174 0.009226733 0.01085813 0.016148174
000020 1e 09 10 bc 73 9a 52 3c 17 20 e2 3b 06 dd ba 3b
       -0.008791236 0.012854206 0.006900798 0.0057026176
000030 e8 bf 8d bb 9c 3d ad 3c 4b f4 f2 bc 43 dd 9e 3c
       -0.0043258555 0.021147542 -0.029657504 0.019392615
000040 eb af 90 3b 93 fc 87 3a 15 1e f9 3b a3 5f 41 3c
       0.0044155023 0.0010374956 0.007602463 0.011802587
000050 40 b6 48 3c eb 0d 83 3c 76 c5 af 3c 9d a1 3a 3b
       0.012250483 0.015997848 0.021456461 0.0028477677
000060 b0 cd 81 3a 2a 40 a2 3c 33 6f 76 3c 91 45 28 3c
       0.0009903219 0.019805986 0.01504116 0.010270492
000070 5c c1 4f bc 80 ce 8d 3c b0 19 54 3c 53 f7 08 3c
       -0.012680378 0.017310381 0.0129455775 0.008359748
000080 6e 55 32 3c fc 84 05 bc 4e 8e b4 3b bf 80 d5 3b
       0.010884626 -0.008149382 0.005510128 0.006515592
000090 ec 97 a8 b9 b8 22 49 3b 74 49 04 3c b0 fe 37 3c
       -0.00032156648 0.003069086 0.008074153 0.011230156
0000a0 a4 f8 e6 bc ab e7 5a 3b 51 ce 58 3a ec d6 7a 3c
       -0.028194733 0.0033402245 0.00082704896 0.01531003
0000b0 10 05 96 bb 6e 96 d4 3b 49 99 30 bc fd eb bf 3b
       -0.00457824 0.006487659 -0.0107787335 0.0058569894
0000c0 01 b4 ac 3b da c2 8d 3b 32 e2 ba b8 28 96 af bb
       0.0052704816 0.0043262066 -8.911303e-05 -0.005358476
0000d0 6d 4a 57 3c 57 75 b1 3b b9 80 94 bb 1f c0 76 3b
       0.013140303 0.0054155993 -0.0045319465 0.0037651134
0000e0 d2 43 86 bb 28 17 d5 bb df 6c bb 3c f8 21 4a 3c
       -0.0040974403 -0.0065030046 0.022879062 0.0123372
0000f0 9d 63 35 3c f0 15 40 bc 76 2d b5 3c b0 65 75 3c
       0.011071113 -0.01172398 0.022116404 0.0149778575
000100 2f 16 17 bc b4 c4 a8 3c f9 10 9b 3c af 5c c3 3c
       -0.009221598 0.020601608 0.018928992 0.023847906
000110 7c 42 fb 3b 23 42 f4 3b e0 da 03 3b 88 81 68 3c
       0.0076678377 0.007454173 0.0020119473 0.014191039
000120 d6 f3 8b b9 30 b1 32 3c 00 5c 23 3c 0d 63 8f bc
       -0.00026693818 0.010906503 0.009970665 -0.017503286
000130 ab e0 37 3c 79 a0 64 3c cf f7 a3 3c 8c ed 43 3c
       0.011222999 0.013954275 0.020015625 0.011958491
000140 58 29 ce 3b da 6a f6 3c 6c 7e 56 bc f7 1c 51 3b
       0.0062915497 0.030080248 -0.013091665 0.0031908134
000150 e0 53 3d 3c 89 29 3b bb 24 51 7a 3c f2 75 1d 3d
       0.011555642 -0.0028558692 0.0152781345 0.03844256
000160 61 0e 2e 3c f5 86 8a 3b 5a ba f7 3a 1f 49 18 3c
       0.010623545 0.004227514 0.0018900142 0.009294777
000170 ca 07 bb 3a 89 a9 f6 bc 66 f2 aa 3c c1 23 91 3b
       0.0014269289 -0.030110138 0.020867538 0.004429311
000180 7c 90 11 3c 2d c3 94 3b a0 f3 fb bb ba b2 12 3d
       0.008884545 0.0045398683 -0.0076889545 0.03581498
000190 f7 b0 88 3c 95 87 1c 3c 67 59 2e 3c 5e 34 c1 b9
       0.016685946 0.00955381 0.010641432 -0.00036850845
0001a0 92 27 9d 3c f4 53 4c 3c 74 e2 ca 3a b2 f7 0a 3d
       0.019183908 0.012471188 0.0015478865 0.033927627
0001b0 e4 ba 35 bb b1 d5 b8 3c cf 45 42 3c 76 07 43 3c
       -0.0027729804 0.022562834 0.011857464 0.011903634
0001c0 d2 9a 61 3c 89 57 09 bb aa c6 51 3c 90 70 7f 3c
       0.013769822 -0.0020956716 0.012803713 0.015590802
0001d0 9a 39 cf ba ac a7 b6 3b fa 11 13 3c bd 8a d6 bb
       -0.0015810013 0.0055741873 0.008976454 -0.0065473006
0001e0 4c 16 17 3b ec 08 42 3c c0 8b 33 3c 31 d4 6f 3b
       0.0023054061 0.011842947 0.010958612 0.0036594982
0001f0 20 8b 99 3c be 96 f2 3a 80 ad 24 3b 33 a6 0a bd
       0.018743098 0.001850806 0.0025127828 -0.033849906

gcn_real.conv2.lin.weight f4 [128, 128]
000000 52 8f d2 bd 9c 2d cb 3d 06 2c b5 3d 57 82 b2 3b
       -0.102812424 0.09920809 0.088462874 0.0054476666
000010 82 cb 57 bd 5a 47 24 3d 6c 0f af bd 5c 3b bb bd
       -0.052684315 0.04010711 -0.08547863 -0.09142181
000020 f4 f9 0e be d0 55 c6 ba 88 ab 77 3d 14 cd 26 3b
       -0.13962537 -0.0015131775 0.06046632 0.0025451826
000030 e8 83 40 be 19 67 a6 3c 70 54 20 bd 50 e0 db 3d
       -0.18800318 0.020312833 -0.039143026 0.107361436
000040 f1 85 55 bd f1 09 88 bd aa 8e 9a bd 51 81 be bd
       -0.05212969 -0.06642521 -0.07546742 -0.09302009
000050 f6 89 0c 3e f5 2d 04 bc 25 9d 4a bc e6 1a 09 be
       0.13724503 -0.008067598 -0.012366568 -0.13389167
000060 9d e2 b0 bd 92 b8 11 bd 0a b2 65 3d 1d f6 ce bd
       -0.08636973 -0.03557641 0.056077994 -0.10105536
000070 1f ca fc 3d c9 c8 0e be c1 5b 73 bd c9 99 c0 bd
       0.12343239 -0.13943781 -0.059413675 -0.09404332
000080 3c 98 42 bd 15 55 e9 bd fb ff 01 3d 7a a3 d4 3d
       -0.047508463 -0.11393181 0.031738263 0.10382743
000090 07 ee a9 3d 3a b7 98 b9 a7 a6 1b 3d 90 ca d9 3d
       0.08297353 -0.00029128214 0.03800073 0.10634339
0000a0 ed f2 e6 bc f0 db 0f 3e 7e 84 01 3e b3 44 ea bc
       -0.028192008 0.14048743 0.12648198 -0.028597211
0000b0 da fa 01 be 13 4f 27 3d 0d 19 50 bd 55 09 bd 3d
       -0.12693349 0.040846895 -0.05080514 0.092302956
0000c0 e5 ac a7 bd 93 19 91 bd 29 5c 06 be 7b b9 33 be
       -0.08187274 -0.07084956 -0.13121094 -0.17551224
0000d0 bc b0 41 3e ec cc ac 3d f0 6d d7 3d 31 27 3b bd
       0.18915075 0.08437523 0.10519016 -0.045691673
0000e0 ef 5c 06 3e 3b 88 57 bd ee 3d d4 bd 32 f7 53 bd
       0.13121389 -0.052620154 -0.10363375 -0.051749416
0000f0 93 00 d3 bd 74 2c bc 3d 23 19 bb 3d d8 65 13 3e
       -0.10302844 0.09188166 0.09135654 0.14394319
000100 8e 60 0a be 0b 8b ac bd d5 62 0d 3e e6 1d fc bd
       -0.13513395 -0.08424958 0.13807233 -0.1231039
000110 bd bf 01 be 64 8d e9 bd bc a5 c2 bd 25 ec 24 3e
       -0.12670799 -0.11403921 -0.095042676 0.16105707
000120 46 d6 aa bc e8 41 b2 bc 15 e1 2b be 59 57 d2 bd
       -0.020854127 -0.021759942 -0.1678508 -0.102705665
000130 39 b5 65 bc 6d 5b b4 3d 32 d9 e1 3d 32 1d 09 bd
       -0.014020258 0.088065006 0.11027755 -0.03347511
000140 8a 55 8d bd 78 24 6f 3d 0e 36 bc 3d 56 a5 83 bd
       -0.06901081 0.05838439 0.091899976 -0.0642802
000150 cd d5 27 be 10 6d c3 3d 94 5f 3b bd d5 92 68 bd
       -0.16390152 0.095422864 -0.045745447 -0.056780655
000160 c1 a4 b7 bd c4 31 14 be d1 5a f6 bc 17 e5 04 be
       -0.08966971 -0.14472109 -0.030072602 -0.12978016
000170 86 b7 3b 3d 77 29 5c 3d 41 f4 3b 3e 28 15 b3 bd
       0.04582932 0.05375048 0.18354894 -0.087442696
000180 ea e0 41 bd b6 a8 7c 3c ef a5 ee bd ae 6e af bd
       -0.047333635 0.015421083 -0.11652743 -0.08566032
000190 ca 7b f5 bd f6 b4 bf bd a8 3a 8d bd ee f0 86 bb
       -0.119865015 -0.093606874 -0.068959534 -0.0041180765
0001a0 56 5b 3d 3e 58 ff 1b 3e 9c 62 5a bd 3a 5d 9d bd
       0.18491873 0.15234125 -0.053316697 -0.07683797
0001b0 df 67 31 bd 71 cf 37 be 0f 53 28 be 14 64 3c 3d
       -0.04331195 -0.17950226 -0.16437934 0.04599388
0001c0 e9 ef e9 bd cb 50 25 bd cb 93 a0 bd 5f 17 c5 bc
       -0.11422712 -0.040360253 -0.07840689 -0.024058996
0001d0 9a 1c 11 be 02 cb d7 3d 43 22 e3 bd a1 f4 d6 bd
       -0.14171067 0.105367675 -0.11090519 -0.10495878
0001e0 a7 9b a1 3d 30 c2 b4 3d d1 15 ae bd b6 de 80 3d
       0.078910165 0.08826101 -0.08500255 0.06292479
0001f0 b4 7b 21 bc 23 c4 aa 3d 79 a6 3c 3d 85 f5 49 be
       -0.009856153 0.08338191 0.0460572 -0.19722565
000200 74 cb 1f 3c 74 e3 00 be ab 28 b5 3c f5 1c 34 3b
       0.009753097 -0.12586766 0.022114119 0.002748308
000210 0a 79 29 3d 46 4a 15 3e 9c 56 09 3e e1 1d 95 bd
       0.041375197 0.14579114 0.13411945 -0.072810896
000220 7f 98 d7 3d 37 34 07 be 9b b8 15 bd 2d 6f 1b bd
       0.10527133 -0.13203512 -0.036553007 -0.037947822
000230 3d b5 22 3e cb 81 96 bd 70 25 84 3d ac e8 f5 bc
       0.1588945 -0.07348975 0.06452453 -0.030018173
000240 b3 0f a4 bd b4 0d 22 3e 2f 63 2a 3d df a0 e6 3c
       -0.08010807 0.1582554 0.041598495 0.028152881
000250 07 13 25 bc 93 39 e9 3d d2 c5 13 bc f2 c0 a2 bd
       -0.010075337 0.113879345 -0.009019332 -0.07946958
000260 60 fe 2b bd c9 04 80 3d 7c 42 40 bd 6c a7 00 be
       -0.041990638 0.06250913 -0.046938404 -0.12563866
000270 ec 18 7b bd 42 a4 14 be 88 b1 c8 bd 21 5e 42 bd
       -0.061303064 -0.14515784 -0.097994864 -0.04745305
000280 c5 d6 3c be 72 f5 db 3c c1 3b 2e bd f7 29 f4 ba
       -0.18441303 0.026850436 -0.042537455 -0.0018628229
000290 8b 8f a1 bc 2a ec 4f 3e 24 f6 8d bd d8 9d b8 3c
       -0.019721767 0.20304933 -0.06931713 0.022536203
0002a0 11 b4 2c 3e 29 1d 4e 3d ba b9 e8 3c 65 e4 39 be
       0.16865565 0.050320778 0.028408874 -0.18153532
0002b0 6a ea 46 3e 26 33 11 be 7a 01 bb bd 6e dd b3 bc
       0.1942536 -0.14179668 -0.09131141 -0.021956172
0002c0 96 dc fc bd fd 58 18 3c 09 4d fe 3d 07 90 d8 3d
       -0.12346761 0.00929856 0.12417037 0.10574346
0002d0 b8 89 2d be 69 c2 c5 bc 98 96 7f 3d 26 c6 01 be
       -0.16947067 -0.024140554 0.062399477 -0.12673244
0002e0 66 d9 65 3d 81 10 cb 3d 19 0e a5 3b f9 6a ef bd
       0.05611553 0.09915257 0.005037081 -0.11690325
0002f0 8d 27 a8 3d c3 a6 3f 3d cc 2d 96 3d ef 0a 1e 3c
       0.08210669 0.046789896 0.07332954 0.009646161
000300 52 9b 00 be 82 a8 07 be d6 78 fc bd 61 b5 a1 3c
       -0.1255925 -0.13247874 -0.12327735 0.019739809
000310 35 6c 99 bd c9 fc f6 bd 6e 08 73 bd 71 76 12 be
       -0.07491342 -0.12059934 -0.05933421 -0.14302994
000320 40 97 08 be c7 3f 11 3b 41 84 ef 3d 59 37 ff bd
       -0.13338947 0.0022163258 0.11695147 -0.124617286
000330 fd 59 eb bd 7b 6b 12 3c ba 34 23 be 3c a3 b5 bd
       -0.11491773 0.008936758 -0.15938082 -0.08869025
000340 5d 1f 00 3e ca a9 d4 bd 54 53 2b be 3c 87 0d be
       0.12511964 -0.10383947 -0.16731006 -0.13821119
000350 5d f9 f0 3d 3b 6f 29 3e 1a 79 2f 3b 2d 3e 08 bd
       0.11766312 0.16546337 0.0026775063 -0.03326242
000360 23 01 ad bc d5 34 eb bd 10 cf 81 bd df 30 21 be
       -0.021118706 -0.11484686 -0.06338322 -0.15741299
000370 7c b1 ff bb 71 82 cb 3d ef 83 98 bd c7 a0 a9 bd
       -0.00780314 0.09936989 -0.07447039 -0.08282619
000380 6f 95 12 3e ab ce aa bd 19 24 d7 3c 26 17 01 be
       0.14314817 -0.083402 0.02626233 -0.12606487
000390 b1 df 2b be 0a 01 db bd 6f 86 3a 3d 92 fb 5d bd
       -0.1678455 -0.106935576 0.045538362 -0.054194994
0003a0 60 bf 0d be af b7 17 be 2d 7f 51 bd 20 20 ae 3d
       -0.13842535 -0.14816163 -0.051146675 0.08502221
0003b0 b0 49 1f be 4a 21 fa bd 5d 90 24 bc c1 04 b9 3c
       -0.15555453 -0.12213381 -0.0100441845 0.022585275
0003c0 48 ad 11 be d0 1e 47 3d 9b 53 71 bd 46 74 d9 3c
       -0.14226258 0.04861337 -0.058917623 0.026544701
0003d0 9b bb bf bd a8 18 70 bd b0 73 00 3c cc 27 b4 3c
       -0.09361955 -0.058617264 0.007840082 0.021991633
0003e0 f0 30 16 3e f0 95 7e 3d d8 0d 32 3e d8 30 dc bd
       0.14667106 0.06215471 0.17388093 -0.10751504
0003f0 0d 96 e0 bd 30 c4 05 bd 76 80 a2 bd 82 be 85 bd
       -0.1096612 -0.032657802 -0.07934658 -0.06530477

gcn_diff.conv1.bias f4 [128]
000000 a8 bf df 3c a4 f1 74 3c dc 2f b2 3b c0 d6 bc 3b
       0.027313069 0.01495019 0.005437834 0.005762905
000010 94 f1 28 b9 9f c8 89 3c d5 ec 58 3c 40 71 e9 bb
       -0.00016111723 0.016819296 0.013240059 -0.007124096
000020 c4 20 93 bb dd d4 2c 3c 2a 49 b4 3c 1d 31 26 bc
       -0.00448999 0.010548797 0.022007544 -0.010143545
000030 c1 fd 71 3c 9d 3b 5f 3c 8e 77 bf 3c e6 1d b5 3c
       0.014769972 0.013625053 0.023372438 0.022108983
000040 4d 6e e0 3c 47 97 24 bb 85 cd d6 3c 6a a6 be bb
       0.027396346 -0.0025114582 0.026221046 -0.005818178
000050 f0 07 9b bb 7c 3d 20 3d e0 4a d5 3c 11 b1 46 3c
       -0.004731171 0.039121136 0.02603668 0.012127177
000060 17 96 c8 3c ac 90 0f 3d 23 6f 67 3c ad ab e1 bb
       0.02448563 0.03505008 0.014125618 -0.0068869204
000070 7a a2 8a 3c 4c ad f8 3b af e4 01 3d 88 0e 8e ba
       0.016923178 0.007589018 0.03171223 -0.0010838071
000080 57 da 99 3b cf 35 8f 3c 2d fa fb bb 2f 8b 7c 3c
       0.0046952176 0.017481713 -0.0076897354 0.015414043
000090 15 a5 1b 3d 1f de 5a 3c 08 6b 95 3c e6 97 00 3c
       0.03799923 0.013358622 0.018239513 0.007848715
0000a0 cf cd ba ba 08 e2 f4 b7 85 13 0b 3d bf ed 83 3c
       -0.001425201 -2.919232e-05 0.033954162 0.016104577
0000b0 a5 02 47 3c 31 94 ee 3c f2 be b2 3c e1 52 88 3c
       0.012146627 0.029123398 0.021819565 0.016641082
0000c0 b6 91 8b 3c b4 8b a7 3c 3c df a9 3c af 4c 26 3d
       0.017037254 0.020452358 0.02073633 0.040600475
0000d0 87 43 da bb 17 e1 e6 3b 75 91 4a 3c c9 fa 84 bc
       -0.006660882 0.007045876 0.012363781 -0.016232865
0000e0 ec 35 99 3c ee 38 91 3c c0 8b 64 bb 19 3a ca 3c
       0.01870247 0.017727342 -0.0034873337 0.024685906
0000f0 ec 07 90 3b 88 5b d5 38 5b cf 78 3c c2 b7 ac 3c
       0.0043954756 0.000101736805 0.015186156 0.021083716
000100 5b 17 05 3c 34 a0 c9 3b 71 c9 c7 3c 4e ba 0e 3c
       0.008123244 0.006153131 0.024388047 0.008711411
000110 09 37 b3 3b 66 92 40 39 66 a5 e8 3c 0a e1 17 3c
       0.005469207 0.00018365085 0.02839918 0.009269962
000120 86 cc 95 3c 9d b6 d0 3c 51 83 fa 3c 60 74 5e 39
       0.018286001 0.025477702 0.030580195 0.00021214923
000130 ff f8 3b bc 0d e4 9b 3c 50 a6 18 bc 60 3c 07 3d
       -0.0114729395 0.019029642 -0.009316996 0.033016562
000140 ff 85 04 3d c9 08 1c 3c a8 75 f0 3c 26 0e 9b bc
       0.03235435 0.009523579 0.029352978 -0.018927645
000150 97 c1 2f 3c c8 22 42 3c 07 e5 55 3c b3 53 ef 3b
       0.010727308 0.011849113 0.013055093 0.007303679
000160 39 f6 d5 3c 39 ed 61 3c dc 78 a8 3c 00 b1 82 3c
       0.026118385 0.013789468 0.020565443 0.01595354
000170 8d 2d 92 3b 52 03 22 3c 5d 46 53 3c 75 23 09 3c
       0.0044609965 0.009888487 0.012895194 0.00837027
000180 05 e1 26 3c 43 09 c3 3c 18 e2 b5 3a 8d a0 a3 3b
       0.010185485 0.023808127 0.0013876585 0.0049935044
000190 fe 3f 16 3c c9 4b bf 3c 48 73 11 3c f2 99 a2 3c
       0.00917053 0.023351567 0.008877583 0.019848797
0001a0 f8 92 98 3c f2 e5 b1 3c a3 12 61 3c 28 52 4b 3a
       0.018624768 0.021716092 0.0137373535 0.00077560777
0001b0 dc c0 d4 3c bb cd a3 3c 10 86 7f 3c 8b 86 6b 3b
       0.025970869 0.01999556 0.015595928 0.0035938348
0001c0 e6 44 21 3d 64 ca c0 3c a4 dd 21 bc 7a 6a 50 3c
       0.039372347 0.023534007 -0.009879503 0.0127206985
0001d0 cc c0 7c 3c 8a ef 8b 3a a6 a1 40 3c 08 18 02 3d
       0.015426826 0.0010676247 0.01175729 0.0317612
0001e0 aa 29 37 ba 2d 6e ce 3c f5 52 a1 bb 6c b3 88 bc
       -0.00069871044 0.02519902 -0.0049232193 -0.016687118
0001f0 74 79 5f 3c 3c 5a 0d 3d dc c8 0a 3d 50 26 50 3c
       0.0136397965 0.034509882 0.03388296 0.012704447

gcn_diff.conv1.lin.weight f4 [128, 239]
000000 68 2c f9 bc fb 57 02 be 5c 6a 0b 3e e5 6e 88 3d
       -0.030416682 -0.12728874 0.13614792 0.066617765
000010 dd 22 73 3d 97 59 55 bd e0 70 29 bd dd 11 fe bd
       0.05935942 -0.052087393 -0.04136741 -0.12405751
000020 ea e1 ac 3d 08 db 84 3b ef 6d 3d 3d 6b 22 ca 3d
       0.08441527 0.004054431 0.04624742 0.09869846
000030 15 43 b9 3d 5b 27 39 bb 73 f2 95 3d d7 e1 2f bc
       0.09045998 -0.0028252217 0.07321634 -0.010734997
000040 57 24 a1 3d 3c c9 bd bd ca 41 f5 bc 73 9b c8 bc
       0.078682594 -0.09266898 -0.029938597 -0.024488186
000050 34 45 8a bb 0b 95 84 3a 57 1b d6 bd ad 68 8d 3d
       -0.0042196754 0.0010115219 -0.104544334 0.06904731
000060 bd 21 4c ba 8d b3 09 bd ba 62 3c bd 5e a9 39 3d
       -0.000778701 -0.0336185 -0.04599259 0.045327537
000070 23 54 cd 3d 44 cb e9 3c eb ca 57 bd b9 b4 bd 3d
       0.100258134 0.028539307 -0.052683752 0.09262986
000080 59 c4 98 3d 91 c6 a2 3d 05 7c 7f 3d 1d 0f cd bc
       0.07459325 0.0794803 0.062374134 -0.02503162
000090 19 d9 2f 3c de 73 07 bd 26 29 43 3d 18 7c e9 3c
       0.010732912 -0.033069484 0.047646664 0.028501555
0000a0 3f d5 0b bd 11 d4 5a 3c 5c 12 ce 3d 2b cf 81 bd
       -0.034138914 0.013356225 0.100620955 -0.06338342
0000b0 b7 a0 5d 3d 20 da 13 3d 94 3c 60 3d 9a 6c 4d 3d
       0.054108348 0.036096692 0.05474527 0.0501524
0000c0 af 90 50 bd ed 24 c7 3d 28 74 fb 3c 19 00 a4 bc
       -0.05091923 0.0972384 0.030695036 -0.020019578
0000d0 32 95 4a bd ea 7d a3 bc 70 e3 40 3d 09 83 a6 bd
       -0.04945869 -0.019957501 0.0470919 -0.08130462
0000e0 25 eb 05 bd 9b 46 c3 bd 82 30 55 3a fc 3d 8d bd
       -0.032694954 -0.09534951 0.00081325334 -0.06896588
0000f0 c0 d1 f3 bd f5 bd b7 bd 0d 9f 39 bd f0 ed 9f bd
       -0.11905241 -0.08971778 -0.0453177 -0.07809055
000100 28 e8 60 3d c2 40 09 3e 12 20 e8 3d 5c 02 9c bd
       0.0549089 0.1340361 0.11334242 -0.076176375
000110 1d 80 38 3c 20 f7 bc bd 58 65 49 bc 73 11 ce bd
       0.011261013 -0.09226823 -0.012292229 -0.10061922
000120 3e 43 d7 3d 4e 7c e9 3d c8 05 f2 3d 52 e5 8a 3c
       0.10510872 0.11400662 0.11817509 0.016955052
000130 c2 cb bc 3d 6f 5a 89 3c 70 7e 4e bc af 76 8b bd
       0.09218551 0.016766755 -0.012603387 -0.068097465
000140 f0 02 1c 3c 2e f8 b8 3d 76 6c d1 3c 47 d7 ff bd
       0.009522185 0.090317115 0.025564414 -0.12492233
000150 5a 41 fd 3d 1f ad 60 bd ce 70 76 bd 26 45 59 3b
       0.123659804 -0.0548526 -0.060166173 0.0033152788
000160 0f fa 38 3d 34 ce 63 3d 17 8d 71 bd fc 33 1b 3d
       0.04516035 0.055616572 -0.058972444 0.037891373
000170 97 28 92 bd c6 35 c0 3d 75 84 20 3e cb bf 72 bd
       -0.07136648 0.093852565 0.15675528 -0.05926494
000180 1a dd 6d 3d 9a 82 ad 3d a8 b1 34 bc d6 dd 64 3d
       0.058072187 0.08472176 -0.011028685 0.05587562
000190 5d 23 46 bd 1a 8f c5 bd f8 38 23 3e e2 71 fd bc
       -0.04837357 -0.09646435 0.159397 -0.030938093
0001a0 3f 01 59 3d 69 c5 e0 3d 30 d6 c2 3d 60 06 26 3c
       0.052979704 0.10975153 0.09513509 0.010133356
0001b0 2e c1 18 bd 6e b4 97 3d b0 40 04 3b b4 10 ae bd
       -0.037293606 0.07407461 0.0020180158 -0.084992796
0001c0 04 4e 55 3d 97 97 5c ba 56 59 a1 3d b8 28 b7 3c
       0.052076355 -0.00084149226 0.078783676 0.022358283
0001d0 24 82 d5 3d 4e 11 52 3d 4e 43 d1 bd f2 d5 9d 3d
       0.10425213 0.051286034 -0.102179155 0.077068225
0001e0 38 83 26 3c 57 76 9f bd a2 4d 82 bd ec 57 a3 bd
       0.010163121 -0.077862434 -0.063624635 -0.07975754
0001f0 ea 8c eb 3d 2a 1c c2 bd 62 52 a0 3d 8d 5e 26 3e
       0.115014866 -0.09478028 0.07828213 0.16247006
000200 a8 ca a1 bc 26 ff 5b bd 89 fe a6 bd 5e d9 df 3d
       -0.019749954 -0.053710125 -0.081540175 0.109301314
000210 80 0f 48 3d d1 e8 cf bd a2 0f af bc fe 60 db bd
       0.048842907 -0.10151828 -0.021369759 -0.10711859
000220 0c 9c a0 bd b0 cc 96 3d d8 52 cc 3d 36 c2 1b 3e
       -0.078422636 0.0736326 0.09976739 0.15210804
000230 c1 81 09 be f2 3a 27 bd 74 43 40 bd 08 f1 f8 3c
       -0.13428403 -0.0408277 -0.04693933 0.03038837
000240 c1 40 f1 3d 82 75 fc 3d 9d 4a 9f 3d ce e1 ab 3d
       0.11779929 0.123271 0.07777903 0.08392678
000250 67 f6 16 3d 5d 15 00 3d 8d 9f bf 3d 5c 37 8e bc
       0.03685608 0.031270374 0.09356604 -0.017360382
000260 8c 53 ed bc 8c 8a d7 3d 6c ee a2 3d f9 78 e3 3d
       -0.028970502 0.105244726 0.079556316 0.11107058
000270 10 8e 64 bc 48 51 d3 3b 0e af 10 bd a4 3e b7 3d
       -0.013949886 0.0064488985 -0.035323195 0.089474946
000280 80 8d 76 bc 58 28 bc 3c ce a1 a7 bd 69 e4 3a bd
       -0.015048385 0.022968456 -0.08185159 -0.045627985
000290 72 f3 1a bd 44 a7 08 3d 74 de 4a 3d 90 83 96 3d
       -0.037829824 0.033362642 0.049528554 0.07349312
0002a0 79 1a f4 bd 62 6d 27 bd 22 e1 db bd ea c9 f6 3d
       -0.11919112 -0.0408758 -0.107363 0.12050231
0002b0 fa c7 05 3e c1 2b 11 3e de ac fa 3d c3 39 63 bd
       0.13064566 0.14176847 0.12240003 -0.055475008
0002c0 e4 b5 d9 bd c9 0f ed bd 70 51 27 3d 38 d2 0c bc
       -0.10630396 -0.115752764 0.04084915 -0.008595042
0002d0 00 71 01 ba f8 ba df 3c 3a d5 8c bd 7d 1c 9e bd
       -0.0004937798 0.027310833 -0.06876607 -0.077202775
0002e0 de 83 95 3d 15 55 8c 3d 77 05 9c bd a0 b3 8f 3b
       0.07300542 0.068521656 -0.0761823 0.0043854266
0002f0 e5 f2 0d 3d 08 79 ae bc 91 35 f5 bd 64 17 e4 bd
       0.03465547 -0.021297947 -0.119731076 -0.11137274
000300 90 09 0e bd 3f f0 1f 3e 04 46 e3 3d b0 4f 12 bd
       -0.03467709 0.1561899 0.11097339 -0.035720527
000310 82 c2 8a bd 84 1e 13 3d b8 c4 de bd 77 91 16 3e
       -0.06775381 0.035917774 -0.10877365 0.14703928
000320 30 9c 5c 3d 78 a5 29 3d fc b4 f6 bc 72 19 6d bd
       0.05385989 0.04141757 -0.030115597 -0.057885595
000330 46 13 15 bd be d2 24 3d b9 6d 99 3d 20 bb 6a 3c
       -0.036395334 0.040240042 0.07491631 0.014326841
000340 2a a6 87 bd 3e fe ab bd ba 06 22 bd 74 29 d1 bd
       -0.0662349 -0.08398102 -0.039557196 -0.10212985
000350 06 ef 15 3d 4c 0b fa bd d2 fd f9 3d 80 63 75 bb
       0.036604904 -0.12209186 0.122066155 -0.003744334
000360 60 91 68 3c 6a ce 4a bd 20 43 ab 3b c0 e6 2a 3d
       0.014194816 -0.049513258 0.005226508 0.041723967
000370 98 4e da 3d 10 47 e9 3c 0c 12 2c 3d a4 43 f6 bc
       0.10659522 0.028476268 0.0420094 -0.03006155
000380 4b d9 00 bd 4c 55 6e bd 84 1a d8 bc 04 ab b7 bd
       -0.031457227 -0.058186814 -0.026379831 -0.089681655
000390 60 71 1c 3d a0 ff 0e 3d 0c 18 01 bd c2 d8 b2 3d
       0.03819406 0.03491175 -0.031517074 0.087327495
0003a0 34 16 9f bd 06 82 a1 bd 3c f8 29 3d 80 ef cb 3b
       -0.07767907 -0.07886128 0.0414965 0.006223619
0003b0 5f a0 f7 bd f0 34 fd bd a0 b4 21 37 ba ec f5 3d
       -0.12091135 -0.12363613 9.638403e-06 0.12008043
0003c0 46 5f 75 bd bb 5e ee bd 8a c3 6b bd b0 b3 89 3d
       -0.059905313 -0.11639162 -0.057559527 0.06723726
0003d0 9f 0c 61 3d 55 de d4 3d 01 1a 48 3d 59 8a c1 bd
       0.054943677 0.10393969 0.048852924 -0.09450216
0003e0 a8 4a a4 bd 9d 79 81 3d 68 fe b8 3c ca e1 a6 3d
       -0.08022052 0.06322024 0.022582248 0.081485346
0003f0 17 f2 af 3d f0 7a b4 3d f4 e0 67 bd 18 b0 4a bc
       0.08591097 0.08812511 -0.056611016 -0.012371086

gcn_diff.conv2.bias f4 [128]
000000 9d 4f 89 3c 9c e8 db 3c e0 cb 5e 3c df 1f 79 3c
       0.016761595 0.026844315 0.013598412 0.015205353
000010 73 e6 3a 3c 4f 94 7f 3c 43 3f 6d 3c 0a 8e 58 3c
       0.011407482 0.015599324 0.014480415 0.0132174585
000020 9f ea 0c bc d4 81 7e 3c a8 85 be bb 04 bb 95 3c
       -0.00860086 0.015533883 -0.005814273 0.018277653
000030 c4 f2 16 bc 3b a6 b9 3c d5 24 5e 3c 0f 0e 13 3c
       -0.009213153 0.022662273 0.013558586 0.00897552
000040 a8 87 95 3c 4f 86 75 3c 9c c9 12 3c 7f f2 55 3b
       0.018253163 0.014985635 0.0089592 0.003264576
000050 72 12 71 3c 1b 60 76 ba 39 33 a7 3c dd af 2e 3c
       0.01471387 -0.0009398476 0.020410167 0.010662046
000060 8f e4 74 bc 3c d7 2a 3c 58 fb 48 3c 97 79 7b 3c
       -0.014947071 0.010427292 0.012266956 0.0153488135
000070 ea 08 55 bc bc ce 70 3c bf d3 d2 3c 44 d5 93 3c
       -0.013002614 0.014697727 0.025735734 0.018046029
000080 8d 7a 4c 3c 53 16 d9 3b 98 16 30 3c 91 f8 83 3c
       0.01248039 0.0066249757 0.010747574 0.016109737
000090 d9 b8 60 3c 47 c3 8a 3c 6c 54 5a bb c7 8c f2 b9
       0.013715946 0.016938819 -0.003331448 -0.00046262724
0000a0 8e 20 62 3a 9e b1 6e 3b 30 da c0 3b 4d 77 8f 3c
       0.0008626067 0.0036421786 0.005885385 0.017512942
0000b0 43 ab 64 3c 40 cf ca 3b 59 04 82 3c 10 48 17 3c
       0.013956848 0.006189257 0.015871214 0.00923349
0000c0 75 89 aa 3c 6d 50 02 3d b4 d4 f5 3b 59 29 07 3b
       0.020817498 0.03181498 0.007502163 0.002062401
0000d0 ce ed c8 3c de 7d 48 3c 55 7a e0 3b 6f 4b b5 3c
       0.024527457 0.01223704 0.0068505206 0.022130696
0000e0 4e c9 77 bc af fa b5 3c 99 95 3f bc a5 c0 94 3c
       -0.015123678 0.022214262 -0.011693382 0.018158266
0000f0 4b 85 fd 3b 7f 31 98 bc dc 0e 9d 3c 63 a5 3c 3c
       0.007736837 -0.01857829 0.019172125 0.011514041
000100 95 b3 8c 3c 55 77 4c 3c 34 c9 f3 bb 2c c9 b3 3c
       0.017175475 0.012479623 -0.0074397568 0.021946512
000110 08 6b 93 3c 48 d3 7d 3b d8 d3 dd 3b 66 42 47 3c
       0.017995372 0.003873067 0.0067696385 0.012161827
000120 99 61 14 3c e7 f4 c4 bc bd 9c 89 3c df d8 a1 bc
       0.009056472 -0.02404256 0.016798371 -0.019756733
000130 0b 14 80 3c ec 99 1a 3c 2a 73 0f 3c 7b cf 74 3c
       0.015634557 0.009436112 0.008755485 0.014942045
000140 8a 20 5e 3c 38 f2 45 3b 96 62 2f 3c c4 10 a4 38
       0.013557563 0.0030204188 0.010704657 7.823252e-05
000150 2a 66 e4 3b f0 a3 c4 3c a9 d9 6d bc dd 07 1c 3c
       0.0069701867 0.024003953 -0.014517226 0.009523359
000160 5e ed bf bc 52 12 8b bc b7 dc b2 3c 52 1c ab 3c
       -0.023428615 -0.01697651 0.02183376 0.020887528
000170 c6 f7 23 3b c0 41 83 3c 0c cf bb 3c 1b b2 56 3c
       0.002501951 0.016022563 0.022925876 0.013103987
000180 18 0d fb 3a e0 ec 3d 3b e8 06 a9 3c 92 73 de 3b
       0.0019153683 0.00289803 0.020633176 0.0067886794
000190 08 65 59 3b f7 7e 07 3b 3e c3 b0 3b 37 af 7f 3c
       0.0033171792 0.0020675042 0.0053943684 0.015605739
0001a0 c5 a7 86 3c d4 7f 2a bb 4c 00 64 3b ed e0 ac 3b
       0.01643742 -0.0026016133 0.0034790216 0.0052758367
0001b0 76 a2 b0 3c 07 a1 e7 3c 66 19 4a 3c d0 70 98 3c
       0.021561842 0.028275026 0.012335157 0.01860848
0001c0 8b 4d f5 3c bc 0c 1c 3c b3 8d a5 bb c2 15 c8 3c
       0.029944202 0.0095245205 -0.0050522923 0.024424437
0001d0 a9 9e 99 3c 9a 3c 83 3c c8 dd 07 bc 99 f2 8b 3c
       0.018752413 0.016020108 -0.008292623 0.017083453
0001e0 be cd 80 3c b9 e7 d1 3c ed 9b 8f 3c 37 2f 47 3c
       0.015723106 0.02562319 0.017530406 0.012157253
0001f0 f9 c0 d1 3c 0f d1 d0 3b 32 cf 8e 3c cd 6f b5 3c
       0.025604712 0.006372578 0.017432783 0.022148037

gcn_diff.conv2.lin.weight f4 [128, 128]
000000 64 ff 6a ba 7c f1 19 3e 74 14 9c bc 7b 49 c0 3d
       -0.0008964448 0.15033525 -0.019052722 0.09389015
000010 c9 76 bb 3d f9 13 20 be c9 b4 16 3e 29 b1 90 3d
       0.09153516 -0.15632619 0.14717402 0.070650406
000020 f9 24 54 bd f3 cb 23 be 00 40 a7 3d 84 e5 b8 bd
       -0.051793072 -0.15995769 0.08166504 -0.09028152
000030 7e 24 b3 bd 1b ea d5 bc 2b 7e 01 be bf af 98 3d
       -0.08747195 -0.026112607 -0.12645786 0.07455396
000040 06 49 11 bb 1b f6 16 be ed 56 2c be 40 91 c8 3b
       -0.002216877 -0.1474232 -0.16830035 0.006120831
000050 f6 ca 8d 3c ca 88 f5 3d 3c 77 96 3d c1 01 0d be
       0.017308693 0.11988981 0.07346961 -0.137702
000060 99 8d e5 3d c2 fa 08 be 33 df 84 bd da 7c 92 bd
       0.11208648 -0.13376907 -0.06487884 -0.0715272
000070 23 b6 7b bb e0 73 83 bd 22 70 c5 bb 8f 9c 15 3d
       -0.0038408122 -0.06418586 -0.00602533 0.03652626
000080 2c 0c fd 3c 72 5b 49 3b d8 d0 ea 3d 70 a7 8b bd
       0.030889593 0.0030724672 0.11465615 -0.068190455
000090 35 68 ca 3c 7b 6d 85 bd c5 3e fb 3d f4 94 21 3e
       0.024707893 -0.06515022 0.12267832 0.15779477
0000a0 66 a3 a7 3d cd 9f d1 3d e3 d0 ec bb 81 97 92 3d
       0.08185463 0.10235558 -0.0072270497 0.07157803
0000b0 ee eb 3d 3d 0c 90 41 bd d3 a7 3f 3c f2 94 55 bd
       0.04636758 -0.047256514 0.011697727 -0.052144
0000c0 49 41 6c 3c e2 d0 e9 3c 8e b7 7b bd ee 14 2e bd
       0.014419862 0.028541986 -0.06145435 -0.04250043
0000d0 13 c2 6e 3c 17 67 39 bd 40 fe bb 3d 05 aa ec bd
       0.014572638 -0.04526433 0.09179354 -0.11555866
0000e0 4b 5c f4 bc 10 2b 18 be 99 27 87 bd 88 05 af 3d
       -0.029829165 -0.14860177 -0.065993495 0.08545977
0000f0 f8 f4 02 be 57 da bf 3d c4 e0 30 bd 64 f5 ae 3c
       -0.1278876 0.09367817 -0.043183103 0.021357246
000100 0f 4c a7 bd 1f 23 b2 bb a8 14 29 3e 0f 7a c1 3d
       -0.08168804 -0.0054363157 0.16511786 0.09447109
000110 de a1 6c bd ee 71 be bd 2a ef 7b bd a7 f0 b7 3c
       -0.057771556 -0.09299074 -0.06150738 0.02245362
000120 59 b6 ca 3d 36 66 b6 3c f2 12 0e 3e 1a 8c 33 bd
       0.09898061 0.022265535 0.13874415 -0.043834783
000130 59 1d 5b 3d ff 9e 02 3d 8b 1a 0b be e4 41 ec 3d
       0.053494785 0.03188991 -0.13584344 0.11536005
000140 b0 d1 25 be fc 2b 94 3d 50 f8 c3 3d da 1c 3f 3c
       -0.1619327 0.07234952 0.09568846 0.011664594
000150 fb 9d 77 bd 3b 02 a8 3c 09 92 c2 3d e5 76 f9 3d
       -0.060453396 0.020508876 0.0950051 0.121808805
000160 81 51 11 be b9 4b 16 bd 9f 9b 2a be 77 8a dc bd
       -0.14191248 -0.03669331 -0.16660927 -0.107685976
000170 b4 1f d8 bd 25 72 b4 bb 79 57 07 3e a2 c6 87 3d
       -0.10552922 -0.005506771 0.13216962 0.06629683
000180 b5 92 22 3d 9c f0 a4 bd 30 5f 8c bd 35 e9 ae bd
       0.039690692 -0.08053705 -0.06854093 -0.085405745
000190 84 f3 1d 3c 94 c9 af bd 8a c9 d8 bb 58 9a 01 3e
       0.009640578 -0.0858337 -0.006615822 0.12656534
0001a0 a1 22 f2 3d 1f b5 32 bd fc 9b 39 bd cf 0e c1 bd
       0.11823011 -0.04362976 -0.045314774 -0.09426653
0001b0 bf a3 dd 3c f3 95 40 3d 52 07 05 3e 3c 1c 74 3c
       0.02705562 0.047018003 0.12991074 0.01489931
0001c0 80 d0 e0 bd d7 0b b2 bd 40 63 4e bc 6e dd f5 3c
       -0.10977268 -0.086936645 -0.012596905 0.030012812
0001d0 ef cd 1c 3e dc 75 bc bc 32 73 60 bd 40 f8 d1 bb
       0.15312932 -0.023005418 -0.05479736 -0.0064077675
0001e0 cc 90 ac 3d 87 3d eb 3d 12 b9 75 3d bf d5 36 3c
       0.08426055 0.11486345 0.05999095 0.0111593595
0001f0 89 b0 83 3d 64 95 15 bd 65 99 23 3e d6 72 e3 3c
       0.06430156 -0.036519423 0.15976484 0.027764719
000200 87 2a 42 3d 78 fa c4 3d bb 96 9f 3d 77 03 1a be
       0.04740384 0.096180856 0.077924214 -0.15040384
000210 92 1b 04 be 9c 4d b9 3d 7a 09 a9 bd 03 de 36 bd
       -0.12901142 0.09048006 -0.08253761 -0.04464532
000220 b1 63 ca bd 5f b1 a6 bd 5f 25 1b 3e 06 f1 00 bd
       -0.09882296 -0.081392996 0.15150975 -0.031479858
000230 44 25 3d 3e b5 23 bd bd f6 c2 0e 3e 8c c3 7c 3d
       0.18471247 -0.09235326 0.13941559 0.061709926
000240 91 4c 84 bd 86 f4 e4 3c 50 f9 2e 3d 97 0b a6 bd
       -0.064599164 0.02794863 0.04271823 -0.08107679
000250 14 90 98 3d db 8d c7 ba 6a 52 7a 3c 0f 95 f9 bb
       0.07449356 -0.0015224771 0.015278438 -0.007616646
000260 57 41 58 3d 08 55 c0 bd e1 8c cc bd ef 92 1f 3d
       0.052796688 -0.093912184 -0.09987808 0.038958486
000270 4f 6d 55 bd c5 16 d7 bd 5a d9 cf 3d 3b 4e f8 bd
       -0.052106198 -0.1050239 0.101488784 -0.12124296
000280 0f e2 b2 bd 67 dd a3 bd 94 58 22 bd 64 8e 1b bd
       -0.087345235 -0.080012135 -0.039635256 -0.03797759
000290 2c 94 a3 3d 11 0a aa bd 3a 38 19 be 12 16 ab bd
       0.07987246 -0.08302701 -0.14962855 -0.08353819
0002a0 a0 f2 49 3d c7 e3 9e bd 7d c0 a4 3d 6c a0 ae bd
       0.04930365 -0.07758289 0.08044527 -0.08526692
0002b0 b2 7a 9b 3d 90 2e 51 3d 9a 67 11 3e f2 ac 17 be
       0.07591762 0.051069796 0.14199677 -0.14812067
0002c0 a2 63 e1 ba de c8 3d be f1 b4 b6 3d 24 d1 df 3d
       -0.0017195831 -0.18533656 0.089212306 0.10928562
0002d0 81 e2 45 3d f5 6c 10 be 4e cf e1 bd 1a 9e 63 3c
       0.048311714 -0.14104064 -0.11025868 0.013892675
0002e0 c0 ea b9 bd 6d 14 ac bd fe a9 42 be bd 82 7f bd
       -0.09077978 -0.084023334 -0.1901016 -0.06238054
0002f0 c3 38 13 3e 36 7a 14 bd 85 77 2e 3e 7a ea a1 bd
       0.14377122 -0.036249362 0.1703778 -0.07906051
000300 65 18 35 3e c0 62 3d 3d c3 a6 22 3d f3 0c a1 bd
       0.17685087 0.046236753 0.039709818 -0.07863798
000310 ec 12 01 bd 76 9e 01 3e 94 40 0c 3e 3d f6 53 bc
       -0.031512186 0.12658104 0.1369651 -0.012937126
000320 38 cd 20 3c e7 32 1d be cf 15 c3 3d cf d1 ad bd
       0.009814553 -0.15351449 0.09525644 -0.084872834
000330 90 f3 c8 bd 5a f4 71 3d b7 5d 2e 3e 68 22 93 bd
       -0.09812081 0.059070922 0.17027937 -0.07184297
000340 6d c7 72 bd e6 b0 d5 bd 07 c2 40 3e d1 33 d4 bd
       -0.05927222 -0.10434131 0.18824016 -0.10361446
000350 d5 06 9a 3d 1a 02 1b be bc eb d2 bc a5 b7 8f bd
       0.07520834 -0.1513752 -0.025747173 -0.07017449
000360 52 bf a0 bd d2 08 83 bd 61 35 ab 3d 20 99 33 bc
       -0.078489915 -0.06398167 0.083597906 -0.010961801
000370 19 08 1d be bd 1a 8a 3d fc 13 06 3e e3 c5 81 3d
       -0.1533512 0.06743381 0.13093561 0.06336572
000380 9c 67 4b bd fd 9b 9a bd 88 b0 0f 3d cb 52 09 3e
       -0.049659356 -0.07549284 0.035080463 0.1341049
000390 20 3b 4a bd 9f c8 cb 3d 98 1f 07 be 43 6e a5 bd
       -0.049372792 0.09950375 -0.13195646 -0.080776714
0003a0 e3 96 13 be 16 43 1f 3e a3 c1 2d bd fb 03 06 bd
       -0.14413027 0.15552935 -0.042420994 -0.03271864
0003b0 55 d0 f2 bd 8f 61 a7 bd 0e a3 34 3e 9b 17 c3 3d
       -0.118561424 -0.08172905 0.17640325 0.09525987
0003c0 08 d5 0a 3e b0 dd da 3d 28 0f 7e 3d a5 ae 8e bd
       0.13557827 0.10686815 0.062026173 -0.069669046
0003d0 9d f5 88 bd 9d 3f ae 3c 2e 1f f6 bd 2e 36 40 3d
       -0.06687472 0.021270568 -0.12017666 0.04692667
0003e0 65 da 11 3e 15 a5 3e 3e a0 30 f7 bd e1 e8 21 be
       0.14243467 0.18617661 -0.12069821 -0.15811493
0003f0 9d e3 aa 3c 1c d6 6f bd d5 c9 f3 bd 05 c3 ee 3d
       0.020860488 -0.0585538 -0.11903731 0.11658291

readout.fc.weight f4 [128, 256]
000000 fc 9e 68 3d 5f b3 d3 3d ac 31 bc 3b f1 bf bd 3d
       0.056792244 0.10336947 0.005743226 0.092651255
000010 63 94 8f bc 23 2f 41 3d 17 dd 0f 3d 1d ce 66 3d
       -0.017526811 0.047164094 0.035122957 0.05634891
000020 42 c9 85 3d fb 06 b7 3c 59 10 36 3d 3b 10 24 3d
       0.065325275 0.022342196 0.044449184 0.04005454
000030 ff 18 9f 3d 97 06 a3 3d eb ab ab 3d 1a 87 90 3d
       0.077684395 0.07960241 0.083824 0.070570186
000040 90 29 a6 3d 26 60 d0 3c 33 4f 2d 3d 4c 64 9f bd
       0.08113396 0.025436472 0.04231186 -0.07782802
000050 55 02 29 3d ad 06 b5 3d 61 21 f9 ba 8c 55 da 3d
       0.04126199 0.08839164 -0.001900714 0.10660848
000060 14 d6 34 bb b4 43 dd 3d 41 8f c7 3b e8 88 9a 3c
       -0.002759342 0.10803929 0.0060900752 0.01886411
000070 9c 76 80 3c 52 28 9f 3d e7 f3 b3 3c bc 7b 45 3d
       0.015681557 0.07771362 0.021966888 0.048213705
000080 d5 14 a3 3d 34 57 32 ba b3 12 23 3d c2 91 0b 3d
       0.07962958 -0.00068031554 0.039812755 0.034074552
000090 de 1d a6 3a b6 2b 08 3b f4 c4 19 3d 6c 2f 80 3d
       0.0012673696 0.0020778007 0.037541345 0.06259045
0000a0 0a 92 7a 3d 75 98 81 3c 73 d8 0d 3d c3 92 05 3c
       0.06117443 0.015819767 0.03463025 0.0081526665
0000b0 e8 c9 82 3d c6 74 ba 3d 0a da d6 3d 52 88 09 3d
       0.06386167 0.09104304 0.104908064 0.03357727
0000c0 2d 7f ac 3d 5a 9a 8c 3d b8 a9 97 3d 73 50 c5 3d
       0.08422694 0.06865378 0.07405418 0.09634485
0000d0 60 bf a6 3d e4 62 cc 3d 44 d8 20 3c 62 e9 95 bb
       0.08141971 0.099797994 0.009817187 -0.0045749405
0000e0 db 53 c0 3d 71 12 e4 3d 3c 14 ab 3d c5 ff 13 3d
       0.09390994 0.1113633 0.08353469 0.036132593
0000f0 40 05 0f 3d de 63 29 bc 85 3c a8 3d ac e6 cd 3d
       0.034917116 -0.010338752 0.08214668 0.10053763
000100 ba d6 67 bc 40 44 aa 3c 0c 26 27 3c 50 a1 13 3d
       -0.014150316 0.020784497 0.010201942 0.03604251
000110 44 aa 43 bb 8a 51 d5 3c e8 c5 35 3d 4e 86 96 3d
       -0.0029856125 0.026039857 0.04437819 0.07349835
000120 34 90 e5 3d 95 b5 dd 3b 2d 6b 93 3d 5e 5b 9c 3d
       0.11209145 0.006766031 0.071981765 0.076346144
000130 23 b5 a9 bc 8c 32 6d 3c 66 78 b5 bd 17 6d dd 3c
       -0.020716256 0.014477383 -0.08860855 0.027029557
000140 cf 87 74 3d 4a 1e 63 3d 1c 07 71 3d ab 9e 4f 3d
       0.05969983 0.055448808 0.05884467 0.050688427
000150 9f 0f e3 3c 27 bb 04 bc e7 ec a8 3a 68 59 be 3d
       0.02771741 -0.008101261 0.0012887985 0.09294397
000160 63 5c cf 3d 6c 77 99 bb 7c 03 38 3d 2d d4 35 3d
       0.10125043 -0.0046834257 0.044925198 0.0443918
000170 17 18 70 bc b6 ee c1 3c cc 80 f5 3c d8 3f 97 3c
       -0.014654181 0.023673397 0.029968642 0.01846306
000180 af 29 a6 bb 7c 62 80 3d cb 1f a2 3d dc ee c6 3d
       -0.005070887 0.062687844 0.0791622 0.097135276
000190 08 07 bd bc eb 90 2c 3d be 2c 2c 3d 5d 93 fc 3c
       -0.023074642 0.042130392 0.042034857 0.030831987
0001a0 f5 9d 1e bc b9 1f 98 3d 7a 5c cb 3c 6d a2 98 3d
       -0.009681215 0.074279256 0.02482437 0.07452855
0001b0 67 45 88 3c 5a c3 f3 3d da 0c c3 3d 1e dc 12 3d
       0.016634656 0.11902495 0.095239356 0.03585445
0001c0 d0 f2 6c 3d 74 f7 8f 3c 3a 30 c0 3b 74 9e 25 3c
       0.05784875 0.01757405 0.005865124 0.010108579
0001d0 85 b2 91 3b 7b 7e 5d 3d c6 1f e4 3d 14 ab 4b 3d
       0.00444633 0.0540757 0.11138873 0.0497237
0001e0 bb 4c d5 3d df 16 c7 3d 5a df 80 bc 95 67 f4 bc
       0.10415026 0.09721159 -0.015731502 -0.029834548
0001f0 cb bb 2f 3d f0 b7 03 3d 44 97 b4 b9 5c b4 f2 3c
       0.042903703 0.03215784 -0.00034444977 0.029627018
000200 fa 66 8e 3d 27 3a 0c 3d 3e 9d 21 3b ea b4 d6 bb
       0.06953235 0.034235146 0.0024660374 -0.0065523284
000210 0e 7c 9f 3d df 27 25 3d 81 cd be 3d 21 5f 85 3d
       0.077873334 0.040321227 0.093165405 0.06512285
000220 dc b8 9d 3d a4 04 85 bc 75 fa e3 bc 0f 38 0e bd
       0.07701275 -0.016237564 -0.027829388 -0.03472143
000230 2a 0f c8 39 d4 ce 98 3c e2 bd 13 3c f2 0f 5f 3d
       0.0003815827 0.01865331 0.00901744 0.054458566
000240 e5 40 3d 3d 0e 7a db 3d 7c aa 0a 3d 7a d0 f0 39
       0.046204466 0.107166395 0.033853993 0.00045931694
000250 8c db 93 bb 54 2f 54 3d 95 55 70 3b 03 6c 1f bc
       -0.004512256 0.051802948 0.0036672105 -0.009730342
000260 a1 05 d2 3d fe 25 86 bc 7f 10 ea 3c 45 c7 12 3d
       0.1025498 -0.016375538 0.02857232 0.03583457
000270 4f 9c 0c bc 53 c5 33 3d 09 07 b6 3a fc a4 88 3d
       -0.008582189 0.043889355 0.0013887595 0.06672093
000280 6e 6d a6 3d b9 c5 a0 3d 42 37 8f 3d 20 d9 bc 3d
       0.08126341 0.078502126 0.069929615 0.09221101
000290 c3 99 a6 3d 01 74 aa 3c 02 12 18 bc 5a 2c 72 3d
       0.081347965 0.020807268 -0.009281637 0.05912433
0002a0 f6 a9 5a 3d 22 ca 44 3d 67 f1 af 3d de e0 e1 3d
       0.053384744 0.04804433 0.08590966 0.11029218
0002b0 fe e2 c2 3c fd 05 41 3d 73 59 22 3d 2c cd 45 3d
       0.023789879 0.04712485 0.039636087 0.04829137
0002c0 e4 e8 50 3d ac 8e 85 3d 4b 6d cc 3d ff 12 ac 3d
       0.05100335 0.06521353 0.099817835 0.08402061
0002d0 d2 ff b4 3d 1d 9a 9c 3d d8 15 85 3d 92 64 62 3d
       0.08837856 0.07646582 0.06498307 0.055271693
0002e0 a2 b7 d1 bd 41 2d 78 3d ec d5 3b bd 0d fb d1 3b
       -0.10240103 0.060590032 -0.04585831 0.0064081014
0002f0 05 fc 7b 3d ee 00 a5 bd f9 a3 6b 3c cf 09 e2 3c
       0.06151964 -0.08056818 0.014382356 0.027592568
000300 8b 7e 1f 3d 9e f7 8e bb 1d 22 77 3c 0d 2e e9 3c
       0.03893904 -0.0043630144 0.015083817 0.028464342
000310 37 a2 ad 3d 06 04 df bc 9e 67 ae 3d 06 f4 1d 3d
       0.08478206 -0.027223598 0.08515857 0.038562797
000320 7e b5 25 3d 1c 04 8c 3d 1d 70 73 3c 12 bc 96 bc
       0.040456288 0.06836721 0.014858273 -0.018400226
000330 45 8f 47 3c 20 ec 32 3d 83 ff 89 3b 6e 1f a0 3c
       0.012180154 0.043682218 0.0042113676 0.019546237
000340 ea 2f 99 3d ce 6f 96 3d 2e f2 4c 3d d7 f0 79 bb
       0.07479842 0.07345544 0.050035648 -0.0038137936
000350 3d 7e e5 bc 06 fb 19 3b 61 6f 36 bc 14 94 dd 3c
       -0.028014297 0.002349557 -0.011134953 0.027048148
000360 3b e6 e7 bd 33 bd 8a 3c 1d d5 55 3d ca e1 39 3d
       -0.1132321 0.01693592 0.052205194 0.045381345
000370 cf 45 63 3d 32 48 e4 3d 24 17 ea 3c 68 05 a5 3d
       0.055486497 0.11146583 0.028575487 0.08057672
000380 42 ed 4d 3d 22 61 9e 3d a9 ac b4 3d f8 0f 84 39
       0.050275095 0.0773337 0.08821995 0.000251889
000390 9b 61 8a bd 01 93 5b 3d dc df 22 bc fd 7b 71 3d
       -0.06756898 0.05360699 -0.009941068 0.058956135
0003a0 52 ee a2 3d 07 1e 88 3d bb b6 a6 3c 0e 50 18 3c
       0.07955612 0.06646352 0.020350805 0.00929643
0003b0 2b 9f 09 3d 0c 2d 9e 3d 23 32 8e 3d 82 40 a7 3d
       0.03359906 0.07723436 0.069431566 0.08166601
0003c0 48 97 d9 3c d0 e2 25 3d 3a a7 14 3d 4e c9 2f 3d
       0.026561394 0.04049951 0.036292292 0.04291659
0003d0 72 22 7f bc e2 38 9d 3b a6 3c 08 3d 8e f9 da 3d
       -0.015572177 0.0047980407 0.033260964 0.1069213
0003e0 7c d9 1a 3d d1 13 80 3d b0 37 3c 3d 25 e9 c0 3c
       0.037805066 0.0625378 0.045951545 0.023548672
0003f0 1c 89 08 bd 6b ff 2d 3d ad a2 1a 3d a9 e8 5b 3c
       -0.033333883 0.042479914 0.037752796 0.01342217
